…
I0410 21:24:14.159080 19018 net.cpp:322] The NetState phase (0) differed from the phase (1) specified by a rule in layer accuracy
I0410 21:24:14.159514 19018 net.cpp:58] Initializing net from parameters: 
name: "finalprojectCaffeNet"
state {
  phase: TRAIN
  level: 0
  stage: ""
}
layer {
  name: "data"
  type: "ImageData"
  top: "data"
  top: "label"
  include {
    phase: TRAIN
  }
  transform_param {
    mirror: true
    crop_size: 227
    mean_file: "data/ilsvrc12/imagenet_mean.binaryproto"
  }
  image_data_param {
    source: "data/finalproject/finalproject.train"
    batch_size: 50
    new_height: 256
    new_width: 256
  }
}
layer {
  name: "conv1"
  type: "Convolution"
  bottom: "data"
  top: "conv1"
  param {
    lr_mult: 1
    decay_mult: 1
  }
  param {
    lr_mult: 2
    decay_mult: 0
  }
  convolution_param {
    num_output: 96
    kernel_size: 11
    stride: 4
    weight_filler {
      type: "gaussian"
      std: 0.01
    }
    bias_filler {
      type: "constant"
      value: 0
    }
  }
}
layer {
  name: "relu1"
  type: "ReLU"
  bottom: "conv1"
  top: "conv1"
}
layer {
  name: "pool1"
  type: "Pooling"
  bottom: "conv1"
  top: "pool1"
  pooling_param {
    pool: MAX
    kernel_size: 3
    stride: 2
  }
}
layer {
  name: "norm1"
  type: "LRN"
  bottom: "pool1"
  top: "norm1"
  lrn_param {
    local_size: 5
    alpha: 0.0001
    beta: 0.75
  }
}
layer {
  name: "conv2"
  type: "Convolution"
  bottom: "norm1"
  top: "conv2"
  param {
    lr_mult: 1
    decay_mult: 1
  }
  param {
    lr_mult: 2
    decay_mult: 0
  }
  convolution_param {
    num_output: 256
    pad: 2
    kernel_size: 5
    group: 2
    weight_filler {
      type: "gaussian"
      std: 0.01
    }
    bias_filler {
      type: "constant"
      value: 1
    }
  }
}
layer {
  name: "relu2"
  type: "ReLU"
  bottom: "conv2"
  top: "conv2"
}
layer {
  name: "pool2"
  type: "Pooling"
  bottom: "conv2"
  top: "pool2"
  pooling_param {
    pool: MAX
    kernel_size: 3
    stride: 2
  }
}
layer {
  name: "norm2"
  type: "LRN"
  bottom: "pool2"
  top: "norm2"
  lrn_param {
    local_size: 5
    alpha: 0.0001
    beta: 0.75
  }
}
layer {
  name: "conv3"
  type: "Convolution"
  bottom: "norm2"
  top: "conv3"
  param {
    lr_mult: 1
    decay_mult: 1
  }
  param {
    lr_mult: 2
    decay_mult: 0
  }
  convolution_param {
    num_output: 384
    pad: 1
    kernel_size: 3
    weight_filler {
      type: "gaussian"
      std: 0.01
    }
    bias_filler {
      type: "constant"
      value: 0
    }
  }
}
layer {
  name: "relu3"
  type: "ReLU"
  bottom: "conv3"
  top: "conv3"
}
layer {
  name: "conv4"
  type: "Convolution"
  bottom: "conv3"
  top: "conv4"
  param {
    lr_mult: 1
    decay_mult: 1
  }
  param {
    lr_mult: 2
    decay_mult: 0
  }
  convolution_param {
    num_output: 384
    pad: 1
    kernel_size: 3
    group: 2
    weight_filler {
      type: "gaussian"
      std: 0.01
    }
    bias_filler {
      type: "constant"
      value: 1
    }
  }
}
layer {
  name: "relu4"
  type: "ReLU"
  bottom: "conv4"
  top: "conv4"
}
layer {
  name: "conv5"
  type: "Convolution"
  bottom: "conv4"
  top: "conv5"
  param {
    lr_mult: 1
    decay_mult: 1
  }
  param {
    lr_mult: 2
    decay_mult: 0
  }
  convolution_param {
    num_output: 256
    pad: 1
    kernel_size: 3
    group: 2
    weight_filler {
      type: "gaussian"
      std: 0.01
    }
    bias_filler {
      type: "constant"
      value: 1
    }
  }
}
layer {
  name: "relu5"
  type: "ReLU"
  bottom: "conv5"
  top: "conv5"
}
layer {
  name: "pool5"
  type: "Pooling"
  bottom: "conv5"
  top: "pool5"
  pooling_param {
    pool: MAX
    kernel_size: 3
    stride: 2
  }
}
layer {
  name: "fc6"
  type: "InnerProduct"
  bottom: "pool5"
  top: "fc6"
  param {
    lr_mult: 1
    decay_mult: 1
  }
  param {
    lr_mult: 2
    decay_mult: 0
  }
  inner_product_param {
    num_output: 4096
    weight_filler {
      type: "gaussian"
      std: 0.005
    }
    bias_filler {
      type: "constant"
      value: 1
    }
  }
}
layer {
  name: "relu6"
  type: "ReLU"
  bottom: "fc6"
  top: "fc6"
}
layer {
  name: "drop6"
  type: "Dropout"
  bottom: "fc6"
  top: "fc6"
  dropout_param {
    dropout_ratio: 0.5
  }
}
layer {
  name: "fc7"
  type: "InnerProduct"
  bottom: "fc6"
  top: "fc7"
  param {
    lr_mult: 1
    decay_mult: 1
  }
  param {
    lr_mult: 2
    decay_mult: 0
  }
  inner_product_param {
    num_output: 4096
    weight_filler {
      type: "gaussian"
      std: 0.005
    }
    bias_filler {
      type: "constant"
      value: 1
    }
  }
}
layer {
  name: "relu7"
  type: "ReLU"
  bottom: "fc7"
  top: "fc7"
}
layer {
  name: "drop7"
  type: "Dropout"
  bottom: "fc7"
  top: "fc7"
  dropout_param {
    dropout_ratio: 0.5
  }
}
layer {
  name: "fc8_finalproject"
  type: "InnerProduct"
  bottom: "fc7"
  top: "fc8_finalproject"
  param {
    lr_mult: 10
    decay_mult: 1
  }
  param {
    lr_mult: 20
    decay_mult: 0
  }
  inner_product_param {
    num_output: 11
    weight_filler {
      type: "gaussian"
      std: 0.01
    }
    bias_filler {
      type: "constant"
      value: 0
    }
  }
}
layer {
  name: "loss"
  type: "SoftmaxWithLoss"
  bottom: "fc8_finalproject"
  bottom: "label"
  top: "loss"
}
I0410 21:24:14.159766 19018 layer_factory.hpp:77] Creating layer data
I0410 21:24:14.159847 19018 net.cpp:100] Creating Layer data
I0410 21:24:14.159869 19018 net.cpp:408] data -> data
I0410 21:24:14.159925 19018 net.cpp:408] data -> label
I0410 21:24:14.159981 19018 data_transformer.cpp:25] Loading mean file from: data/ilsvrc12/imagenet_mean.binaryproto
I0410 21:24:14.307930 19018 image_data_layer.cpp:38] Opening file data/finalproject/finalproject.train
I0410 21:24:14.402981 19018 image_data_layer.cpp:58] A total of 15696 images.
I0410 21:24:14.489542 19018 image_data_layer.cpp:85] output data size: 50,3,227,227
I0410 21:24:14.581600 19018 net.cpp:150] Setting up data
I0410 21:24:14.581660 19018 net.cpp:157] Top shape: 50 3 227 227 (7729350)
I0410 21:24:14.581677 19018 net.cpp:157] Top shape: 50 (50)
I0410 21:24:14.581689 19018 net.cpp:165] Memory required for data: 30917600
I0410 21:24:14.581713 19018 layer_factory.hpp:77] Creating layer conv1
I0410 21:24:14.581771 19018 net.cpp:100] Creating Layer conv1
I0410 21:24:14.581787 19018 net.cpp:434] conv1 <- data
I0410 21:24:14.581815 19018 net.cpp:408] conv1 -> conv1
I0410 21:24:15.385543 19018 net.cpp:150] Setting up conv1
I0410 21:24:15.385596 19018 net.cpp:157] Top shape: 50 96 55 55 (14520000)
I0410 21:24:15.385618 19018 net.cpp:165] Memory required for data: 88997600
I0410 21:24:15.385654 19018 layer_factory.hpp:77] Creating layer relu1
I0410 21:24:15.385681 19018 net.cpp:100] Creating Layer relu1
I0410 21:24:15.385700 19018 net.cpp:434] relu1 <- conv1
I0410 21:24:15.385737 19018 net.cpp:395] relu1 -> conv1 (in-place)
I0410 21:24:15.386106 19018 net.cpp:150] Setting up relu1
I0410 21:24:15.386126 19018 net.cpp:157] Top shape: 50 96 55 55 (14520000)
I0410 21:24:15.386137 19018 net.cpp:165] Memory required for data: 147077600
I0410 21:24:15.386149 19018 layer_factory.hpp:77] Creating layer pool1
I0410 21:24:15.386179 19018 net.cpp:100] Creating Layer pool1
I0410 21:24:15.386193 19018 net.cpp:434] pool1 <- conv1
I0410 21:24:15.386207 19018 net.cpp:408] pool1 -> pool1
I0410 21:24:15.386310 19018 net.cpp:150] Setting up pool1
I0410 21:24:15.386327 19018 net.cpp:157] Top shape: 50 96 27 27 (3499200)
I0410 21:24:15.386338 19018 net.cpp:165] Memory required for data: 161074400
I0410 21:24:15.386364 19018 layer_factory.hpp:77] Creating layer norm1
I0410 21:24:15.386397 19018 net.cpp:100] Creating Layer norm1
I0410 21:24:15.386409 19018 net.cpp:434] norm1 <- pool1
I0410 21:24:15.386428 19018 net.cpp:408] norm1 -> norm1
I0410 21:24:15.387003 19018 net.cpp:150] Setting up norm1
I0410 21:24:15.387027 19018 net.cpp:157] Top shape: 50 96 27 27 (3499200)
I0410 21:24:15.387053 19018 net.cpp:165] Memory required for data: 175071200
I0410 21:24:15.387073 19018 layer_factory.hpp:77] Creating layer conv2
I0410 21:24:15.387100 19018 net.cpp:100] Creating Layer conv2
I0410 21:24:15.387116 19018 net.cpp:434] conv2 <- norm1
I0410 21:24:15.387140 19018 net.cpp:408] conv2 -> conv2
I0410 21:24:15.397980 19018 net.cpp:150] Setting up conv2
I0410 21:24:15.398015 19018 net.cpp:157] Top shape: 50 256 27 27 (9331200)
I0410 21:24:15.398028 19018 net.cpp:165] Memory required for data: 212396000
I0410 21:24:15.398051 19018 layer_factory.hpp:77] Creating layer relu2
I0410 21:24:15.398085 19018 net.cpp:100] Creating Layer relu2
I0410 21:24:15.398099 19018 net.cpp:434] relu2 <- conv2
I0410 21:24:15.398115 19018 net.cpp:395] relu2 -> conv2 (in-place)
I0410 21:24:15.398476 19018 net.cpp:150] Setting up relu2
I0410 21:24:15.398495 19018 net.cpp:157] Top shape: 50 256 27 27 (9331200)
I0410 21:24:15.398507 19018 net.cpp:165] Memory required for data: 249720800
I0410 21:24:15.398519 19018 layer_factory.hpp:77] Creating layer pool2
I0410 21:24:15.398546 19018 net.cpp:100] Creating Layer pool2
I0410 21:24:15.398560 19018 net.cpp:434] pool2 <- conv2
I0410 21:24:15.398574 19018 net.cpp:408] pool2 -> pool2
I0410 21:24:15.398666 19018 net.cpp:150] Setting up pool2
I0410 21:24:15.398682 19018 net.cpp:157] Top shape: 50 256 13 13 (2163200)
I0410 21:24:15.398694 19018 net.cpp:165] Memory required for data: 258373600
I0410 21:24:15.398706 19018 layer_factory.hpp:77] Creating layer norm2
I0410 21:24:15.398736 19018 net.cpp:100] Creating Layer norm2
I0410 21:24:15.398749 19018 net.cpp:434] norm2 <- pool2
I0410 21:24:15.398763 19018 net.cpp:408] norm2 -> norm2
I0410 21:24:15.399336 19018 net.cpp:150] Setting up norm2
I0410 21:24:15.399360 19018 net.cpp:157] Top shape: 50 256 13 13 (2163200)
I0410 21:24:15.399374 19018 net.cpp:165] Memory required for data: 267026400
I0410 21:24:15.399384 19018 layer_factory.hpp:77] Creating layer conv3
I0410 21:24:15.399420 19018 net.cpp:100] Creating Layer conv3
I0410 21:24:15.399433 19018 net.cpp:434] conv3 <- norm2
I0410 21:24:15.399449 19018 net.cpp:408] conv3 -> conv3
I0410 21:24:15.421497 19018 net.cpp:150] Setting up conv3
I0410 21:24:15.421533 19018 net.cpp:157] Top shape: 50 384 13 13 (3244800)
I0410 21:24:15.421553 19018 net.cpp:165] Memory required for data: 280005600
I0410 21:24:15.421578 19018 layer_factory.hpp:77] Creating layer relu3
I0410 21:24:15.421599 19018 net.cpp:100] Creating Layer relu3
I0410 21:24:15.421617 19018 net.cpp:434] relu3 <- conv3
I0410 21:24:15.421633 19018 net.cpp:395] relu3 -> conv3 (in-place)
I0410 21:24:15.422154 19018 net.cpp:150] Setting up relu3
I0410 21:24:15.422176 19018 net.cpp:157] Top shape: 50 384 13 13 (3244800)
I0410 21:24:15.422189 19018 net.cpp:165] Memory required for data: 292984800
I0410 21:24:15.422204 19018 layer_factory.hpp:77] Creating layer conv4
I0410 21:24:15.422240 19018 net.cpp:100] Creating Layer conv4
I0410 21:24:15.422252 19018 net.cpp:434] conv4 <- conv3
I0410 21:24:15.422269 19018 net.cpp:408] conv4 -> conv4
I0410 21:24:15.440757 19018 net.cpp:150] Setting up conv4
I0410 21:24:15.440788 19018 net.cpp:157] Top shape: 50 384 13 13 (3244800)
I0410 21:24:15.440801 19018 net.cpp:165] Memory required for data: 305964000
I0410 21:24:15.440820 19018 layer_factory.hpp:77] Creating layer relu4
I0410 21:24:15.440846 19018 net.cpp:100] Creating Layer relu4
I0410 21:24:15.440872 19018 net.cpp:434] relu4 <- conv4
I0410 21:24:15.440889 19018 net.cpp:395] relu4 -> conv4 (in-place)
I0410 21:24:15.441237 19018 net.cpp:150] Setting up relu4
I0410 21:24:15.441256 19018 net.cpp:157] Top shape: 50 384 13 13 (3244800)
I0410 21:24:15.441268 19018 net.cpp:165] Memory required for data: 318943200
I0410 21:24:15.441294 19018 layer_factory.hpp:77] Creating layer conv5
I0410 21:24:15.441326 19018 net.cpp:100] Creating Layer conv5
I0410 21:24:15.441339 19018 net.cpp:434] conv5 <- conv4
I0410 21:24:15.441356 19018 net.cpp:408] conv5 -> conv5
I0410 21:24:15.454612 19018 net.cpp:150] Setting up conv5
I0410 21:24:15.454643 19018 net.cpp:157] Top shape: 50 256 13 13 (2163200)
I0410 21:24:15.454661 19018 net.cpp:165] Memory required for data: 327596000
I0410 21:24:15.454689 19018 layer_factory.hpp:77] Creating layer relu5
I0410 21:24:15.454710 19018 net.cpp:100] Creating Layer relu5
I0410 21:24:15.454722 19018 net.cpp:434] relu5 <- conv5
I0410 21:24:15.454753 19018 net.cpp:395] relu5 -> conv5 (in-place)
I0410 21:24:15.455104 19018 net.cpp:150] Setting up relu5
I0410 21:24:15.455127 19018 net.cpp:157] Top shape: 50 256 13 13 (2163200)
I0410 21:24:15.455139 19018 net.cpp:165] Memory required for data: 336248800
I0410 21:24:15.455153 19018 layer_factory.hpp:77] Creating layer pool5
I0410 21:24:15.455176 19018 net.cpp:100] Creating Layer pool5
I0410 21:24:15.455189 19018 net.cpp:434] pool5 <- conv5
I0410 21:24:15.455207 19018 net.cpp:408] pool5 -> pool5
I0410 21:24:15.455287 19018 net.cpp:150] Setting up pool5
I0410 21:24:15.455304 19018 net.cpp:157] Top shape: 50 256 6 6 (460800)
I0410 21:24:15.455323 19018 net.cpp:165] Memory required for data: 338092000
I0410 21:24:15.455337 19018 layer_factory.hpp:77] Creating layer fc6
I0410 21:24:15.455365 19018 net.cpp:100] Creating Layer fc6
I0410 21:24:15.455376 19018 net.cpp:434] fc6 <- pool5
I0410 21:24:15.455395 19018 net.cpp:408] fc6 -> fc6
I0410 21:24:16.431258 19018 net.cpp:150] Setting up fc6
I0410 21:24:16.431304 19018 net.cpp:157] Top shape: 50 4096 (204800)
I0410 21:24:16.431318 19018 net.cpp:165] Memory required for data: 338911200
I0410 21:24:16.431341 19018 layer_factory.hpp:77] Creating layer relu6
I0410 21:24:16.431362 19018 net.cpp:100] Creating Layer relu6
I0410 21:24:16.431376 19018 net.cpp:434] relu6 <- fc6
I0410 21:24:16.431398 19018 net.cpp:395] relu6 -> fc6 (in-place)
I0410 21:24:16.432129 19018 net.cpp:150] Setting up relu6
I0410 21:24:16.432150 19018 net.cpp:157] Top shape: 50 4096 (204800)
I0410 21:24:16.432174 19018 net.cpp:165] Memory required for data: 339730400
I0410 21:24:16.432188 19018 layer_factory.hpp:77] Creating layer drop6
I0410 21:24:16.432214 19018 net.cpp:100] Creating Layer drop6
I0410 21:24:16.432235 19018 net.cpp:434] drop6 <- fc6
I0410 21:24:16.432250 19018 net.cpp:395] drop6 -> fc6 (in-place)
I0410 21:24:16.432302 19018 net.cpp:150] Setting up drop6
I0410 21:24:16.432322 19018 net.cpp:157] Top shape: 50 4096 (204800)
I0410 21:24:16.432339 19018 net.cpp:165] Memory required for data: 340549600
I0410 21:24:16.432351 19018 layer_factory.hpp:77] Creating layer fc7
I0410 21:24:16.432371 19018 net.cpp:100] Creating Layer fc7
I0410 21:24:16.432384 19018 net.cpp:434] fc7 <- fc6
I0410 21:24:16.432405 19018 net.cpp:408] fc7 -> fc7
I0410 21:24:16.882829 19018 net.cpp:150] Setting up fc7
I0410 21:24:16.886262 19018 net.cpp:157] Top shape: 50 4096 (204800)
I0410 21:24:16.886282 19018 net.cpp:165] Memory required for data: 341368800
I0410 21:24:16.886308 19018 layer_factory.hpp:77] Creating layer relu7
I0410 21:24:16.886332 19018 net.cpp:100] Creating Layer relu7
I0410 21:24:16.886356 19018 net.cpp:434] relu7 <- fc7
I0410 21:24:16.886373 19018 net.cpp:395] relu7 -> fc7 (in-place)
I0410 21:24:16.886772 19018 net.cpp:150] Setting up relu7
I0410 21:24:16.886791 19018 net.cpp:157] Top shape: 50 4096 (204800)
I0410 21:24:16.886803 19018 net.cpp:165] Memory required for data: 342188000
I0410 21:24:16.886816 19018 layer_factory.hpp:77] Creating layer drop7
I0410 21:24:16.886840 19018 net.cpp:100] Creating Layer drop7
I0410 21:24:16.886853 19018 net.cpp:434] drop7 <- fc7
I0410 21:24:16.886868 19018 net.cpp:395] drop7 -> fc7 (in-place)
I0410 21:24:16.886920 19018 net.cpp:150] Setting up drop7
I0410 21:24:16.886945 19018 net.cpp:157] Top shape: 50 4096 (204800)
I0410 21:24:16.886957 19018 net.cpp:165] Memory required for data: 343007200
I0410 21:24:16.886984 19018 layer_factory.hpp:77] Creating layer fc8_finalproject
I0410 21:24:16.887003 19018 net.cpp:100] Creating Layer fc8_finalproject
I0410 21:24:16.887015 19018 net.cpp:434] fc8_finalproject <- fc7
I0410 21:24:16.887033 19018 net.cpp:408] fc8_finalproject -> fc8_finalproject
I0410 21:24:16.888141 19018 net.cpp:150] Setting up fc8_finalproject
I0410 21:24:16.888159 19018 net.cpp:157] Top shape: 50 11 (550)
I0410 21:24:16.888177 19018 net.cpp:165] Memory required for data: 343009400
I0410 21:24:16.888197 19018 layer_factory.hpp:77] Creating layer loss
I0410 21:24:16.888221 19018 net.cpp:100] Creating Layer loss
I0410 21:24:16.888232 19018 net.cpp:434] loss <- fc8_finalproject
I0410 21:24:16.888252 19018 net.cpp:434] loss <- label
I0410 21:24:16.888270 19018 net.cpp:408] loss -> loss
I0410 21:24:16.888298 19018 layer_factory.hpp:77] Creating layer loss
…
I0410 21:24:16.896522 19018 net.cpp:322] The NetState phase (1) differed from the phase (0) specified by a rule in layer data
I0410 21:24:16.896958 19018 net.cpp:58] Initializing net from parameters: 
name: "finalprojectCaffeNet"
state {
  phase: TEST
}
layer {
  name: "data"
  type: "ImageData"
  top: "data"
  top: "label"
  include {
    phase: TEST
  }
  transform_param {
    mirror: false
    crop_size: 227
    mean_file: "data/ilsvrc12/imagenet_mean.binaryproto"
  }
  image_data_param {
    source: "data/finalproject/finalproject.val"
    batch_size: 50
    new_height: 256
    new_width: 256
  }
}
layer {
  name: "conv1"
  type: "Convolution"
  bottom: "data"
  top: "conv1"
  param {
    lr_mult: 1
    decay_mult: 1
  }
  param {
    lr_mult: 2
    decay_mult: 0
  }
  convolution_param {
    num_output: 96
    kernel_size: 11
    stride: 4
    weight_filler {
      type: "gaussian"
      std: 0.01
    }
    bias_filler {
      type: "constant"
      value: 0
    }
  }
}
layer {
  name: "relu1"
  type: "ReLU"
  bottom: "conv1"
  top: "conv1"
}
layer {
  name: "pool1"
  type: "Pooling"
  bottom: "conv1"
  top: "pool1"
  pooling_param {
    pool: MAX
    kernel_size: 3
    stride: 2
  }
}
layer {
  name: "norm1"
  type: "LRN"
  bottom: "pool1"
  top: "norm1"
  lrn_param {
    local_size: 5
    alpha: 0.0001
    beta: 0.75
  }
}
layer {
  name: "conv2"
  type: "Convolution"
  bottom: "norm1"
  top: "conv2"
  param {
    lr_mult: 1
    decay_mult: 1
  }
  param {
    lr_mult: 2
    decay_mult: 0
  }
  convolution_param {
    num_output: 256
    pad: 2
    kernel_size: 5
    group: 2
    weight_filler {
      type: "gaussian"
      std: 0.01
    }
    bias_filler {
      type: "constant"
      value: 1
    }
  }
}
layer {
  name: "relu2"
  type: "ReLU"
  bottom: "conv2"
  top: "conv2"
}
layer {
  name: "pool2"
  type: "Pooling"
  bottom: "conv2"
  top: "pool2"
  pooling_param {
    pool: MAX
    kernel_size: 3
    stride: 2
  }
}
layer {
  name: "norm2"
  type: "LRN"
  bottom: "pool2"
  top: "norm2"
  lrn_param {
    local_size: 5
    alpha: 0.0001
    beta: 0.75
  }
}
layer {
  name: "conv3"
  type: "Convolution"
  bottom: "norm2"
  top: "conv3"
  param {
    lr_mult: 1
    decay_mult: 1
  }
  param {
    lr_mult: 2
    decay_mult: 0
  }
  convolution_param {
    num_output: 384
    pad: 1
    kernel_size: 3
    weight_filler {
      type: "gaussian"
      std: 0.01
    }
    bias_filler {
      type: "constant"
      value: 0
    }
  }
}
layer {
  name: "relu3"
  type: "ReLU"
  bottom: "conv3"
  top: "conv3"
}
layer {
  name: "conv4"
  type: "Convolution"
  bottom: "conv3"
  top: "conv4"
  param {
    lr_mult: 1
    decay_mult: 1
  }
  param {
    lr_mult: 2
    decay_mult: 0
  }
  convolution_param {
    num_output: 384
    pad: 1
    kernel_size: 3
    group: 2
    weight_filler {
      type: "gaussian"
      std: 0.01
    }
    bias_filler {
      type: "constant"
      value: 1
    }
  }
}
layer {
  name: "relu4"
  type: "ReLU"
  bottom: "conv4"
  top: "conv4"
}
layer {
  name: "conv5"
  type: "Convolution"
  bottom: "conv4"
  top: "conv5"
  param {
    lr_mult: 1
    decay_mult: 1
  }
  param {
    lr_mult: 2
    decay_mult: 0
  }
  convolution_param {
    num_output: 256
    pad: 1
    kernel_size: 3
    group: 2
    weight_filler {
      type: "gaussian"
      std: 0.01
    }
    bias_filler {
      type: "constant"
      value: 1
    }
  }
}
layer {
  name: "relu5"
  type: "ReLU"
  bottom: "conv5"
  top: "conv5"
}
layer {
  name: "pool5"
  type: "Pooling"
  bottom: "conv5"
  top: "pool5"
  pooling_param {
    pool: MAX
    kernel_size: 3
    stride: 2
  }
}
layer {
  name: "fc6"
  type: "InnerProduct"
  bottom: "pool5"
  top: "fc6"
  param {
    lr_mult: 1
    decay_mult: 1
  }
  param {
    lr_mult: 2
    decay_mult: 0
  }
  inner_product_param {
    num_output: 4096
    weight_filler {
      type: "gaussian"
      std: 0.005
    }
    bias_filler {
      type: "constant"
      value: 1
    }
  }
}
layer {
  name: "relu6"
  type: "ReLU"
  bottom: "fc6"
  top: "fc6"
}
layer {
  name: "drop6"
  type: "Dropout"
  bottom: "fc6"
  top: "fc6"
  dropout_param {
    dropout_ratio: 0.5
  }
}
layer {
  name: "fc7"
  type: "InnerProduct"
  bottom: "fc6"
  top: "fc7"
  param {
    lr_mult: 1
    decay_mult: 1
  }
  param {
    lr_mult: 2
    decay_mult: 0
  }
  inner_product_param {
    num_output: 4096
    weight_filler {
      type: "gaussian"
      std: 0.005
    }
    bias_filler {
      type: "constant"
      value: 1
    }
  }
}
layer {
  name: "relu7"
  type: "ReLU"
  bottom: "fc7"
  top: "fc7"
}
layer {
  name: "drop7"
  type: "Dropout"
  bottom: "fc7"
  top: "fc7"
  dropout_param {
    dropout_ratio: 0.5
  }
}
layer {
  name: "fc8_finalproject"
  type: "InnerProduct"
  bottom: "fc7"
  top: "fc8_finalproject"
  param {
    lr_mult: 10
    decay_mult: 1
  }
  param {
    lr_mult: 20
    decay_mult: 0
  }
  inner_product_param {
    num_output: 11
    weight_filler {
      type: "gaussian"
      std: 0.01
    }
    bias_filler {
      type: "constant"
      value: 0
    }
  }
}
layer {
  name: "accuracy"
  type: "Accuracy"
  bottom: "fc8_finalproject"
  bottom: "label"
  top: "accuracy"
  include {
    phase: TEST
  }
}
layer {
  name: "loss"
  type: "SoftmaxWithLoss"
  bottom: "fc8_finalproject"
  bottom: "label"
  top: "loss"
}
I0410 21:24:16.897227 19018 layer_factory.hpp:77] Creating layer data
I0410 21:24:16.897253 19018 net.cpp:100] Creating Layer data
I0410 21:24:16.897269 19018 net.cpp:408] data -> data
I0410 21:24:16.897295 19018 net.cpp:408] data -> label
I0410 21:24:16.897315 19018 data_transformer.cpp:25] Loading mean file from: data/ilsvrc12/imagenet_mean.binaryproto
I0410 21:24:16.919389 19018 image_data_layer.cpp:38] Opening file data/finalproject/finalproject.val
I0410 21:24:16.971913 19018 image_data_layer.cpp:58] A total of 3363 images.
I0410 21:24:17.016527 19018 image_data_layer.cpp:85] output data size: 50,3,227,227
I0410 21:24:17.119763 19018 net.cpp:150] Setting up data
I0410 21:24:17.119807 19018 net.cpp:157] Top shape: 50 3 227 227 (7729350)
I0410 21:24:17.119833 19018 net.cpp:157] Top shape: 50 (50)
I0410 21:24:17.119845 19018 net.cpp:165] Memory required for data: 30917600
I0410 21:24:17.119860 19018 layer_factory.hpp:77] Creating layer label_data_1_split
I0410 21:24:17.119884 19018 net.cpp:100] Creating Layer label_data_1_split
I0410 21:24:17.119904 19018 net.cpp:434] label_data_1_split <- label
I0410 21:24:17.119920 19018 net.cpp:408] label_data_1_split -> label_data_1_split_0
I0410 21:24:17.119961 19018 net.cpp:408] label_data_1_split -> label_data_1_split_1
I0410 21:24:17.120052 19018 net.cpp:150] Setting up label_data_1_split
I0410 21:24:17.120079 19018 net.cpp:157] Top shape: 50 (50)
I0410 21:24:17.120095 19018 net.cpp:157] Top shape: 50 (50)
I0410 21:24:17.120106 19018 net.cpp:165] Memory required for data: 30918000
I0410 21:24:17.120118 19018 layer_factory.hpp:77] Creating layer conv1
I0410 21:24:17.120142 19018 net.cpp:100] Creating Layer conv1
I0410 21:24:17.120157 19018 net.cpp:434] conv1 <- data
I0410 21:24:17.120172 19018 net.cpp:408] conv1 -> conv1
I0410 21:24:17.122730 19018 net.cpp:150] Setting up conv1
I0410 21:24:17.122755 19018 net.cpp:157] Top shape: 50 96 55 55 (14520000)
I0410 21:24:17.122774 19018 net.cpp:165] Memory required for data: 88998000
I0410 21:24:17.122798 19018 layer_factory.hpp:77] Creating layer relu1
I0410 21:24:17.122818 19018 net.cpp:100] Creating Layer relu1
I0410 21:24:17.122830 19018 net.cpp:434] relu1 <- conv1
I0410 21:24:17.122854 19018 net.cpp:395] relu1 -> conv1 (in-place)
I0410 21:24:17.123186 19018 net.cpp:150] Setting up relu1
I0410 21:24:17.123206 19018 net.cpp:157] Top shape: 50 96 55 55 (14520000)
I0410 21:24:17.123219 19018 net.cpp:165] Memory required for data: 147078000
I0410 21:24:17.123234 19018 layer_factory.hpp:77] Creating layer pool1
I0410 21:24:17.123257 19018 net.cpp:100] Creating Layer pool1
I0410 21:24:17.123270 19018 net.cpp:434] pool1 <- conv1
I0410 21:24:17.123284 19018 net.cpp:408] pool1 -> pool1
I0410 21:24:17.123363 19018 net.cpp:150] Setting up pool1
I0410 21:24:17.123378 19018 net.cpp:157] Top shape: 50 96 27 27 (3499200)
I0410 21:24:17.123397 19018 net.cpp:165] Memory required for data: 161074800
I0410 21:24:17.123409 19018 layer_factory.hpp:77] Creating layer norm1
I0410 21:24:17.123426 19018 net.cpp:100] Creating Layer norm1
I0410 21:24:17.123440 19018 net.cpp:434] norm1 <- pool1
I0410 21:24:17.123457 19018 net.cpp:408] norm1 -> norm1
I0410 21:24:17.124004 19018 net.cpp:150] Setting up norm1
I0410 21:24:17.124027 19018 net.cpp:157] Top shape: 50 96 27 27 (3499200)
I0410 21:24:17.124038 19018 net.cpp:165] Memory required for data: 175071600
I0410 21:24:17.124053 19018 layer_factory.hpp:77] Creating layer conv2
I0410 21:24:17.124081 19018 net.cpp:100] Creating Layer conv2
I0410 21:24:17.124095 19018 net.cpp:434] conv2 <- norm1
I0410 21:24:17.124111 19018 net.cpp:408] conv2 -> conv2
I0410 21:24:17.142673 19018 net.cpp:150] Setting up conv2
I0410 21:24:17.142879 19018 net.cpp:157] Top shape: 50 256 27 27 (9331200)
I0410 21:24:17.142907 19018 net.cpp:165] Memory required for data: 212396400
I0410 21:24:17.142935 19018 layer_factory.hpp:77] Creating layer relu2
I0410 21:24:17.146435 19018 net.cpp:100] Creating Layer relu2
I0410 21:24:17.146456 19018 net.cpp:434] relu2 <- conv2
I0410 21:24:17.146476 19018 net.cpp:395] relu2 -> conv2 (in-place)
I0410 21:24:17.147088 19018 net.cpp:150] Setting up relu2
I0410 21:24:17.147110 19018 net.cpp:157] Top shape: 50 256 27 27 (9331200)
I0410 21:24:17.147123 19018 net.cpp:165] Memory required for data: 249721200
I0410 21:24:17.147140 19018 layer_factory.hpp:77] Creating layer pool2
I0410 21:24:17.147166 19018 net.cpp:100] Creating Layer pool2
I0410 21:24:17.147200 19018 net.cpp:434] pool2 <- conv2
I0410 21:24:17.147215 19018 net.cpp:408] pool2 -> pool2
I0410 21:24:17.147312 19018 net.cpp:150] Setting up pool2
I0410 21:24:17.147330 19018 net.cpp:157] Top shape: 50 256 13 13 (2163200)
I0410 21:24:17.147342 19018 net.cpp:165] Memory required for data: 258374000
I0410 21:24:17.147354 19018 layer_factory.hpp:77] Creating layer norm2
I0410 21:24:17.147370 19018 net.cpp:100] Creating Layer norm2
I0410 21:24:17.147385 19018 net.cpp:434] norm2 <- pool2
I0410 21:24:17.147400 19018 net.cpp:408] norm2 -> norm2
I0410 21:24:17.147780 19018 net.cpp:150] Setting up norm2
I0410 21:24:17.147799 19018 net.cpp:157] Top shape: 50 256 13 13 (2163200)
I0410 21:24:17.147811 19018 net.cpp:165] Memory required for data: 267026800
I0410 21:24:17.147826 19018 layer_factory.hpp:77] Creating layer conv3
I0410 21:24:17.147855 19018 net.cpp:100] Creating Layer conv3
I0410 21:24:17.147869 19018 net.cpp:434] conv3 <- norm2
I0410 21:24:17.147884 19018 net.cpp:408] conv3 -> conv3
I0410 21:24:17.187628 19018 net.cpp:150] Setting up conv3
I0410 21:24:17.187664 19018 net.cpp:157] Top shape: 50 384 13 13 (3244800)
I0410 21:24:17.187678 19018 net.cpp:165] Memory required for data: 280006000
I0410 21:24:17.187705 19018 layer_factory.hpp:77] Creating layer relu3
I0410 21:24:17.187728 19018 net.cpp:100] Creating Layer relu3
I0410 21:24:17.187742 19018 net.cpp:434] relu3 <- conv3
I0410 21:24:17.187773 19018 net.cpp:395] relu3 -> conv3 (in-place)
I0410 21:24:17.188271 19018 net.cpp:150] Setting up relu3
I0410 21:24:17.188293 19018 net.cpp:157] Top shape: 50 384 13 13 (3244800)
I0410 21:24:17.188307 19018 net.cpp:165] Memory required for data: 292985200
I0410 21:24:17.188318 19018 layer_factory.hpp:77] Creating layer conv4
I0410 21:24:17.188344 19018 net.cpp:100] Creating Layer conv4
I0410 21:24:17.188357 19018 net.cpp:434] conv4 <- conv3
I0410 21:24:17.188385 19018 net.cpp:408] conv4 -> conv4
I0410 21:24:17.218854 19018 net.cpp:150] Setting up conv4
I0410 21:24:17.218897 19018 net.cpp:157] Top shape: 50 384 13 13 (3244800)
I0410 21:24:17.218911 19018 net.cpp:165] Memory required for data: 305964400
I0410 21:24:17.218932 19018 layer_factory.hpp:77] Creating layer relu4
I0410 21:24:17.218957 19018 net.cpp:100] Creating Layer relu4
I0410 21:24:17.218971 19018 net.cpp:434] relu4 <- conv4
I0410 21:24:17.219003 19018 net.cpp:395] relu4 -> conv4 (in-place)
I0410 21:24:17.219528 19018 net.cpp:150] Setting up relu4
I0410 21:24:17.219550 19018 net.cpp:157] Top shape: 50 384 13 13 (3244800)
I0410 21:24:17.219563 19018 net.cpp:165] Memory required for data: 318943600
I0410 21:24:17.219578 19018 layer_factory.hpp:77] Creating layer conv5
I0410 21:24:17.219609 19018 net.cpp:100] Creating Layer conv5
I0410 21:24:17.219622 19018 net.cpp:434] conv5 <- conv4
I0410 21:24:17.219640 19018 net.cpp:408] conv5 -> conv5
I0410 21:24:17.245009 19018 net.cpp:150] Setting up conv5
I0410 21:24:17.245266 19018 net.cpp:157] Top shape: 50 256 13 13 (2163200)
I0410 21:24:17.245283 19018 net.cpp:165] Memory required for data: 327596400
I0410 21:24:17.245316 19018 layer_factory.hpp:77] Creating layer relu5
I0410 21:24:17.245340 19018 net.cpp:100] Creating Layer relu5
I0410 21:24:17.245354 19018 net.cpp:434] relu5 <- conv5
I0410 21:24:17.245371 19018 net.cpp:395] relu5 -> conv5 (in-place)
I0410 21:24:17.246073 19018 net.cpp:150] Setting up relu5
I0410 21:24:17.246095 19018 net.cpp:157] Top shape: 50 256 13 13 (2163200)
I0410 21:24:17.246119 19018 net.cpp:165] Memory required for data: 336249200
I0410 21:24:17.246134 19018 layer_factory.hpp:77] Creating layer pool5
I0410 21:24:17.246165 19018 net.cpp:100] Creating Layer pool5
I0410 21:24:17.246181 19018 net.cpp:434] pool5 <- conv5
I0410 21:24:17.246196 19018 net.cpp:408] pool5 -> pool5
I0410 21:24:17.246284 19018 net.cpp:150] Setting up pool5
I0410 21:24:17.246306 19018 net.cpp:157] Top shape: 50 256 6 6 (460800)
I0410 21:24:17.246320 19018 net.cpp:165] Memory required for data: 338092400
I0410 21:24:17.246330 19018 layer_factory.hpp:77] Creating layer fc6
I0410 21:24:17.246350 19018 net.cpp:100] Creating Layer fc6
I0410 21:24:17.246361 19018 net.cpp:434] fc6 <- pool5
I0410 21:24:17.246381 19018 net.cpp:408] fc6 -> fc6
I0410 21:24:18.365631 19018 net.cpp:150] Setting up fc6
I0410 21:24:18.369045 19018 net.cpp:157] Top shape: 50 4096 (204800)
I0410 21:24:18.369065 19018 net.cpp:165] Memory required for data: 338911600
I0410 21:24:18.369094 19018 layer_factory.hpp:77] Creating layer relu6
I0410 21:24:18.369115 19018 net.cpp:100] Creating Layer relu6
I0410 21:24:18.369148 19018 net.cpp:434] relu6 <- fc6
I0410 21:24:18.369168 19018 net.cpp:395] relu6 -> fc6 (in-place)
I0410 21:24:18.369895 19018 net.cpp:150] Setting up relu6
I0410 21:24:18.369916 19018 net.cpp:157] Top shape: 50 4096 (204800)
I0410 21:24:18.369932 19018 net.cpp:165] Memory required for data: 339730800
I0410 21:24:18.369946 19018 layer_factory.hpp:77] Creating layer drop6
I0410 21:24:18.369966 19018 net.cpp:100] Creating Layer drop6
I0410 21:24:18.369977 19018 net.cpp:434] drop6 <- fc6
I0410 21:24:18.370002 19018 net.cpp:395] drop6 -> fc6 (in-place)
I0410 21:24:18.370059 19018 net.cpp:150] Setting up drop6
I0410 21:24:18.370075 19018 net.cpp:157] Top shape: 50 4096 (204800)
I0410 21:24:18.370086 19018 net.cpp:165] Memory required for data: 340550000
I0410 21:24:18.370100 19018 layer_factory.hpp:77] Creating layer fc7
I0410 21:24:18.370126 19018 net.cpp:100] Creating Layer fc7
I0410 21:24:18.370139 19018 net.cpp:434] fc7 <- fc6
I0410 21:24:18.370156 19018 net.cpp:408] fc7 -> fc7
I0410 21:24:18.960310 19018 net.cpp:150] Setting up fc7
I0410 21:24:18.960352 19018 net.cpp:157] Top shape: 50 4096 (204800)
I0410 21:24:18.960366 19018 net.cpp:165] Memory required for data: 341369200
I0410 21:24:18.960391 19018 layer_factory.hpp:77] Creating layer relu7
I0410 21:24:18.960410 19018 net.cpp:100] Creating Layer relu7
I0410 21:24:18.960424 19018 net.cpp:434] relu7 <- fc7
I0410 21:24:18.960446 19018 net.cpp:395] relu7 -> fc7 (in-place)
I0410 21:24:18.960852 19018 net.cpp:150] Setting up relu7
I0410 21:24:18.960872 19018 net.cpp:157] Top shape: 50 4096 (204800)
I0410 21:24:18.960885 19018 net.cpp:165] Memory required for data: 342188400
I0410 21:24:18.960896 19018 layer_factory.hpp:77] Creating layer drop7
I0410 21:24:18.960923 19018 net.cpp:100] Creating Layer drop7
I0410 21:24:18.960935 19018 net.cpp:434] drop7 <- fc7
I0410 21:24:18.960950 19018 net.cpp:395] drop7 -> fc7 (in-place)
I0410 21:24:18.961000 19018 net.cpp:150] Setting up drop7
I0410 21:24:18.961019 19018 net.cpp:157] Top shape: 50 4096 (204800)
I0410 21:24:18.961037 19018 net.cpp:165] Memory required for data: 343007600
I0410 21:24:18.961050 19018 layer_factory.hpp:77] Creating layer fc8_finalproject
I0410 21:24:18.961069 19018 net.cpp:100] Creating Layer fc8_finalproject
I0410 21:24:18.961081 19018 net.cpp:434] fc8_finalproject <- fc7
I0410 21:24:18.961098 19018 net.cpp:408] fc8_finalproject -> fc8_finalproject
I0410 21:24:18.962226 19018 net.cpp:150] Setting up fc8_finalproject
I0410 21:24:18.962244 19018 net.cpp:157] Top shape: 50 11 (550)
I0410 21:24:18.962266 19018 net.cpp:165] Memory required for data: 343009800
I0410 21:24:18.962285 19018 layer_factory.hpp:77] Creating layer fc8_finalproject_fc8_finalproject_0_split
I0410 21:24:18.962299 19018 net.cpp:100] Creating Layer fc8_finalproject_fc8_finalproject_0_split
I0410 21:24:18.962313 19018 net.cpp:434] fc8_finalproject_fc8_finalproject_0_split <- fc8_finalproject
I0410 21:24:18.962352 19018 net.cpp:408] fc8_finalproject_fc8_finalproject_0_split -> fc8_finalproject_fc8_finalproject_0_split_0
I0410 21:24:18.962370 19018 net.cpp:408] fc8_finalproject_fc8_finalproject_0_split -> fc8_finalproject_fc8_finalproject_0_split_1
I0410 21:24:18.962453 19018 net.cpp:150] Setting up fc8_finalproject_fc8_finalproject_0_split
I0410 21:24:18.962471 19018 net.cpp:157] Top shape: 50 11 (550)
I0410 21:24:18.962484 19018 net.cpp:157] Top shape: 50 11 (550)
I0410 21:24:18.962496 19018 net.cpp:165] Memory required for data: 343014200
I0410 21:24:18.962508 19018 layer_factory.hpp:77] Creating layer accuracy
I0410 21:24:18.962530 19018 net.cpp:100] Creating Layer accuracy
I0410 21:24:18.962543 19018 net.cpp:434] accuracy <- fc8_finalproject_fc8_finalproject_0_split_0
I0410 21:24:18.962556 19018 net.cpp:434] accuracy <- label_data_1_split_0
I0410 21:24:18.962579 19018 net.cpp:408] accuracy -> accuracy
…
