…
I0412 21:31:24.140698 15037 net.cpp:322] The NetState phase (0) differed from the phase (1) specified by a rule in layer accuracy
I0412 21:31:24.141136 15037 net.cpp:58] Initializing net from parameters: 
name: "finalprojectCaffeNet"
state {
  phase: TRAIN
  level: 0
  stage: ""
}
layer {
  name: "data"
  type: "ImageData"
  top: "data"
  top: "label"
  include {
    phase: TRAIN
  }
  transform_param {
    mirror: true
    crop_size: 227
    mean_file: "data/ilsvrc12/imagenet_mean.binaryproto"
  }
  image_data_param {
    source: "data/finalproject/finalproject.train"
    batch_size: 50
    new_height: 256
    new_width: 256
  }
}
layer {
  name: "conv1"
  type: "Convolution"
  bottom: "data"
  top: "conv1"
  param {
    lr_mult: 1
    decay_mult: 1
  }
  param {
    lr_mult: 2
    decay_mult: 0
  }
  convolution_param {
    num_output: 96
    kernel_size: 11
    stride: 4
    weight_filler {
      type: "gaussian"
      std: 0.01
    }
    bias_filler {
      type: "constant"
      value: 0
    }
  }
}
layer {
  name: "relu1"
  type: "ReLU"
  bottom: "conv1"
  top: "conv1"
}
layer {
  name: "pool1"
  type: "Pooling"
  bottom: "conv1"
  top: "pool1"
  pooling_param {
    pool: MAX
    kernel_size: 3
    stride: 2
  }
}
layer {
  name: "norm1"
  type: "LRN"
  bottom: "pool1"
  top: "norm1"
  lrn_param {
    local_size: 5
    alpha: 0.0001
    beta: 0.75
  }
}
layer {
  name: "conv2"
  type: "Convolution"
  bottom: "norm1"
  top: "conv2"
  param {
    lr_mult: 1
    decay_mult: 1
  }
  param {
    lr_mult: 2
    decay_mult: 0
  }
  convolution_param {
    num_output: 256
    pad: 2
    kernel_size: 5
    group: 2
    weight_filler {
      type: "gaussian"
      std: 0.01
    }
    bias_filler {
      type: "constant"
      value: 1
    }
  }
}
layer {
  name: "relu2"
  type: "ReLU"
  bottom: "conv2"
  top: "conv2"
}
layer {
  name: "pool2"
  type: "Pooling"
  bottom: "conv2"
  top: "pool2"
  pooling_param {
    pool: MAX
    kernel_size: 3
    stride: 2
  }
}
layer {
  name: "norm2"
  type: "LRN"
  bottom: "pool2"
  top: "norm2"
  lrn_param {
    local_size: 5
    alpha: 0.0001
    beta: 0.75
  }
}
layer {
  name: "conv3"
  type: "Convolution"
  bottom: "norm2"
  top: "conv3"
  param {
    lr_mult: 1
    decay_mult: 1
  }
  param {
    lr_mult: 2
    decay_mult: 0
  }
  convolution_param {
    num_output: 384
    pad: 1
    kernel_size: 3
    weight_filler {
      type: "gaussian"
      std: 0.01
    }
    bias_filler {
      type: "constant"
      value: 0
    }
  }
}
layer {
  name: "relu3"
  type: "ReLU"
  bottom: "conv3"
  top: "conv3"
}
layer {
  name: "conv4"
  type: "Convolution"
  bottom: "conv3"
  top: "conv4"
  param {
    lr_mult: 1
    decay_mult: 1
  }
  param {
    lr_mult: 2
    decay_mult: 0
  }
  convolution_param {
    num_output: 384
    pad: 1
    kernel_size: 3
    group: 2
    weight_filler {
      type: "gaussian"
      std: 0.01
    }
    bias_filler {
      type: "constant"
      value: 1
    }
  }
}
layer {
  name: "relu4"
  type: "ReLU"
  bottom: "conv4"
  top: "conv4"
}
layer {
  name: "conv5"
  type: "Convolution"
  bottom: "conv4"
  top: "conv5"
  param {
    lr_mult: 1
    decay_mult: 1
  }
  param {
    lr_mult: 2
    decay_mult: 0
  }
  convolution_param {
    num_output: 256
    pad: 1
    kernel_size: 3
    group: 2
    weight_filler {
      type: "gaussian"
      std: 0.01
    }
    bias_filler {
      type: "constant"
      value: 1
    }
  }
}
layer {
  name: "relu5"
  type: "ReLU"
  bottom: "conv5"
  top: "conv5"
}
layer {
  name: "pool5"
  type: "Pooling"
  bottom: "conv5"
  top: "pool5"
  pooling_param {
    pool: MAX
    kernel_size: 3
    stride: 2
  }
}
layer {
  name: "fc6"
  type: "InnerProduct"
  bottom: "pool5"
  top: "fc6"
  param {
    lr_mult: 1
    decay_mult: 1
  }
  param {
    lr_mult: 2
    decay_mult: 0
  }
  inner_product_param {
    num_output: 4096
    weight_filler {
      type: "gaussian"
      std: 0.005
    }
    bias_filler {
      type: "constant"
      value: 1
    }
  }
}
layer {
  name: "relu6"
  type: "ReLU"
  bottom: "fc6"
  top: "fc6"
}
layer {
  name: "drop6"
  type: "Dropout"
  bottom: "fc6"
  top: "fc6"
  dropout_param {
    dropout_ratio: 0.5
  }
}
layer {
  name: "fc7"
  type: "InnerProduct"
  bottom: "fc6"
  top: "fc7"
  param {
    lr_mult: 1
    decay_mult: 1
  }
  param {
    lr_mult: 2
    decay_mult: 0
  }
  inner_product_param {
    num_output: 4096
    weight_filler {
      type: "gaussian"
      std: 0.005
    }
    bias_filler {
      type: "constant"
      value: 1
    }
  }
}
layer {
  name: "relu7"
  type: "ReLU"
  bottom: "fc7"
  top: "fc7"
}
layer {
  name: "drop7"
  type: "Dropout"
  bottom: "fc7"
  top: "fc7"
  dropout_param {
    dropout_ratio: 0.5
  }
}
layer {
  name: "fc8_finalproject"
  type: "InnerProduct"
  bottom: "fc7"
  top: "fc8_finalproject"
  param {
    lr_mult: 10
    decay_mult: 1
  }
  param {
    lr_mult: 20
    decay_mult: 0
  }
  inner_product_param {
    num_output: 11
    weight_filler {
      type: "gaussian"
      std: 0.01
    }
    bias_filler {
      type: "constant"
      value: 0
    }
  }
}
layer {
  name: "loss"
  type: "SoftmaxWithLoss"
  bottom: "fc8_finalproject"
  bottom: "label"
  top: "loss"
}
I0412 21:31:24.141405 15037 layer_factory.hpp:77] Creating layer data
I0412 21:31:24.141485 15037 net.cpp:100] Creating Layer data
I0412 21:31:24.141515 15037 net.cpp:408] data -> data
I0412 21:31:24.141564 15037 net.cpp:408] data -> label
I0412 21:31:24.141619 15037 data_transformer.cpp:25] Loading mean file from: data/ilsvrc12/imagenet_mean.binaryproto
I0412 21:31:24.224424 15037 image_data_layer.cpp:38] Opening file data/finalproject/finalproject.train
I0412 21:31:24.334087 15037 image_data_layer.cpp:58] A total of 15696 images.
I0412 21:31:24.356015 15037 image_data_layer.cpp:85] output data size: 50,3,227,227
I0412 21:31:24.448761 15037 net.cpp:150] Setting up data
I0412 21:31:24.448827 15037 net.cpp:157] Top shape: 50 3 227 227 (7729350)
I0412 21:31:24.448845 15037 net.cpp:157] Top shape: 50 (50)
I0412 21:31:24.448856 15037 net.cpp:165] Memory required for data: 30917600
I0412 21:31:24.448880 15037 layer_factory.hpp:77] Creating layer conv1
I0412 21:31:24.448938 15037 net.cpp:100] Creating Layer conv1
I0412 21:31:24.448954 15037 net.cpp:434] conv1 <- data
I0412 21:31:24.448982 15037 net.cpp:408] conv1 -> conv1
I0412 21:31:25.708012 15037 net.cpp:150] Setting up conv1
I0412 21:31:25.708060 15037 net.cpp:157] Top shape: 50 96 55 55 (14520000)
I0412 21:31:25.708075 15037 net.cpp:165] Memory required for data: 88997600
I0412 21:31:25.708109 15037 layer_factory.hpp:77] Creating layer relu1
I0412 21:31:25.708137 15037 net.cpp:100] Creating Layer relu1
I0412 21:31:25.708156 15037 net.cpp:434] relu1 <- conv1
I0412 21:31:25.708197 15037 net.cpp:395] relu1 -> conv1 (in-place)
I0412 21:31:25.708566 15037 net.cpp:150] Setting up relu1
I0412 21:31:25.708590 15037 net.cpp:157] Top shape: 50 96 55 55 (14520000)
I0412 21:31:25.708601 15037 net.cpp:165] Memory required for data: 147077600
I0412 21:31:25.708616 15037 layer_factory.hpp:77] Creating layer pool1
I0412 21:31:25.708638 15037 net.cpp:100] Creating Layer pool1
I0412 21:31:25.708652 15037 net.cpp:434] pool1 <- conv1
I0412 21:31:25.708669 15037 net.cpp:408] pool1 -> pool1
I0412 21:31:25.708770 15037 net.cpp:150] Setting up pool1
I0412 21:31:25.708786 15037 net.cpp:157] Top shape: 50 96 27 27 (3499200)
I0412 21:31:25.708806 15037 net.cpp:165] Memory required for data: 161074400
I0412 21:31:25.708830 15037 layer_factory.hpp:77] Creating layer norm1
I0412 21:31:25.708868 15037 net.cpp:100] Creating Layer norm1
I0412 21:31:25.708880 15037 net.cpp:434] norm1 <- pool1
I0412 21:31:25.708894 15037 net.cpp:408] norm1 -> norm1
I0412 21:31:25.709475 15037 net.cpp:150] Setting up norm1
I0412 21:31:25.709496 15037 net.cpp:157] Top shape: 50 96 27 27 (3499200)
I0412 21:31:25.709517 15037 net.cpp:165] Memory required for data: 175071200
I0412 21:31:25.709529 15037 layer_factory.hpp:77] Creating layer conv2
I0412 21:31:25.709556 15037 net.cpp:100] Creating Layer conv2
I0412 21:31:25.709580 15037 net.cpp:434] conv2 <- norm1
I0412 21:31:25.709602 15037 net.cpp:408] conv2 -> conv2
I0412 21:31:25.729868 15037 net.cpp:150] Setting up conv2
I0412 21:31:25.733490 15037 net.cpp:157] Top shape: 50 256 27 27 (9331200)
I0412 21:31:25.733510 15037 net.cpp:165] Memory required for data: 212396000
I0412 21:31:25.733539 15037 layer_factory.hpp:77] Creating layer relu2
I0412 21:31:25.733562 15037 net.cpp:100] Creating Layer relu2
I0412 21:31:25.733589 15037 net.cpp:434] relu2 <- conv2
I0412 21:31:25.733613 15037 net.cpp:395] relu2 -> conv2 (in-place)
I0412 21:31:25.734004 15037 net.cpp:150] Setting up relu2
I0412 21:31:25.734025 15037 net.cpp:157] Top shape: 50 256 27 27 (9331200)
I0412 21:31:25.734036 15037 net.cpp:165] Memory required for data: 249720800
I0412 21:31:25.734048 15037 layer_factory.hpp:77] Creating layer pool2
I0412 21:31:25.734073 15037 net.cpp:100] Creating Layer pool2
I0412 21:31:25.734087 15037 net.cpp:434] pool2 <- conv2
I0412 21:31:25.734105 15037 net.cpp:408] pool2 -> pool2
I0412 21:31:25.734196 15037 net.cpp:150] Setting up pool2
I0412 21:31:25.734215 15037 net.cpp:157] Top shape: 50 256 13 13 (2163200)
I0412 21:31:25.734225 15037 net.cpp:165] Memory required for data: 258373600
I0412 21:31:25.734237 15037 layer_factory.hpp:77] Creating layer norm2
I0412 21:31:25.734261 15037 net.cpp:100] Creating Layer norm2
I0412 21:31:25.734280 15037 net.cpp:434] norm2 <- pool2
I0412 21:31:25.734298 15037 net.cpp:408] norm2 -> norm2
I0412 21:31:25.734910 15037 net.cpp:150] Setting up norm2
I0412 21:31:25.734930 15037 net.cpp:157] Top shape: 50 256 13 13 (2163200)
I0412 21:31:25.734953 15037 net.cpp:165] Memory required for data: 267026400
I0412 21:31:25.734966 15037 layer_factory.hpp:77] Creating layer conv3
I0412 21:31:25.734995 15037 net.cpp:100] Creating Layer conv3
I0412 21:31:25.735015 15037 net.cpp:434] conv3 <- norm2
I0412 21:31:25.735035 15037 net.cpp:408] conv3 -> conv3
I0412 21:31:25.766335 15037 net.cpp:150] Setting up conv3
I0412 21:31:25.766376 15037 net.cpp:157] Top shape: 50 384 13 13 (3244800)
I0412 21:31:25.766396 15037 net.cpp:165] Memory required for data: 280005600
I0412 21:31:25.766422 15037 layer_factory.hpp:77] Creating layer relu3
I0412 21:31:25.766440 15037 net.cpp:100] Creating Layer relu3
I0412 21:31:25.766458 15037 net.cpp:434] relu3 <- conv3
I0412 21:31:25.766489 15037 net.cpp:395] relu3 -> conv3 (in-place)
I0412 21:31:25.767009 15037 net.cpp:150] Setting up relu3
I0412 21:31:25.767031 15037 net.cpp:157] Top shape: 50 384 13 13 (3244800)
I0412 21:31:25.767045 15037 net.cpp:165] Memory required for data: 292984800
I0412 21:31:25.767060 15037 layer_factory.hpp:77] Creating layer conv4
I0412 21:31:25.767093 15037 net.cpp:100] Creating Layer conv4
I0412 21:31:25.767107 15037 net.cpp:434] conv4 <- conv3
I0412 21:31:25.767127 15037 net.cpp:408] conv4 -> conv4
I0412 21:31:25.789321 15037 net.cpp:150] Setting up conv4
I0412 21:31:25.789357 15037 net.cpp:157] Top shape: 50 384 13 13 (3244800)
I0412 21:31:25.789378 15037 net.cpp:165] Memory required for data: 305964000
I0412 21:31:25.789400 15037 layer_factory.hpp:77] Creating layer relu4
I0412 21:31:25.789418 15037 net.cpp:100] Creating Layer relu4
I0412 21:31:25.789435 15037 net.cpp:434] relu4 <- conv4
I0412 21:31:25.789451 15037 net.cpp:395] relu4 -> conv4 (in-place)
I0412 21:31:25.789813 15037 net.cpp:150] Setting up relu4
I0412 21:31:25.789832 15037 net.cpp:157] Top shape: 50 384 13 13 (3244800)
I0412 21:31:25.789844 15037 net.cpp:165] Memory required for data: 318943200
I0412 21:31:25.789870 15037 layer_factory.hpp:77] Creating layer conv5
I0412 21:31:25.789902 15037 net.cpp:100] Creating Layer conv5
I0412 21:31:25.789916 15037 net.cpp:434] conv5 <- conv4
I0412 21:31:25.789935 15037 net.cpp:408] conv5 -> conv5
I0412 21:31:25.803261 15037 net.cpp:150] Setting up conv5
I0412 21:31:25.803290 15037 net.cpp:157] Top shape: 50 256 13 13 (2163200)
I0412 21:31:25.803310 15037 net.cpp:165] Memory required for data: 327596000
I0412 21:31:25.803338 15037 layer_factory.hpp:77] Creating layer relu5
I0412 21:31:25.803362 15037 net.cpp:100] Creating Layer relu5
I0412 21:31:25.803375 15037 net.cpp:434] relu5 <- conv5
I0412 21:31:25.803402 15037 net.cpp:395] relu5 -> conv5 (in-place)
I0412 21:31:25.803752 15037 net.cpp:150] Setting up relu5
I0412 21:31:25.803771 15037 net.cpp:157] Top shape: 50 256 13 13 (2163200)
I0412 21:31:25.803782 15037 net.cpp:165] Memory required for data: 336248800
I0412 21:31:25.803794 15037 layer_factory.hpp:77] Creating layer pool5
I0412 21:31:25.803819 15037 net.cpp:100] Creating Layer pool5
I0412 21:31:25.803833 15037 net.cpp:434] pool5 <- conv5
I0412 21:31:25.803851 15037 net.cpp:408] pool5 -> pool5
I0412 21:31:25.803935 15037 net.cpp:150] Setting up pool5
I0412 21:31:25.803951 15037 net.cpp:157] Top shape: 50 256 6 6 (460800)
I0412 21:31:25.803969 15037 net.cpp:165] Memory required for data: 338092000
I0412 21:31:25.803987 15037 layer_factory.hpp:77] Creating layer fc6
I0412 21:31:25.804013 15037 net.cpp:100] Creating Layer fc6
I0412 21:31:25.804028 15037 net.cpp:434] fc6 <- pool5
I0412 21:31:25.804044 15037 net.cpp:408] fc6 -> fc6
I0412 21:31:26.900043 15037 net.cpp:150] Setting up fc6
I0412 21:31:26.900080 15037 net.cpp:157] Top shape: 50 4096 (204800)
I0412 21:31:26.900094 15037 net.cpp:165] Memory required for data: 338911200
I0412 21:31:26.900117 15037 layer_factory.hpp:77] Creating layer relu6
I0412 21:31:26.900137 15037 net.cpp:100] Creating Layer relu6
I0412 21:31:26.900151 15037 net.cpp:434] relu6 <- fc6
I0412 21:31:26.900177 15037 net.cpp:395] relu6 -> fc6 (in-place)
I0412 21:31:26.900884 15037 net.cpp:150] Setting up relu6
I0412 21:31:26.900905 15037 net.cpp:157] Top shape: 50 4096 (204800)
I0412 21:31:26.900918 15037 net.cpp:165] Memory required for data: 339730400
I0412 21:31:26.900931 15037 layer_factory.hpp:77] Creating layer drop6
I0412 21:31:26.900954 15037 net.cpp:100] Creating Layer drop6
I0412 21:31:26.900974 15037 net.cpp:434] drop6 <- fc6
I0412 21:31:26.900995 15037 net.cpp:395] drop6 -> fc6 (in-place)
I0412 21:31:26.901051 15037 net.cpp:150] Setting up drop6
I0412 21:31:26.901068 15037 net.cpp:157] Top shape: 50 4096 (204800)
I0412 21:31:26.901085 15037 net.cpp:165] Memory required for data: 340549600
I0412 21:31:26.901098 15037 layer_factory.hpp:77] Creating layer fc7
I0412 21:31:26.901116 15037 net.cpp:100] Creating Layer fc7
I0412 21:31:26.901129 15037 net.cpp:434] fc7 <- fc6
I0412 21:31:26.901160 15037 net.cpp:408] fc7 -> fc7
I0412 21:31:27.391561 15037 net.cpp:150] Setting up fc7
I0412 21:31:27.391762 15037 net.cpp:157] Top shape: 50 4096 (204800)
I0412 21:31:27.391777 15037 net.cpp:165] Memory required for data: 341368800
I0412 21:31:27.391799 15037 layer_factory.hpp:77] Creating layer relu7
I0412 21:31:27.391830 15037 net.cpp:100] Creating Layer relu7
I0412 21:31:27.391845 15037 net.cpp:434] relu7 <- fc7
I0412 21:31:27.391878 15037 net.cpp:395] relu7 -> fc7 (in-place)
I0412 21:31:27.392817 15037 net.cpp:150] Setting up relu7
I0412 21:31:27.392839 15037 net.cpp:157] Top shape: 50 4096 (204800)
I0412 21:31:27.392853 15037 net.cpp:165] Memory required for data: 342188000
I0412 21:31:27.392864 15037 layer_factory.hpp:77] Creating layer drop7
I0412 21:31:27.392896 15037 net.cpp:100] Creating Layer drop7
I0412 21:31:27.392910 15037 net.cpp:434] drop7 <- fc7
I0412 21:31:27.392925 15037 net.cpp:395] drop7 -> fc7 (in-place)
I0412 21:31:27.392977 15037 net.cpp:150] Setting up drop7
I0412 21:31:27.393002 15037 net.cpp:157] Top shape: 50 4096 (204800)
I0412 21:31:27.393015 15037 net.cpp:165] Memory required for data: 343007200
I0412 21:31:27.393038 15037 layer_factory.hpp:77] Creating layer fc8_finalproject
I0412 21:31:27.393057 15037 net.cpp:100] Creating Layer fc8_finalproject
I0412 21:31:27.393069 15037 net.cpp:434] fc8_finalproject <- fc7
I0412 21:31:27.393091 15037 net.cpp:408] fc8_finalproject -> fc8_finalproject
I0412 21:31:27.394201 15037 net.cpp:150] Setting up fc8_finalproject
I0412 21:31:27.394218 15037 net.cpp:157] Top shape: 50 11 (550)
I0412 21:31:27.394237 15037 net.cpp:165] Memory required for data: 343009400
I0412 21:31:27.394258 15037 layer_factory.hpp:77] Creating layer loss
I0412 21:31:27.394284 15037 net.cpp:100] Creating Layer loss
I0412 21:31:27.394301 15037 net.cpp:434] loss <- fc8_finalproject
I0412 21:31:27.394317 15037 net.cpp:434] loss <- label
I0412 21:31:27.394335 15037 net.cpp:408] loss -> loss
I0412 21:31:27.394362 15037 layer_factory.hpp:77] Creating layer loss
…
I0412 21:31:27.398142 15037 net.cpp:322] The NetState phase (1) differed from the phase (0) specified by a rule in layer data
I0412 21:31:27.398573 15037 net.cpp:58] Initializing net from parameters: 
name: "finalprojectCaffeNet"
state {
  phase: TEST
}
layer {
  name: "data"
  type: "ImageData"
  top: "data"
  top: "label"
  include {
    phase: TEST
  }
  transform_param {
    mirror: false
    crop_size: 227
    mean_file: "data/ilsvrc12/imagenet_mean.binaryproto"
  }
  image_data_param {
    source: "data/finalproject/finalproject.val"
    batch_size: 50
    new_height: 256
    new_width: 256
  }
}
layer {
  name: "conv1"
  type: "Convolution"
  bottom: "data"
  top: "conv1"
  param {
    lr_mult: 1
    decay_mult: 1
  }
  param {
    lr_mult: 2
    decay_mult: 0
  }
  convolution_param {
    num_output: 96
    kernel_size: 11
    stride: 4
    weight_filler {
      type: "gaussian"
      std: 0.01
    }
    bias_filler {
      type: "constant"
      value: 0
    }
  }
}
layer {
  name: "relu1"
  type: "ReLU"
  bottom: "conv1"
  top: "conv1"
}
layer {
  name: "pool1"
  type: "Pooling"
  bottom: "conv1"
  top: "pool1"
  pooling_param {
    pool: MAX
    kernel_size: 3
    stride: 2
  }
}
layer {
  name: "norm1"
  type: "LRN"
  bottom: "pool1"
  top: "norm1"
  lrn_param {
    local_size: 5
    alpha: 0.0001
    beta: 0.75
  }
}
layer {
  name: "conv2"
  type: "Convolution"
  bottom: "norm1"
  top: "conv2"
  param {
    lr_mult: 1
    decay_mult: 1
  }
  param {
    lr_mult: 2
    decay_mult: 0
  }
  convolution_param {
    num_output: 256
    pad: 2
    kernel_size: 5
    group: 2
    weight_filler {
      type: "gaussian"
      std: 0.01
    }
    bias_filler {
      type: "constant"
      value: 1
    }
  }
}
layer {
  name: "relu2"
  type: "ReLU"
  bottom: "conv2"
  top: "conv2"
}
layer {
  name: "pool2"
  type: "Pooling"
  bottom: "conv2"
  top: "pool2"
  pooling_param {
    pool: MAX
    kernel_size: 3
    stride: 2
  }
}
layer {
  name: "norm2"
  type: "LRN"
  bottom: "pool2"
  top: "norm2"
  lrn_param {
    local_size: 5
    alpha: 0.0001
    beta: 0.75
  }
}
layer {
  name: "conv3"
  type: "Convolution"
  bottom: "norm2"
  top: "conv3"
  param {
    lr_mult: 1
    decay_mult: 1
  }
  param {
    lr_mult: 2
    decay_mult: 0
  }
  convolution_param {
    num_output: 384
    pad: 1
    kernel_size: 3
    weight_filler {
      type: "gaussian"
      std: 0.01
    }
    bias_filler {
      type: "constant"
      value: 0
    }
  }
}
layer {
  name: "relu3"
  type: "ReLU"
  bottom: "conv3"
  top: "conv3"
}
layer {
  name: "conv4"
  type: "Convolution"
  bottom: "conv3"
  top: "conv4"
  param {
    lr_mult: 1
    decay_mult: 1
  }
  param {
    lr_mult: 2
    decay_mult: 0
  }
  convolution_param {
    num_output: 384
    pad: 1
    kernel_size: 3
    group: 2
    weight_filler {
      type: "gaussian"
      std: 0.01
    }
    bias_filler {
      type: "constant"
      value: 1
    }
  }
}
layer {
  name: "relu4"
  type: "ReLU"
  bottom: "conv4"
  top: "conv4"
}
layer {
  name: "conv5"
  type: "Convolution"
  bottom: "conv4"
  top: "conv5"
  param {
    lr_mult: 1
    decay_mult: 1
  }
  param {
    lr_mult: 2
    decay_mult: 0
  }
  convolution_param {
    num_output: 256
    pad: 1
    kernel_size: 3
    group: 2
    weight_filler {
      type: "gaussian"
      std: 0.01
    }
    bias_filler {
      type: "constant"
      value: 1
    }
  }
}
layer {
  name: "relu5"
  type: "ReLU"
  bottom: "conv5"
  top: "conv5"
}
layer {
  name: "pool5"
  type: "Pooling"
  bottom: "conv5"
  top: "pool5"
  pooling_param {
    pool: MAX
    kernel_size: 3
    stride: 2
  }
}
layer {
  name: "fc6"
  type: "InnerProduct"
  bottom: "pool5"
  top: "fc6"
  param {
    lr_mult: 1
    decay_mult: 1
  }
  param {
    lr_mult: 2
    decay_mult: 0
  }
  inner_product_param {
    num_output: 4096
    weight_filler {
      type: "gaussian"
      std: 0.005
    }
    bias_filler {
      type: "constant"
      value: 1
    }
  }
}
layer {
  name: "relu6"
  type: "ReLU"
  bottom: "fc6"
  top: "fc6"
}
layer {
  name: "drop6"
  type: "Dropout"
  bottom: "fc6"
  top: "fc6"
  dropout_param {
    dropout_ratio: 0.5
  }
}
layer {
  name: "fc7"
  type: "InnerProduct"
  bottom: "fc6"
  top: "fc7"
  param {
    lr_mult: 1
    decay_mult: 1
  }
  param {
    lr_mult: 2
    decay_mult: 0
  }
  inner_product_param {
    num_output: 4096
    weight_filler {
      type: "gaussian"
      std: 0.005
    }
    bias_filler {
      type: "constant"
      value: 1
    }
  }
}
layer {
  name: "relu7"
  type: "ReLU"
  bottom: "fc7"
  top: "fc7"
}
layer {
  name: "drop7"
  type: "Dropout"
  bottom: "fc7"
  top: "fc7"
  dropout_param {
    dropout_ratio: 0.5
  }
}
layer {
  name: "fc8_finalproject"
  type: "InnerProduct"
  bottom: "fc7"
  top: "fc8_finalproject"
  param {
    lr_mult: 10
    decay_mult: 1
  }
  param {
    lr_mult: 20
    decay_mult: 0
  }
  inner_product_param {
    num_output: 11
    weight_filler {
      type: "gaussian"
      std: 0.01
    }
    bias_filler {
      type: "constant"
      value: 0
    }
  }
}
layer {
  name: "accuracy"
  type: "Accuracy"
  bottom: "fc8_finalproject"
  bottom: "label"
  top: "accuracy"
  include {
    phase: TEST
  }
}
layer {
  name: "loss"
  type: "SoftmaxWithLoss"
  bottom: "fc8_finalproject"
  bottom: "label"
  top: "loss"
}
I0412 21:31:27.398866 15037 layer_factory.hpp:77] Creating layer data
I0412 21:31:27.398893 15037 net.cpp:100] Creating Layer data
I0412 21:31:27.398908 15037 net.cpp:408] data -> data
I0412 21:31:27.398928 15037 net.cpp:408] data -> label
I0412 21:31:27.398950 15037 data_transformer.cpp:25] Loading mean file from: data/ilsvrc12/imagenet_mean.binaryproto
I0412 21:31:27.426311 15037 image_data_layer.cpp:38] Opening file data/finalproject/finalproject.val
I0412 21:31:27.471810 15037 image_data_layer.cpp:58] A total of 3363 images.
I0412 21:31:27.492643 15037 image_data_layer.cpp:85] output data size: 50,3,227,227
I0412 21:31:27.597332 15037 net.cpp:150] Setting up data
I0412 21:31:27.597380 15037 net.cpp:157] Top shape: 50 3 227 227 (7729350)
I0412 21:31:27.597410 15037 net.cpp:157] Top shape: 50 (50)
I0412 21:31:27.597424 15037 net.cpp:165] Memory required for data: 30917600
I0412 21:31:27.597439 15037 layer_factory.hpp:77] Creating layer label_data_1_split
I0412 21:31:27.597462 15037 net.cpp:100] Creating Layer label_data_1_split
I0412 21:31:27.597482 15037 net.cpp:434] label_data_1_split <- label
I0412 21:31:27.597518 15037 net.cpp:408] label_data_1_split -> label_data_1_split_0
I0412 21:31:27.597543 15037 net.cpp:408] label_data_1_split -> label_data_1_split_1
I0412 21:31:27.597632 15037 net.cpp:150] Setting up label_data_1_split
I0412 21:31:27.597648 15037 net.cpp:157] Top shape: 50 (50)
I0412 21:31:27.597661 15037 net.cpp:157] Top shape: 50 (50)
I0412 21:31:27.597683 15037 net.cpp:165] Memory required for data: 30918000
I0412 21:31:27.597697 15037 layer_factory.hpp:77] Creating layer conv1
I0412 21:31:27.597723 15037 net.cpp:100] Creating Layer conv1
I0412 21:31:27.597735 15037 net.cpp:434] conv1 <- data
I0412 21:31:27.597753 15037 net.cpp:408] conv1 -> conv1
I0412 21:31:27.600319 15037 net.cpp:150] Setting up conv1
I0412 21:31:27.600343 15037 net.cpp:157] Top shape: 50 96 55 55 (14520000)
I0412 21:31:27.600364 15037 net.cpp:165] Memory required for data: 88998000
I0412 21:31:27.600389 15037 layer_factory.hpp:77] Creating layer relu1
I0412 21:31:27.600409 15037 net.cpp:100] Creating Layer relu1
I0412 21:31:27.600420 15037 net.cpp:434] relu1 <- conv1
I0412 21:31:27.600445 15037 net.cpp:395] relu1 -> conv1 (in-place)
I0412 21:31:27.600765 15037 net.cpp:150] Setting up relu1
I0412 21:31:27.600785 15037 net.cpp:157] Top shape: 50 96 55 55 (14520000)
I0412 21:31:27.600796 15037 net.cpp:165] Memory required for data: 147078000
I0412 21:31:27.600808 15037 layer_factory.hpp:77] Creating layer pool1
I0412 21:31:27.600836 15037 net.cpp:100] Creating Layer pool1
I0412 21:31:27.600847 15037 net.cpp:434] pool1 <- conv1
I0412 21:31:27.600862 15037 net.cpp:408] pool1 -> pool1
I0412 21:31:27.600941 15037 net.cpp:150] Setting up pool1
I0412 21:31:27.600956 15037 net.cpp:157] Top shape: 50 96 27 27 (3499200)
I0412 21:31:27.600975 15037 net.cpp:165] Memory required for data: 161074800
I0412 21:31:27.600987 15037 layer_factory.hpp:77] Creating layer norm1
I0412 21:31:27.601003 15037 net.cpp:100] Creating Layer norm1
I0412 21:31:27.601016 15037 net.cpp:434] norm1 <- pool1
I0412 21:31:27.601037 15037 net.cpp:408] norm1 -> norm1
I0412 21:31:27.601583 15037 net.cpp:150] Setting up norm1
I0412 21:31:27.601605 15037 net.cpp:157] Top shape: 50 96 27 27 (3499200)
I0412 21:31:27.601618 15037 net.cpp:165] Memory required for data: 175071600
I0412 21:31:27.601629 15037 layer_factory.hpp:77] Creating layer conv2
I0412 21:31:27.601649 15037 net.cpp:100] Creating Layer conv2
I0412 21:31:27.601662 15037 net.cpp:434] conv2 <- norm1
I0412 21:31:27.601680 15037 net.cpp:408] conv2 -> conv2
I0412 21:31:27.611423 15037 net.cpp:150] Setting up conv2
I0412 21:31:27.611454 15037 net.cpp:157] Top shape: 50 256 27 27 (9331200)
I0412 21:31:27.611479 15037 net.cpp:165] Memory required for data: 212396400
I0412 21:31:27.611502 15037 layer_factory.hpp:77] Creating layer relu2
I0412 21:31:27.611518 15037 net.cpp:100] Creating Layer relu2
I0412 21:31:27.611532 15037 net.cpp:434] relu2 <- conv2
I0412 21:31:27.611547 15037 net.cpp:395] relu2 -> conv2 (in-place)
I0412 21:31:27.612026 15037 net.cpp:150] Setting up relu2
I0412 21:31:27.612048 15037 net.cpp:157] Top shape: 50 256 27 27 (9331200)
I0412 21:31:27.612061 15037 net.cpp:165] Memory required for data: 249721200
I0412 21:31:27.612072 15037 layer_factory.hpp:77] Creating layer pool2
I0412 21:31:27.612090 15037 net.cpp:100] Creating Layer pool2
I0412 21:31:27.612103 15037 net.cpp:434] pool2 <- conv2
I0412 21:31:27.612119 15037 net.cpp:408] pool2 -> pool2
I0412 21:31:27.612195 15037 net.cpp:150] Setting up pool2
I0412 21:31:27.612211 15037 net.cpp:157] Top shape: 50 256 13 13 (2163200)
I0412 21:31:27.612223 15037 net.cpp:165] Memory required for data: 258374000
I0412 21:31:27.612236 15037 layer_factory.hpp:77] Creating layer norm2
I0412 21:31:27.612251 15037 net.cpp:100] Creating Layer norm2
I0412 21:31:27.612263 15037 net.cpp:434] norm2 <- pool2
I0412 21:31:27.612278 15037 net.cpp:408] norm2 -> norm2
I0412 21:31:27.612630 15037 net.cpp:150] Setting up norm2
I0412 21:31:27.612649 15037 net.cpp:157] Top shape: 50 256 13 13 (2163200)
I0412 21:31:27.612661 15037 net.cpp:165] Memory required for data: 267026800
I0412 21:31:27.612673 15037 layer_factory.hpp:77] Creating layer conv3
I0412 21:31:27.612692 15037 net.cpp:100] Creating Layer conv3
I0412 21:31:27.612705 15037 net.cpp:434] conv3 <- norm2
I0412 21:31:27.612723 15037 net.cpp:408] conv3 -> conv3
I0412 21:31:27.644994 15037 net.cpp:150] Setting up conv3
I0412 21:31:27.651715 15037 net.cpp:157] Top shape: 50 384 13 13 (3244800)
I0412 21:31:27.651734 15037 net.cpp:165] Memory required for data: 280006000
I0412 21:31:27.651763 15037 layer_factory.hpp:77] Creating layer relu3
I0412 21:31:27.651787 15037 net.cpp:100] Creating Layer relu3
I0412 21:31:27.651804 15037 net.cpp:434] relu3 <- conv3
I0412 21:31:27.652194 15037 net.cpp:395] relu3 -> conv3 (in-place)
I0412 21:31:27.652794 15037 net.cpp:150] Setting up relu3
I0412 21:31:27.652818 15037 net.cpp:157] Top shape: 50 384 13 13 (3244800)
I0412 21:31:27.652842 15037 net.cpp:165] Memory required for data: 292985200
I0412 21:31:27.652854 15037 layer_factory.hpp:77] Creating layer conv4
I0412 21:31:27.652880 15037 net.cpp:100] Creating Layer conv4
I0412 21:31:27.652894 15037 net.cpp:434] conv4 <- conv3
I0412 21:31:27.652918 15037 net.cpp:408] conv4 -> conv4
I0412 21:31:27.680234 15037 net.cpp:150] Setting up conv4
I0412 21:31:27.683702 15037 net.cpp:157] Top shape: 50 384 13 13 (3244800)
I0412 21:31:27.683723 15037 net.cpp:165] Memory required for data: 305964400
I0412 21:31:27.683746 15037 layer_factory.hpp:77] Creating layer relu4
I0412 21:31:27.683770 15037 net.cpp:100] Creating Layer relu4
I0412 21:31:27.683784 15037 net.cpp:434] relu4 <- conv4
I0412 21:31:27.683812 15037 net.cpp:395] relu4 -> conv4 (in-place)
I0412 21:31:27.684594 15037 net.cpp:150] Setting up relu4
I0412 21:31:27.684782 15037 net.cpp:157] Top shape: 50 384 13 13 (3244800)
I0412 21:31:27.684803 15037 net.cpp:165] Memory required for data: 318943600
I0412 21:31:27.684816 15037 layer_factory.hpp:77] Creating layer conv5
I0412 21:31:27.684844 15037 net.cpp:100] Creating Layer conv5
I0412 21:31:27.684862 15037 net.cpp:434] conv5 <- conv4
I0412 21:31:27.684880 15037 net.cpp:408] conv5 -> conv5
I0412 21:31:27.698088 15037 net.cpp:150] Setting up conv5
I0412 21:31:27.698122 15037 net.cpp:157] Top shape: 50 256 13 13 (2163200)
I0412 21:31:27.698141 15037 net.cpp:165] Memory required for data: 327596400
I0412 21:31:27.698169 15037 layer_factory.hpp:77] Creating layer relu5
I0412 21:31:27.698191 15037 net.cpp:100] Creating Layer relu5
I0412 21:31:27.698204 15037 net.cpp:434] relu5 <- conv5
I0412 21:31:27.698231 15037 net.cpp:395] relu5 -> conv5 (in-place)
I0412 21:31:27.698555 15037 net.cpp:150] Setting up relu5
I0412 21:31:27.698575 15037 net.cpp:157] Top shape: 50 256 13 13 (2163200)
I0412 21:31:27.698602 15037 net.cpp:165] Memory required for data: 336249200
I0412 21:31:27.698614 15037 layer_factory.hpp:77] Creating layer pool5
I0412 21:31:27.698643 15037 net.cpp:100] Creating Layer pool5
I0412 21:31:27.698655 15037 net.cpp:434] pool5 <- conv5
I0412 21:31:27.698670 15037 net.cpp:408] pool5 -> pool5
I0412 21:31:27.698761 15037 net.cpp:150] Setting up pool5
I0412 21:31:27.698778 15037 net.cpp:157] Top shape: 50 256 6 6 (460800)
I0412 21:31:27.698791 15037 net.cpp:165] Memory required for data: 338092400
I0412 21:31:27.698802 15037 layer_factory.hpp:77] Creating layer fc6
I0412 21:31:27.698827 15037 net.cpp:100] Creating Layer fc6
I0412 21:31:27.698839 15037 net.cpp:434] fc6 <- pool5
I0412 21:31:27.698858 15037 net.cpp:408] fc6 -> fc6
I0412 21:31:28.860103 15037 net.cpp:150] Setting up fc6
I0412 21:31:28.860330 15037 net.cpp:157] Top shape: 50 4096 (204800)
I0412 21:31:28.860347 15037 net.cpp:165] Memory required for data: 338911600
I0412 21:31:28.860370 15037 layer_factory.hpp:77] Creating layer relu6
I0412 21:31:28.860404 15037 net.cpp:100] Creating Layer relu6
I0412 21:31:28.860570 15037 net.cpp:434] relu6 <- fc6
I0412 21:31:28.860599 15037 net.cpp:395] relu6 -> fc6 (in-place)
I0412 21:31:28.861330 15037 net.cpp:150] Setting up relu6
I0412 21:31:28.861352 15037 net.cpp:157] Top shape: 50 4096 (204800)
I0412 21:31:28.861374 15037 net.cpp:165] Memory required for data: 339730800
I0412 21:31:28.861387 15037 layer_factory.hpp:77] Creating layer drop6
I0412 21:31:28.861403 15037 net.cpp:100] Creating Layer drop6
I0412 21:31:28.861419 15037 net.cpp:434] drop6 <- fc6
I0412 21:31:28.861443 15037 net.cpp:395] drop6 -> fc6 (in-place)
I0412 21:31:28.861496 15037 net.cpp:150] Setting up drop6
I0412 21:31:28.861517 15037 net.cpp:157] Top shape: 50 4096 (204800)
I0412 21:31:28.861529 15037 net.cpp:165] Memory required for data: 340550000
I0412 21:31:28.861541 15037 layer_factory.hpp:77] Creating layer fc7
I0412 21:31:28.861562 15037 net.cpp:100] Creating Layer fc7
I0412 21:31:28.861580 15037 net.cpp:434] fc7 <- fc6
I0412 21:31:28.861598 15037 net.cpp:408] fc7 -> fc7
I0412 21:31:29.398535 15037 net.cpp:150] Setting up fc7
I0412 21:31:29.398576 15037 net.cpp:157] Top shape: 50 4096 (204800)
I0412 21:31:29.398591 15037 net.cpp:165] Memory required for data: 341369200
I0412 21:31:29.398615 15037 layer_factory.hpp:77] Creating layer relu7
I0412 21:31:29.398635 15037 net.cpp:100] Creating Layer relu7
I0412 21:31:29.398649 15037 net.cpp:434] relu7 <- fc7
I0412 21:31:29.398671 15037 net.cpp:395] relu7 -> fc7 (in-place)
I0412 21:31:29.399080 15037 net.cpp:150] Setting up relu7
I0412 21:31:29.399098 15037 net.cpp:157] Top shape: 50 4096 (204800)
I0412 21:31:29.399111 15037 net.cpp:165] Memory required for data: 342188400
I0412 21:31:29.399122 15037 layer_factory.hpp:77] Creating layer drop7
I0412 21:31:29.399148 15037 net.cpp:100] Creating Layer drop7
I0412 21:31:29.399161 15037 net.cpp:434] drop7 <- fc7
I0412 21:31:29.399178 15037 net.cpp:395] drop7 -> fc7 (in-place)
I0412 21:31:29.399227 15037 net.cpp:150] Setting up drop7
I0412 21:31:29.399243 15037 net.cpp:157] Top shape: 50 4096 (204800)
I0412 21:31:29.399256 15037 net.cpp:165] Memory required for data: 343007600
I0412 21:31:29.399274 15037 layer_factory.hpp:77] Creating layer fc8_finalproject
I0412 21:31:29.399293 15037 net.cpp:100] Creating Layer fc8_finalproject
I0412 21:31:29.399307 15037 net.cpp:434] fc8_finalproject <- fc7
I0412 21:31:29.399322 15037 net.cpp:408] fc8_finalproject -> fc8_finalproject
I0412 21:31:29.400440 15037 net.cpp:150] Setting up fc8_finalproject
I0412 21:31:29.400459 15037 net.cpp:157] Top shape: 50 11 (550)
I0412 21:31:29.400481 15037 net.cpp:165] Memory required for data: 343009800
I0412 21:31:29.400498 15037 layer_factory.hpp:77] Creating layer fc8_finalproject_fc8_finalproject_0_split
I0412 21:31:29.400513 15037 net.cpp:100] Creating Layer fc8_finalproject_fc8_finalproject_0_split
I0412 21:31:29.400528 15037 net.cpp:434] fc8_finalproject_fc8_finalproject_0_split <- fc8_finalproject
I0412 21:31:29.400565 15037 net.cpp:408] fc8_finalproject_fc8_finalproject_0_split -> fc8_finalproject_fc8_finalproject_0_split_0
I0412 21:31:29.400583 15037 net.cpp:408] fc8_finalproject_fc8_finalproject_0_split -> fc8_finalproject_fc8_finalproject_0_split_1
I0412 21:31:29.400661 15037 net.cpp:150] Setting up fc8_finalproject_fc8_finalproject_0_split
I0412 21:31:29.400682 15037 net.cpp:157] Top shape: 50 11 (550)
I0412 21:31:29.400696 15037 net.cpp:157] Top shape: 50 11 (550)
I0412 21:31:29.400708 15037 net.cpp:165] Memory required for data: 343014200
I0412 21:31:29.400720 15037 layer_factory.hpp:77] Creating layer accuracy
I0412 21:31:29.400743 15037 net.cpp:100] Creating Layer accuracy
I0412 21:31:29.400758 15037 net.cpp:434] accuracy <- fc8_finalproject_fc8_finalproject_0_split_0
I0412 21:31:29.400770 15037 net.cpp:434] accuracy <- label_data_1_split_0
I0412 21:31:29.400789 15037 net.cpp:408] accuracy -> accuracy
…
