…
I0423 19:32:28.181905 11196 net.cpp:322] The NetState phase (0) differed from the phase (1) specified by a rule in layer accuracy
I0423 19:32:28.182339 11196 net.cpp:58] Initializing net from parameters: 
name: "fp-miniCaffeNet"
state {
  phase: TRAIN
  level: 0
  stage: ""
}
layer {
  name: "data"
  type: "ImageData"
  top: "data"
  top: "label"
  include {
    phase: TRAIN
  }
  transform_param {
    mirror: true
    crop_size: 227
    mean_file: "data/ilsvrc12/imagenet_mean.binaryproto"
  }
  image_data_param {
    source: "data/fp-mini/fp-mini.train"
    batch_size: 10
    new_height: 256
    new_width: 256
  }
}
layer {
  name: "conv1"
  type: "Convolution"
  bottom: "data"
  top: "conv1"
  param {
    lr_mult: 1
    decay_mult: 1
  }
  param {
    lr_mult: 2
    decay_mult: 0
  }
  convolution_param {
    num_output: 96
    kernel_size: 11
    stride: 4
    weight_filler {
      type: "gaussian"
      std: 0.01
    }
    bias_filler {
      type: "constant"
      value: 0
    }
  }
}
layer {
  name: "relu1"
  type: "ReLU"
  bottom: "conv1"
  top: "conv1"
}
layer {
  name: "pool1"
  type: "Pooling"
  bottom: "conv1"
  top: "pool1"
  pooling_param {
    pool: MAX
    kernel_size: 3
    stride: 2
  }
}
layer {
  name: "norm1"
  type: "LRN"
  bottom: "pool1"
  top: "norm1"
  lrn_param {
    local_size: 5
    alpha: 0.0001
    beta: 0.75
  }
}
layer {
  name: "conv2"
  type: "Convolution"
  bottom: "norm1"
  top: "conv2"
  param {
    lr_mult: 1
    decay_mult: 1
  }
  param {
    lr_mult: 2
    decay_mult: 0
  }
  convolution_param {
    num_output: 256
    pad: 2
    kernel_size: 5
    group: 2
    weight_filler {
      type: "gaussian"
      std: 0.01
    }
    bias_filler {
      type: "constant"
      value: 1
    }
  }
}
layer {
  name: "relu2"
  type: "ReLU"
  bottom: "conv2"
  top: "conv2"
}
layer {
  name: "pool2"
  type: "Pooling"
  bottom: "conv2"
  top: "pool2"
  pooling_param {
    pool: MAX
    kernel_size: 3
    stride: 2
  }
}
layer {
  name: "norm2"
  type: "LRN"
  bottom: "pool2"
  top: "norm2"
  lrn_param {
    local_size: 5
    alpha: 0.0001
    beta: 0.75
  }
}
layer {
  name: "conv3"
  type: "Convolution"
  bottom: "norm2"
  top: "conv3"
  param {
    lr_mult: 1
    decay_mult: 1
  }
  param {
    lr_mult: 2
    decay_mult: 0
  }
  convolution_param {
    num_output: 384
    pad: 1
    kernel_size: 3
    weight_filler {
      type: "gaussian"
      std: 0.01
    }
    bias_filler {
      type: "constant"
      value: 0
    }
  }
}
layer {
  name: "relu3"
  type: "ReLU"
  bottom: "conv3"
  top: "conv3"
}
layer {
  name: "conv4"
  type: "Convolution"
  bottom: "conv3"
  top: "conv4"
  param {
    lr_mult: 1
    decay_mult: 1
  }
  param {
    lr_mult: 2
    decay_mult: 0
  }
  convolution_param {
    num_output: 384
    pad: 1
    kernel_size: 3
    group: 2
    weight_filler {
      type: "gaussian"
      std: 0.01
    }
    bias_filler {
      type: "constant"
      value: 1
    }
  }
}
layer {
  name: "relu4"
  type: "ReLU"
  bottom: "conv4"
  top: "conv4"
}
layer {
  name: "conv5"
  type: "Convolution"
  bottom: "conv4"
  top: "conv5"
  param {
    lr_mult: 1
    decay_mult: 1
  }
  param {
    lr_mult: 2
    decay_mult: 0
  }
  convolution_param {
    num_output: 256
    pad: 1
    kernel_size: 3
    group: 2
    weight_filler {
      type: "gaussian"
      std: 0.01
    }
    bias_filler {
      type: "constant"
      value: 1
    }
  }
}
layer {
  name: "relu5"
  type: "ReLU"
  bottom: "conv5"
  top: "conv5"
}
layer {
  name: "pool5"
  type: "Pooling"
  bottom: "conv5"
  top: "pool5"
  pooling_param {
    pool: MAX
    kernel_size: 3
    stride: 2
  }
}
layer {
  name: "fc6"
  type: "InnerProduct"
  bottom: "pool5"
  top: "fc6"
  param {
    lr_mult: 1
    decay_mult: 1
  }
  param {
    lr_mult: 2
    decay_mult: 0
  }
  inner_product_param {
    num_output: 4096
    weight_filler {
      type: "gaussian"
      std: 0.005
    }
    bias_filler {
      type: "constant"
      value: 1
    }
  }
}
layer {
  name: "relu6"
  type: "ReLU"
  bottom: "fc6"
  top: "fc6"
}
layer {
  name: "drop6"
  type: "Dropout"
  bottom: "fc6"
  top: "fc6"
  dropout_param {
    dropout_ratio: 0.5
  }
}
layer {
  name: "fc7"
  type: "InnerProduct"
  bottom: "fc6"
  top: "fc7"
  param {
    lr_mult: 1
    decay_mult: 1
  }
  param {
    lr_mult: 2
    decay_mult: 0
  }
  inner_product_param {
    num_output: 4096
    weight_filler {
      type: "gaussian"
      std: 0.005
    }
    bias_filler {
      type: "constant"
      value: 1
    }
  }
}
layer {
  name: "relu7"
  type: "ReLU"
  bottom: "fc7"
  top: "fc7"
}
layer {
  name: "drop7"
  type: "Dropout"
  bottom: "fc7"
  top: "fc7"
  dropout_param {
    dropout_ratio: 0.5
  }
}
layer {
  name: "fc8_fp-mini"
  type: "InnerProduct"
  bottom: "fc7"
  top: "fc8_fp-mini"
  param {
    lr_mult: 10
    decay_mult: 1
  }
  param {
    lr_mult: 20
    decay_mult: 0
  }
  inner_product_param {
    num_output: 10
    weight_filler {
      type: "gaussian"
      std: 0.01
    }
    bias_filler {
      type: "constant"
      value: 0
    }
  }
}
layer {
  name: "loss"
  type: "SoftmaxWithLoss"
  bottom: "fc8_fp-mini"
  bottom: "label"
  top: "loss"
}
I0423 19:32:28.182590 11196 layer_factory.hpp:77] Creating layer data
I0423 19:32:28.182670 11196 net.cpp:100] Creating Layer data
I0423 19:32:28.182701 11196 net.cpp:408] data -> data
I0423 19:32:28.182750 11196 net.cpp:408] data -> label
I0423 19:32:28.182806 11196 data_transformer.cpp:25] Loading mean file from: data/ilsvrc12/imagenet_mean.binaryproto
I0423 19:32:28.299450 11196 image_data_layer.cpp:38] Opening file data/fp-mini/fp-mini.train
I0423 19:32:28.301678 11196 image_data_layer.cpp:58] A total of 70 images.
I0423 19:32:28.315683 11196 image_data_layer.cpp:85] output data size: 10,3,227,227
I0423 19:32:28.336694 11196 net.cpp:150] Setting up data
I0423 19:32:28.336751 11196 net.cpp:157] Top shape: 10 3 227 227 (1545870)
I0423 19:32:28.336768 11196 net.cpp:157] Top shape: 10 (10)
I0423 19:32:28.336779 11196 net.cpp:165] Memory required for data: 6183520
I0423 19:32:28.336802 11196 layer_factory.hpp:77] Creating layer conv1
I0423 19:32:28.336856 11196 net.cpp:100] Creating Layer conv1
I0423 19:32:28.336871 11196 net.cpp:434] conv1 <- data
I0423 19:32:28.336899 11196 net.cpp:408] conv1 -> conv1
I0423 19:32:29.211670 11196 net.cpp:150] Setting up conv1
I0423 19:32:29.211724 11196 net.cpp:157] Top shape: 10 96 55 55 (2904000)
I0423 19:32:29.211737 11196 net.cpp:165] Memory required for data: 17799520
I0423 19:32:29.211774 11196 layer_factory.hpp:77] Creating layer relu1
I0423 19:32:29.211802 11196 net.cpp:100] Creating Layer relu1
I0423 19:32:29.211822 11196 net.cpp:434] relu1 <- conv1
I0423 19:32:29.211863 11196 net.cpp:395] relu1 -> conv1 (in-place)
I0423 19:32:29.212229 11196 net.cpp:150] Setting up relu1
I0423 19:32:29.212249 11196 net.cpp:157] Top shape: 10 96 55 55 (2904000)
I0423 19:32:29.212261 11196 net.cpp:165] Memory required for data: 29415520
I0423 19:32:29.212273 11196 layer_factory.hpp:77] Creating layer pool1
I0423 19:32:29.212302 11196 net.cpp:100] Creating Layer pool1
I0423 19:32:29.212316 11196 net.cpp:434] pool1 <- conv1
I0423 19:32:29.212329 11196 net.cpp:408] pool1 -> pool1
I0423 19:32:29.212433 11196 net.cpp:150] Setting up pool1
I0423 19:32:29.212450 11196 net.cpp:157] Top shape: 10 96 27 27 (699840)
I0423 19:32:29.212461 11196 net.cpp:165] Memory required for data: 32214880
I0423 19:32:29.212473 11196 layer_factory.hpp:77] Creating layer norm1
I0423 19:32:29.212522 11196 net.cpp:100] Creating Layer norm1
I0423 19:32:29.212535 11196 net.cpp:434] norm1 <- pool1
I0423 19:32:29.212550 11196 net.cpp:408] norm1 -> norm1
I0423 19:32:29.213114 11196 net.cpp:150] Setting up norm1
I0423 19:32:29.213140 11196 net.cpp:157] Top shape: 10 96 27 27 (699840)
I0423 19:32:29.213160 11196 net.cpp:165] Memory required for data: 35014240
I0423 19:32:29.213172 11196 layer_factory.hpp:77] Creating layer conv2
I0423 19:32:29.213202 11196 net.cpp:100] Creating Layer conv2
I0423 19:32:29.213224 11196 net.cpp:434] conv2 <- norm1
I0423 19:32:29.213241 11196 net.cpp:408] conv2 -> conv2
I0423 19:32:29.233527 11196 net.cpp:150] Setting up conv2
I0423 19:32:29.233572 11196 net.cpp:157] Top shape: 10 256 27 27 (1866240)
I0423 19:32:29.233585 11196 net.cpp:165] Memory required for data: 42479200
I0423 19:32:29.233611 11196 layer_factory.hpp:77] Creating layer relu2
I0423 19:32:29.233635 11196 net.cpp:100] Creating Layer relu2
I0423 19:32:29.233676 11196 net.cpp:434] relu2 <- conv2
I0423 19:32:29.233693 11196 net.cpp:395] relu2 -> conv2 (in-place)
I0423 19:32:29.234061 11196 net.cpp:150] Setting up relu2
I0423 19:32:29.234083 11196 net.cpp:157] Top shape: 10 256 27 27 (1866240)
I0423 19:32:29.234096 11196 net.cpp:165] Memory required for data: 49944160
I0423 19:32:29.234110 11196 layer_factory.hpp:77] Creating layer pool2
I0423 19:32:29.234133 11196 net.cpp:100] Creating Layer pool2
I0423 19:32:29.234145 11196 net.cpp:434] pool2 <- conv2
I0423 19:32:29.234160 11196 net.cpp:408] pool2 -> pool2
I0423 19:32:29.234251 11196 net.cpp:150] Setting up pool2
I0423 19:32:29.234267 11196 net.cpp:157] Top shape: 10 256 13 13 (432640)
I0423 19:32:29.234278 11196 net.cpp:165] Memory required for data: 51674720
I0423 19:32:29.234290 11196 layer_factory.hpp:77] Creating layer norm2
I0423 19:32:29.234321 11196 net.cpp:100] Creating Layer norm2
I0423 19:32:29.234334 11196 net.cpp:434] norm2 <- pool2
I0423 19:32:29.234359 11196 net.cpp:408] norm2 -> norm2
I0423 19:32:29.234936 11196 net.cpp:150] Setting up norm2
I0423 19:32:29.234962 11196 net.cpp:157] Top shape: 10 256 13 13 (432640)
I0423 19:32:29.234974 11196 net.cpp:165] Memory required for data: 53405280
I0423 19:32:29.234985 11196 layer_factory.hpp:77] Creating layer conv3
I0423 19:32:29.235023 11196 net.cpp:100] Creating Layer conv3
I0423 19:32:29.235036 11196 net.cpp:434] conv3 <- norm2
I0423 19:32:29.235052 11196 net.cpp:408] conv3 -> conv3
I0423 19:32:29.260964 11196 net.cpp:150] Setting up conv3
I0423 19:32:29.261006 11196 net.cpp:157] Top shape: 10 384 13 13 (648960)
I0423 19:32:29.261021 11196 net.cpp:165] Memory required for data: 56001120
I0423 19:32:29.261051 11196 layer_factory.hpp:77] Creating layer relu3
I0423 19:32:29.261077 11196 net.cpp:100] Creating Layer relu3
I0423 19:32:29.261107 11196 net.cpp:434] relu3 <- conv3
I0423 19:32:29.261126 11196 net.cpp:395] relu3 -> conv3 (in-place)
I0423 19:32:29.261633 11196 net.cpp:150] Setting up relu3
I0423 19:32:29.261667 11196 net.cpp:157] Top shape: 10 384 13 13 (648960)
I0423 19:32:29.261680 11196 net.cpp:165] Memory required for data: 58596960
I0423 19:32:29.261703 11196 layer_factory.hpp:77] Creating layer conv4
I0423 19:32:29.261729 11196 net.cpp:100] Creating Layer conv4
I0423 19:32:29.261744 11196 net.cpp:434] conv4 <- conv3
I0423 19:32:29.261759 11196 net.cpp:408] conv4 -> conv4
I0423 19:32:29.293223 11196 net.cpp:150] Setting up conv4
I0423 19:32:29.293264 11196 net.cpp:157] Top shape: 10 384 13 13 (648960)
I0423 19:32:29.293283 11196 net.cpp:165] Memory required for data: 61192800
I0423 19:32:29.293304 11196 layer_factory.hpp:77] Creating layer relu4
I0423 19:32:29.293326 11196 net.cpp:100] Creating Layer relu4
I0423 19:32:29.293340 11196 net.cpp:434] relu4 <- conv4
I0423 19:32:29.293361 11196 net.cpp:395] relu4 -> conv4 (in-place)
I0423 19:32:29.293737 11196 net.cpp:150] Setting up relu4
I0423 19:32:29.293756 11196 net.cpp:157] Top shape: 10 384 13 13 (648960)
I0423 19:32:29.293768 11196 net.cpp:165] Memory required for data: 63788640
I0423 19:32:29.293781 11196 layer_factory.hpp:77] Creating layer conv5
I0423 19:32:29.293828 11196 net.cpp:100] Creating Layer conv5
I0423 19:32:29.293840 11196 net.cpp:434] conv5 <- conv4
I0423 19:32:29.293862 11196 net.cpp:408] conv5 -> conv5
I0423 19:32:29.307098 11196 net.cpp:150] Setting up conv5
I0423 19:32:29.307129 11196 net.cpp:157] Top shape: 10 256 13 13 (432640)
I0423 19:32:29.307149 11196 net.cpp:165] Memory required for data: 65519200
I0423 19:32:29.307175 11196 layer_factory.hpp:77] Creating layer relu5
I0423 19:32:29.307200 11196 net.cpp:100] Creating Layer relu5
I0423 19:32:29.307214 11196 net.cpp:434] relu5 <- conv5
I0423 19:32:29.307241 11196 net.cpp:395] relu5 -> conv5 (in-place)
I0423 19:32:29.307581 11196 net.cpp:150] Setting up relu5
I0423 19:32:29.307600 11196 net.cpp:157] Top shape: 10 256 13 13 (432640)
I0423 19:32:29.307612 11196 net.cpp:165] Memory required for data: 67249760
I0423 19:32:29.307623 11196 layer_factory.hpp:77] Creating layer pool5
I0423 19:32:29.307642 11196 net.cpp:100] Creating Layer pool5
I0423 19:32:29.307662 11196 net.cpp:434] pool5 <- conv5
I0423 19:32:29.307683 11196 net.cpp:408] pool5 -> pool5
I0423 19:32:29.307760 11196 net.cpp:150] Setting up pool5
I0423 19:32:29.307777 11196 net.cpp:157] Top shape: 10 256 6 6 (92160)
I0423 19:32:29.307796 11196 net.cpp:165] Memory required for data: 67618400
I0423 19:32:29.307807 11196 layer_factory.hpp:77] Creating layer fc6
I0423 19:32:29.307834 11196 net.cpp:100] Creating Layer fc6
I0423 19:32:29.307848 11196 net.cpp:434] fc6 <- pool5
I0423 19:32:29.307868 11196 net.cpp:408] fc6 -> fc6
I0423 19:32:30.347039 11196 net.cpp:150] Setting up fc6
I0423 19:32:30.347086 11196 net.cpp:157] Top shape: 10 4096 (40960)
I0423 19:32:30.347111 11196 net.cpp:165] Memory required for data: 67782240
I0423 19:32:30.347136 11196 layer_factory.hpp:77] Creating layer relu6
I0423 19:32:30.347162 11196 net.cpp:100] Creating Layer relu6
I0423 19:32:30.347175 11196 net.cpp:434] relu6 <- fc6
I0423 19:32:30.347193 11196 net.cpp:395] relu6 -> fc6 (in-place)
I0423 19:32:30.347923 11196 net.cpp:150] Setting up relu6
I0423 19:32:30.347949 11196 net.cpp:157] Top shape: 10 4096 (40960)
I0423 19:32:30.347967 11196 net.cpp:165] Memory required for data: 67946080
I0423 19:32:30.347980 11196 layer_factory.hpp:77] Creating layer drop6
I0423 19:32:30.348006 11196 net.cpp:100] Creating Layer drop6
I0423 19:32:30.348017 11196 net.cpp:434] drop6 <- fc6
I0423 19:32:30.348040 11196 net.cpp:395] drop6 -> fc6 (in-place)
I0423 19:32:30.348098 11196 net.cpp:150] Setting up drop6
I0423 19:32:30.348112 11196 net.cpp:157] Top shape: 10 4096 (40960)
I0423 19:32:30.348127 11196 net.cpp:165] Memory required for data: 68109920
I0423 19:32:30.348145 11196 layer_factory.hpp:77] Creating layer fc7
I0423 19:32:30.348172 11196 net.cpp:100] Creating Layer fc7
I0423 19:32:30.348186 11196 net.cpp:434] fc7 <- fc6
I0423 19:32:30.348208 11196 net.cpp:408] fc7 -> fc7
I0423 19:32:30.715683 11196 net.cpp:150] Setting up fc7
I0423 19:32:30.715737 11196 net.cpp:157] Top shape: 10 4096 (40960)
I0423 19:32:30.715761 11196 net.cpp:165] Memory required for data: 68273760
I0423 19:32:30.715785 11196 layer_factory.hpp:77] Creating layer relu7
I0423 19:32:30.715806 11196 net.cpp:100] Creating Layer relu7
I0423 19:32:30.715818 11196 net.cpp:434] relu7 <- fc7
I0423 19:32:30.715862 11196 net.cpp:395] relu7 -> fc7 (in-place)
I0423 19:32:30.716266 11196 net.cpp:150] Setting up relu7
I0423 19:32:30.716285 11196 net.cpp:157] Top shape: 10 4096 (40960)
I0423 19:32:30.716297 11196 net.cpp:165] Memory required for data: 68437600
I0423 19:32:30.716310 11196 layer_factory.hpp:77] Creating layer drop7
I0423 19:32:30.716336 11196 net.cpp:100] Creating Layer drop7
I0423 19:32:30.716348 11196 net.cpp:434] drop7 <- fc7
I0423 19:32:30.716367 11196 net.cpp:395] drop7 -> fc7 (in-place)
I0423 19:32:30.716411 11196 net.cpp:150] Setting up drop7
I0423 19:32:30.716426 11196 net.cpp:157] Top shape: 10 4096 (40960)
I0423 19:32:30.716447 11196 net.cpp:165] Memory required for data: 68601440
I0423 19:32:30.716460 11196 layer_factory.hpp:77] Creating layer fc8_fp-mini
I0423 19:32:30.716482 11196 net.cpp:100] Creating Layer fc8_fp-mini
I0423 19:32:30.716516 11196 net.cpp:434] fc8_fp-mini <- fc7
I0423 19:32:30.716536 11196 net.cpp:408] fc8_fp-mini -> fc8_fp-mini
I0423 19:32:30.717555 11196 net.cpp:150] Setting up fc8_fp-mini
I0423 19:32:30.717571 11196 net.cpp:157] Top shape: 10 10 (100)
I0423 19:32:30.717591 11196 net.cpp:165] Memory required for data: 68601840
I0423 19:32:30.717609 11196 layer_factory.hpp:77] Creating layer loss
I0423 19:32:30.717633 11196 net.cpp:100] Creating Layer loss
I0423 19:32:30.717644 11196 net.cpp:434] loss <- fc8_fp-mini
I0423 19:32:30.717675 11196 net.cpp:434] loss <- label
I0423 19:32:30.717694 11196 net.cpp:408] loss -> loss
I0423 19:32:30.717721 11196 layer_factory.hpp:77] Creating layer loss
…
I0423 19:32:30.721846 11196 net.cpp:322] The NetState phase (1) differed from the phase (0) specified by a rule in layer data
I0423 19:32:30.722282 11196 net.cpp:58] Initializing net from parameters: 
name: "fp-miniCaffeNet"
state {
  phase: TEST
}
layer {
  name: "data"
  type: "ImageData"
  top: "data"
  top: "label"
  include {
    phase: TEST
  }
  transform_param {
    mirror: false
    crop_size: 227
    mean_file: "data/ilsvrc12/imagenet_mean.binaryproto"
  }
  image_data_param {
    source: "data/fp-mini/fp-mini.val"
    batch_size: 5
    new_height: 256
    new_width: 256
  }
}
layer {
  name: "conv1"
  type: "Convolution"
  bottom: "data"
  top: "conv1"
  param {
    lr_mult: 1
    decay_mult: 1
  }
  param {
    lr_mult: 2
    decay_mult: 0
  }
  convolution_param {
    num_output: 96
    kernel_size: 11
    stride: 4
    weight_filler {
      type: "gaussian"
      std: 0.01
    }
    bias_filler {
      type: "constant"
      value: 0
    }
  }
}
layer {
  name: "relu1"
  type: "ReLU"
  bottom: "conv1"
  top: "conv1"
}
layer {
  name: "pool1"
  type: "Pooling"
  bottom: "conv1"
  top: "pool1"
  pooling_param {
    pool: MAX
    kernel_size: 3
    stride: 2
  }
}
layer {
  name: "norm1"
  type: "LRN"
  bottom: "pool1"
  top: "norm1"
  lrn_param {
    local_size: 5
    alpha: 0.0001
    beta: 0.75
  }
}
layer {
  name: "conv2"
  type: "Convolution"
  bottom: "norm1"
  top: "conv2"
  param {
    lr_mult: 1
    decay_mult: 1
  }
  param {
    lr_mult: 2
    decay_mult: 0
  }
  convolution_param {
    num_output: 256
    pad: 2
    kernel_size: 5
    group: 2
    weight_filler {
      type: "gaussian"
      std: 0.01
    }
    bias_filler {
      type: "constant"
      value: 1
    }
  }
}
layer {
  name: "relu2"
  type: "ReLU"
  bottom: "conv2"
  top: "conv2"
}
layer {
  name: "pool2"
  type: "Pooling"
  bottom: "conv2"
  top: "pool2"
  pooling_param {
    pool: MAX
    kernel_size: 3
    stride: 2
  }
}
layer {
  name: "norm2"
  type: "LRN"
  bottom: "pool2"
  top: "norm2"
  lrn_param {
    local_size: 5
    alpha: 0.0001
    beta: 0.75
  }
}
layer {
  name: "conv3"
  type: "Convolution"
  bottom: "norm2"
  top: "conv3"
  param {
    lr_mult: 1
    decay_mult: 1
  }
  param {
    lr_mult: 2
    decay_mult: 0
  }
  convolution_param {
    num_output: 384
    pad: 1
    kernel_size: 3
    weight_filler {
      type: "gaussian"
      std: 0.01
    }
    bias_filler {
      type: "constant"
      value: 0
    }
  }
}
layer {
  name: "relu3"
  type: "ReLU"
  bottom: "conv3"
  top: "conv3"
}
layer {
  name: "conv4"
  type: "Convolution"
  bottom: "conv3"
  top: "conv4"
  param {
    lr_mult: 1
    decay_mult: 1
  }
  param {
    lr_mult: 2
    decay_mult: 0
  }
  convolution_param {
    num_output: 384
    pad: 1
    kernel_size: 3
    group: 2
    weight_filler {
      type: "gaussian"
      std: 0.01
    }
    bias_filler {
      type: "constant"
      value: 1
    }
  }
}
layer {
  name: "relu4"
  type: "ReLU"
  bottom: "conv4"
  top: "conv4"
}
layer {
  name: "conv5"
  type: "Convolution"
  bottom: "conv4"
  top: "conv5"
  param {
    lr_mult: 1
    decay_mult: 1
  }
  param {
    lr_mult: 2
    decay_mult: 0
  }
  convolution_param {
    num_output: 256
    pad: 1
    kernel_size: 3
    group: 2
    weight_filler {
      type: "gaussian"
      std: 0.01
    }
    bias_filler {
      type: "constant"
      value: 1
    }
  }
}
layer {
  name: "relu5"
  type: "ReLU"
  bottom: "conv5"
  top: "conv5"
}
layer {
  name: "pool5"
  type: "Pooling"
  bottom: "conv5"
  top: "pool5"
  pooling_param {
    pool: MAX
    kernel_size: 3
    stride: 2
  }
}
layer {
  name: "fc6"
  type: "InnerProduct"
  bottom: "pool5"
  top: "fc6"
  param {
    lr_mult: 1
    decay_mult: 1
  }
  param {
    lr_mult: 2
    decay_mult: 0
  }
  inner_product_param {
    num_output: 4096
    weight_filler {
      type: "gaussian"
      std: 0.005
    }
    bias_filler {
      type: "constant"
      value: 1
    }
  }
}
layer {
  name: "relu6"
  type: "ReLU"
  bottom: "fc6"
  top: "fc6"
}
layer {
  name: "drop6"
  type: "Dropout"
  bottom: "fc6"
  top: "fc6"
  dropout_param {
    dropout_ratio: 0.5
  }
}
layer {
  name: "fc7"
  type: "InnerProduct"
  bottom: "fc6"
  top: "fc7"
  param {
    lr_mult: 1
    decay_mult: 1
  }
  param {
    lr_mult: 2
    decay_mult: 0
  }
  inner_product_param {
    num_output: 4096
    weight_filler {
      type: "gaussian"
      std: 0.005
    }
    bias_filler {
      type: "constant"
      value: 1
    }
  }
}
layer {
  name: "relu7"
  type: "ReLU"
  bottom: "fc7"
  top: "fc7"
}
layer {
  name: "drop7"
  type: "Dropout"
  bottom: "fc7"
  top: "fc7"
  dropout_param {
    dropout_ratio: 0.5
  }
}
layer {
  name: "fc8_fp-mini"
  type: "InnerProduct"
  bottom: "fc7"
  top: "fc8_fp-mini"
  param {
    lr_mult: 10
    decay_mult: 1
  }
  param {
    lr_mult: 20
    decay_mult: 0
  }
  inner_product_param {
    num_output: 10
    weight_filler {
      type: "gaussian"
      std: 0.01
    }
    bias_filler {
      type: "constant"
      value: 0
    }
  }
}
layer {
  name: "accuracy"
  type: "Accuracy"
  bottom: "fc8_fp-mini"
  bottom: "label"
  top: "accuracy"
  include {
    phase: TEST
  }
}
layer {
  name: "loss"
  type: "SoftmaxWithLoss"
  bottom: "fc8_fp-mini"
  bottom: "label"
  top: "loss"
}
I0423 19:32:30.722581 11196 layer_factory.hpp:77] Creating layer data
I0423 19:32:30.722609 11196 net.cpp:100] Creating Layer data
I0423 19:32:30.722623 11196 net.cpp:408] data -> data
I0423 19:32:30.722643 11196 net.cpp:408] data -> label
I0423 19:32:30.722666 11196 data_transformer.cpp:25] Loading mean file from: data/ilsvrc12/imagenet_mean.binaryproto
I0423 19:32:30.736964 11196 image_data_layer.cpp:38] Opening file data/fp-mini/fp-mini.val
I0423 19:32:30.753811 11196 image_data_layer.cpp:58] A total of 15 images.
I0423 19:32:30.787008 11196 image_data_layer.cpp:85] output data size: 5,3,227,227
I0423 19:32:30.798702 11196 net.cpp:150] Setting up data
I0423 19:32:30.798743 11196 net.cpp:157] Top shape: 5 3 227 227 (772935)
I0423 19:32:30.798758 11196 net.cpp:157] Top shape: 5 (5)
I0423 19:32:30.798770 11196 net.cpp:165] Memory required for data: 3091760
I0423 19:32:30.798789 11196 layer_factory.hpp:77] Creating layer label_data_1_split
I0423 19:32:30.798813 11196 net.cpp:100] Creating Layer label_data_1_split
I0423 19:32:30.798840 11196 net.cpp:434] label_data_1_split <- label
I0423 19:32:30.798857 11196 net.cpp:408] label_data_1_split -> label_data_1_split_0
I0423 19:32:30.798879 11196 net.cpp:408] label_data_1_split -> label_data_1_split_1
I0423 19:32:30.798964 11196 net.cpp:150] Setting up label_data_1_split
I0423 19:32:30.798991 11196 net.cpp:157] Top shape: 5 (5)
I0423 19:32:30.799005 11196 net.cpp:157] Top shape: 5 (5)
I0423 19:32:30.799016 11196 net.cpp:165] Memory required for data: 3091800
I0423 19:32:30.799028 11196 layer_factory.hpp:77] Creating layer conv1
I0423 19:32:30.799053 11196 net.cpp:100] Creating Layer conv1
I0423 19:32:30.799067 11196 net.cpp:434] conv1 <- data
I0423 19:32:30.799082 11196 net.cpp:408] conv1 -> conv1
I0423 19:32:30.801623 11196 net.cpp:150] Setting up conv1
I0423 19:32:30.801647 11196 net.cpp:157] Top shape: 5 96 55 55 (1452000)
I0423 19:32:30.801676 11196 net.cpp:165] Memory required for data: 8899800
I0423 19:32:30.801702 11196 layer_factory.hpp:77] Creating layer relu1
I0423 19:32:30.801720 11196 net.cpp:100] Creating Layer relu1
I0423 19:32:30.801733 11196 net.cpp:434] relu1 <- conv1
I0423 19:32:30.801758 11196 net.cpp:395] relu1 -> conv1 (in-place)
I0423 19:32:30.802078 11196 net.cpp:150] Setting up relu1
I0423 19:32:30.802096 11196 net.cpp:157] Top shape: 5 96 55 55 (1452000)
I0423 19:32:30.802109 11196 net.cpp:165] Memory required for data: 14707800
I0423 19:32:30.802120 11196 layer_factory.hpp:77] Creating layer pool1
I0423 19:32:30.802146 11196 net.cpp:100] Creating Layer pool1
I0423 19:32:30.802160 11196 net.cpp:434] pool1 <- conv1
I0423 19:32:30.802175 11196 net.cpp:408] pool1 -> pool1
I0423 19:32:30.802248 11196 net.cpp:150] Setting up pool1
I0423 19:32:30.802266 11196 net.cpp:157] Top shape: 5 96 27 27 (349920)
I0423 19:32:30.802279 11196 net.cpp:165] Memory required for data: 16107480
I0423 19:32:30.802299 11196 layer_factory.hpp:77] Creating layer norm1
I0423 19:32:30.802316 11196 net.cpp:100] Creating Layer norm1
I0423 19:32:30.802330 11196 net.cpp:434] norm1 <- pool1
I0423 19:32:30.802343 11196 net.cpp:408] norm1 -> norm1
I0423 19:32:30.802878 11196 net.cpp:150] Setting up norm1
I0423 19:32:30.802901 11196 net.cpp:157] Top shape: 5 96 27 27 (349920)
I0423 19:32:30.802913 11196 net.cpp:165] Memory required for data: 17507160
I0423 19:32:30.802924 11196 layer_factory.hpp:77] Creating layer conv2
I0423 19:32:30.802943 11196 net.cpp:100] Creating Layer conv2
I0423 19:32:30.802956 11196 net.cpp:434] conv2 <- norm1
I0423 19:32:30.802973 11196 net.cpp:408] conv2 -> conv2
I0423 19:32:30.812646 11196 net.cpp:150] Setting up conv2
I0423 19:32:30.812682 11196 net.cpp:157] Top shape: 5 256 27 27 (933120)
I0423 19:32:30.812695 11196 net.cpp:165] Memory required for data: 21239640
I0423 19:32:30.812718 11196 layer_factory.hpp:77] Creating layer relu2
I0423 19:32:30.812734 11196 net.cpp:100] Creating Layer relu2
I0423 19:32:30.812759 11196 net.cpp:434] relu2 <- conv2
I0423 19:32:30.812775 11196 net.cpp:395] relu2 -> conv2 (in-place)
I0423 19:32:30.813253 11196 net.cpp:150] Setting up relu2
I0423 19:32:30.813274 11196 net.cpp:157] Top shape: 5 256 27 27 (933120)
I0423 19:32:30.813287 11196 net.cpp:165] Memory required for data: 24972120
I0423 19:32:30.813297 11196 layer_factory.hpp:77] Creating layer pool2
I0423 19:32:30.813315 11196 net.cpp:100] Creating Layer pool2
I0423 19:32:30.813328 11196 net.cpp:434] pool2 <- conv2
I0423 19:32:30.813344 11196 net.cpp:408] pool2 -> pool2
I0423 19:32:30.813418 11196 net.cpp:150] Setting up pool2
I0423 19:32:30.813434 11196 net.cpp:157] Top shape: 5 256 13 13 (216320)
I0423 19:32:30.813448 11196 net.cpp:165] Memory required for data: 25837400
I0423 19:32:30.813459 11196 layer_factory.hpp:77] Creating layer norm2
I0423 19:32:30.813475 11196 net.cpp:100] Creating Layer norm2
I0423 19:32:30.813486 11196 net.cpp:434] norm2 <- pool2
I0423 19:32:30.813501 11196 net.cpp:408] norm2 -> norm2
I0423 19:32:30.813885 11196 net.cpp:150] Setting up norm2
I0423 19:32:30.813905 11196 net.cpp:157] Top shape: 5 256 13 13 (216320)
I0423 19:32:30.813917 11196 net.cpp:165] Memory required for data: 26702680
I0423 19:32:30.813928 11196 layer_factory.hpp:77] Creating layer conv3
I0423 19:32:30.813948 11196 net.cpp:100] Creating Layer conv3
I0423 19:32:30.813961 11196 net.cpp:434] conv3 <- norm2
I0423 19:32:30.813977 11196 net.cpp:408] conv3 -> conv3
I0423 19:32:30.857544 11196 net.cpp:150] Setting up conv3
I0423 19:32:30.857583 11196 net.cpp:157] Top shape: 5 384 13 13 (324480)
I0423 19:32:30.857596 11196 net.cpp:165] Memory required for data: 28000600
I0423 19:32:30.857623 11196 layer_factory.hpp:77] Creating layer relu3
I0423 19:32:30.857647 11196 net.cpp:100] Creating Layer relu3
I0423 19:32:30.857669 11196 net.cpp:434] relu3 <- conv3
I0423 19:32:30.857699 11196 net.cpp:395] relu3 -> conv3 (in-place)
I0423 19:32:30.858274 11196 net.cpp:150] Setting up relu3
I0423 19:32:30.858296 11196 net.cpp:157] Top shape: 5 384 13 13 (324480)
I0423 19:32:30.858309 11196 net.cpp:165] Memory required for data: 29298520
I0423 19:32:30.858321 11196 layer_factory.hpp:77] Creating layer conv4
I0423 19:32:30.858356 11196 net.cpp:100] Creating Layer conv4
I0423 19:32:30.858371 11196 net.cpp:434] conv4 <- conv3
I0423 19:32:30.858387 11196 net.cpp:408] conv4 -> conv4
I0423 19:32:30.889212 11196 net.cpp:150] Setting up conv4
I0423 19:32:30.889256 11196 net.cpp:157] Top shape: 5 384 13 13 (324480)
I0423 19:32:30.889277 11196 net.cpp:165] Memory required for data: 30596440
I0423 19:32:30.889298 11196 layer_factory.hpp:77] Creating layer relu4
I0423 19:32:30.889317 11196 net.cpp:100] Creating Layer relu4
I0423 19:32:30.889330 11196 net.cpp:434] relu4 <- conv4
I0423 19:32:30.889353 11196 net.cpp:395] relu4 -> conv4 (in-place)
I0423 19:32:30.890128 11196 net.cpp:150] Setting up relu4
I0423 19:32:30.890152 11196 net.cpp:157] Top shape: 5 384 13 13 (324480)
I0423 19:32:30.890166 11196 net.cpp:165] Memory required for data: 31894360
I0423 19:32:30.890180 11196 layer_factory.hpp:77] Creating layer conv5
I0423 19:32:30.890204 11196 net.cpp:100] Creating Layer conv5
I0423 19:32:30.890226 11196 net.cpp:434] conv5 <- conv4
I0423 19:32:30.890244 11196 net.cpp:408] conv5 -> conv5
I0423 19:32:30.907452 11196 net.cpp:150] Setting up conv5
I0423 19:32:30.907490 11196 net.cpp:157] Top shape: 5 256 13 13 (216320)
I0423 19:32:30.907506 11196 net.cpp:165] Memory required for data: 32759640
I0423 19:32:30.907533 11196 layer_factory.hpp:77] Creating layer relu5
I0423 19:32:30.907557 11196 net.cpp:100] Creating Layer relu5
I0423 19:32:30.907570 11196 net.cpp:434] relu5 <- conv5
I0423 19:32:30.907599 11196 net.cpp:395] relu5 -> conv5 (in-place)
I0423 19:32:30.907927 11196 net.cpp:150] Setting up relu5
I0423 19:32:30.907946 11196 net.cpp:157] Top shape: 5 256 13 13 (216320)
I0423 19:32:30.907958 11196 net.cpp:165] Memory required for data: 33624920
I0423 19:32:30.907969 11196 layer_factory.hpp:77] Creating layer pool5
I0423 19:32:30.908000 11196 net.cpp:100] Creating Layer pool5
I0423 19:32:30.908026 11196 net.cpp:434] pool5 <- conv5
I0423 19:32:30.908042 11196 net.cpp:408] pool5 -> pool5
I0423 19:32:30.908123 11196 net.cpp:150] Setting up pool5
I0423 19:32:30.908148 11196 net.cpp:157] Top shape: 5 256 6 6 (46080)
I0423 19:32:30.908159 11196 net.cpp:165] Memory required for data: 33809240
I0423 19:32:30.908171 11196 layer_factory.hpp:77] Creating layer fc6
I0423 19:32:30.908190 11196 net.cpp:100] Creating Layer fc6
I0423 19:32:30.908201 11196 net.cpp:434] fc6 <- pool5
I0423 19:32:30.908216 11196 net.cpp:408] fc6 -> fc6
I0423 19:32:31.919343 11196 net.cpp:150] Setting up fc6
I0423 19:32:31.919396 11196 net.cpp:157] Top shape: 5 4096 (20480)
I0423 19:32:31.919410 11196 net.cpp:165] Memory required for data: 33891160
I0423 19:32:31.919435 11196 layer_factory.hpp:77] Creating layer relu6
I0423 19:32:31.919457 11196 net.cpp:100] Creating Layer relu6
I0423 19:32:31.919471 11196 net.cpp:434] relu6 <- fc6
I0423 19:32:31.919488 11196 net.cpp:395] relu6 -> fc6 (in-place)
I0423 19:32:31.920256 11196 net.cpp:150] Setting up relu6
I0423 19:32:31.920279 11196 net.cpp:157] Top shape: 5 4096 (20480)
I0423 19:32:31.920301 11196 net.cpp:165] Memory required for data: 33973080
I0423 19:32:31.920315 11196 layer_factory.hpp:77] Creating layer drop6
I0423 19:32:31.920331 11196 net.cpp:100] Creating Layer drop6
I0423 19:32:31.920346 11196 net.cpp:434] drop6 <- fc6
I0423 19:32:31.920368 11196 net.cpp:395] drop6 -> fc6 (in-place)
I0423 19:32:31.920420 11196 net.cpp:150] Setting up drop6
I0423 19:32:31.920441 11196 net.cpp:157] Top shape: 5 4096 (20480)
I0423 19:32:31.920454 11196 net.cpp:165] Memory required for data: 34055000
I0423 19:32:31.920465 11196 layer_factory.hpp:77] Creating layer fc7
I0423 19:32:31.920483 11196 net.cpp:100] Creating Layer fc7
I0423 19:32:31.920506 11196 net.cpp:434] fc7 <- fc6
I0423 19:32:31.920523 11196 net.cpp:408] fc7 -> fc7
I0423 19:32:32.287771 11196 net.cpp:150] Setting up fc7
I0423 19:32:32.287823 11196 net.cpp:157] Top shape: 5 4096 (20480)
I0423 19:32:32.287837 11196 net.cpp:165] Memory required for data: 34136920
I0423 19:32:32.287861 11196 layer_factory.hpp:77] Creating layer relu7
I0423 19:32:32.287881 11196 net.cpp:100] Creating Layer relu7
I0423 19:32:32.287895 11196 net.cpp:434] relu7 <- fc7
I0423 19:32:32.287917 11196 net.cpp:395] relu7 -> fc7 (in-place)
I0423 19:32:32.288333 11196 net.cpp:150] Setting up relu7
I0423 19:32:32.288352 11196 net.cpp:157] Top shape: 5 4096 (20480)
I0423 19:32:32.288365 11196 net.cpp:165] Memory required for data: 34218840
I0423 19:32:32.288377 11196 layer_factory.hpp:77] Creating layer drop7
I0423 19:32:32.288403 11196 net.cpp:100] Creating Layer drop7
I0423 19:32:32.288416 11196 net.cpp:434] drop7 <- fc7
I0423 19:32:32.288431 11196 net.cpp:395] drop7 -> fc7 (in-place)
I0423 19:32:32.288481 11196 net.cpp:150] Setting up drop7
I0423 19:32:32.288497 11196 net.cpp:157] Top shape: 5 4096 (20480)
I0423 19:32:32.288508 11196 net.cpp:165] Memory required for data: 34300760
I0423 19:32:32.288522 11196 layer_factory.hpp:77] Creating layer fc8_fp-mini
I0423 19:32:32.288547 11196 net.cpp:100] Creating Layer fc8_fp-mini
I0423 19:32:32.288560 11196 net.cpp:434] fc8_fp-mini <- fc7
I0423 19:32:32.288575 11196 net.cpp:408] fc8_fp-mini -> fc8_fp-mini
I0423 19:32:32.289603 11196 net.cpp:150] Setting up fc8_fp-mini
I0423 19:32:32.289621 11196 net.cpp:157] Top shape: 5 10 (50)
I0423 19:32:32.289633 11196 net.cpp:165] Memory required for data: 34300960
I0423 19:32:32.289650 11196 layer_factory.hpp:77] Creating layer fc8_fp-mini_fc8_fp-mini_0_split
I0423 19:32:32.289671 11196 net.cpp:100] Creating Layer fc8_fp-mini_fc8_fp-mini_0_split
I0423 19:32:32.289688 11196 net.cpp:434] fc8_fp-mini_fc8_fp-mini_0_split <- fc8_fp-mini
I0423 19:32:32.289711 11196 net.cpp:408] fc8_fp-mini_fc8_fp-mini_0_split -> fc8_fp-mini_fc8_fp-mini_0_split_0
I0423 19:32:32.289729 11196 net.cpp:408] fc8_fp-mini_fc8_fp-mini_0_split -> fc8_fp-mini_fc8_fp-mini_0_split_1
I0423 19:32:32.289803 11196 net.cpp:150] Setting up fc8_fp-mini_fc8_fp-mini_0_split
I0423 19:32:32.289822 11196 net.cpp:157] Top shape: 5 10 (50)
I0423 19:32:32.289861 11196 net.cpp:157] Top shape: 5 10 (50)
I0423 19:32:32.289873 11196 net.cpp:165] Memory required for data: 34301360
I0423 19:32:32.289886 11196 layer_factory.hpp:77] Creating layer accuracy
I0423 19:32:32.289911 11196 net.cpp:100] Creating Layer accuracy
I0423 19:32:32.289935 11196 net.cpp:434] accuracy <- fc8_fp-mini_fc8_fp-mini_0_split_0
I0423 19:32:32.289949 11196 net.cpp:434] accuracy <- label_data_1_split_0
I0423 19:32:32.289963 11196 net.cpp:408] accuracy -> accuracy
…
