…
I0501 01:13:57.673300  1567 net.cpp:322] The NetState phase (0) differed from the phase (1) specified by a rule in layer data
I0501 01:13:57.673362  1567 net.cpp:322] The NetState phase (0) differed from the phase (1) specified by a rule in layer accuracy
I0501 01:13:57.673807  1567 net.cpp:58] Initializing net from parameters: 
name: "fp1CaffeNet"
state {
  phase: TRAIN
  level: 0
  stage: ""
}
layer {
  name: "data"
  type: "ImageData"
  top: "data"
  top: "label"
  include {
    phase: TRAIN
  }
  image_data_param {
    source: "data/finalproject/finalproject.train"
    batch_size: 50
    new_height: 227
    new_width: 227
  }
}
layer {
  name: "conv1"
  type: "Convolution"
  bottom: "data"
  top: "conv1"
  param {
    lr_mult: 1
    decay_mult: 1
  }
  param {
    lr_mult: 2
    decay_mult: 0
  }
  convolution_param {
    num_output: 96
    kernel_size: 11
    stride: 4
    weight_filler {
      type: "gaussian"
      std: 0.01
    }
    bias_filler {
      type: "constant"
      value: 0
    }
  }
}
layer {
  name: "relu1"
  type: "ReLU"
  bottom: "conv1"
  top: "conv1"
}
layer {
  name: "pool1"
  type: "Pooling"
  bottom: "conv1"
  top: "pool1"
  pooling_param {
    pool: MAX
    kernel_size: 3
    stride: 2
  }
}
layer {
  name: "norm1"
  type: "LRN"
  bottom: "pool1"
  top: "norm1"
  lrn_param {
    local_size: 5
    alpha: 0.0001
    beta: 0.75
  }
}
layer {
  name: "conv2"
  type: "Convolution"
  bottom: "norm1"
  top: "conv2"
  param {
    lr_mult: 1
    decay_mult: 1
  }
  param {
    lr_mult: 2
    decay_mult: 0
  }
  convolution_param {
    num_output: 256
    pad: 2
    kernel_size: 5
    group: 2
    weight_filler {
      type: "gaussian"
      std: 0.01
    }
    bias_filler {
      type: "constant"
      value: 1
    }
  }
}
layer {
  name: "relu2"
  type: "ReLU"
  bottom: "conv2"
  top: "conv2"
}
layer {
  name: "pool2"
  type: "Pooling"
  bottom: "conv2"
  top: "pool2"
  pooling_param {
    pool: MAX
    kernel_size: 3
    stride: 2
  }
}
layer {
  name: "norm2"
  type: "LRN"
  bottom: "pool2"
  top: "norm2"
  lrn_param {
    local_size: 5
    alpha: 0.0001
    beta: 0.75
  }
}
layer {
  name: "conv3"
  type: "Convolution"
  bottom: "norm2"
  top: "conv3"
  param {
    lr_mult: 1
    decay_mult: 1
  }
  param {
    lr_mult: 2
    decay_mult: 0
  }
  convolution_param {
    num_output: 384
    pad: 1
    kernel_size: 3
    weight_filler {
      type: "gaussian"
      std: 0.01
    }
    bias_filler {
      type: "constant"
      value: 0
    }
  }
}
layer {
  name: "relu3"
  type: "ReLU"
  bottom: "conv3"
  top: "conv3"
}
layer {
  name: "conv4"
  type: "Convolution"
  bottom: "conv3"
  top: "conv4"
  param {
    lr_mult: 1
    decay_mult: 1
  }
  param {
    lr_mult: 2
    decay_mult: 0
  }
  convolution_param {
    num_output: 384
    pad: 1
    kernel_size: 3
    group: 2
    weight_filler {
      type: "gaussian"
      std: 0.01
    }
    bias_filler {
      type: "constant"
      value: 1
    }
  }
}
layer {
  name: "relu4"
  type: "ReLU"
  bottom: "conv4"
  top: "conv4"
}
layer {
  name: "conv5"
  type: "Convolution"
  bottom: "conv4"
  top: "conv5"
  param {
    lr_mult: 1
    decay_mult: 1
  }
  param {
    lr_mult: 2
    decay_mult: 0
  }
  convolution_param {
    num_output: 256
    pad: 1
    kernel_size: 3
    group: 2
    weight_filler {
      type: "gaussian"
      std: 0.01
    }
    bias_filler {
      type: "constant"
      value: 1
    }
  }
}
layer {
  name: "relu5"
  type: "ReLU"
  bottom: "conv5"
  top: "conv5"
}
layer {
  name: "pool5"
  type: "Pooling"
  bottom: "conv5"
  top: "pool5"
  pooling_param {
    pool: MAX
    kernel_size: 3
    stride: 2
  }
}
layer {
  name: "fc6"
  type: "InnerProduct"
  bottom: "pool5"
  top: "fc6"
  param {
    lr_mult: 1
    decay_mult: 1
  }
  param {
    lr_mult: 2
    decay_mult: 0
  }
  inner_product_param {
    num_output: 4096
    weight_filler {
      type: "gaussian"
      std: 0.005
    }
    bias_filler {
      type: "constant"
      value: 1
    }
  }
}
layer {
  name: "relu6"
  type: "ReLU"
  bottom: "fc6"
  top: "fc6"
}
layer {
  name: "drop6"
  type: "Dropout"
  bottom: "fc6"
  top: "fc6"
  dropout_param {
    dropout_ratio: 0.5
  }
}
layer {
  name: "fc7"
  type: "InnerProduct"
  bottom: "fc6"
  top: "fc7"
  param {
    lr_mult: 1
    decay_mult: 1
  }
  param {
    lr_mult: 2
    decay_mult: 0
  }
  inner_product_param {
    num_output: 4096
    weight_filler {
      type: "gaussian"
      std: 0.005
    }
    bias_filler {
      type: "constant"
      value: 1
    }
  }
}
layer {
  name: "relu7"
  type: "ReLU"
  bottom: "fc7"
  top: "fc7"
}
layer {
  name: "drop7"
  type: "Dropout"
  bottom: "fc7"
  top: "fc7"
  dropout_param {
    dropout_ratio: 0.5
  }
}
layer {
  name: "fc8_fp1"
  type: "InnerProduct"
  bottom: "fc7"
  top: "fc8_fp1"
  param {
    lr_mult: 10
    decay_mult: 1
  }
  param {
    lr_mult: 20
    decay_mult: 0
  }
  inner_product_param {
    num_output: 11
    weight_filler {
      type: "gaussian"
      std: 0.01
    }
    bias_filler {
      type: "constant"
      value: 0
    }
  }
}
layer {
  name: "loss"
  type: "SoftmaxWithLoss"
  bottom: "fc8_fp1"
  bottom: "label"
  top: "loss"
}
I0501 01:13:57.674063  1567 layer_factory.hpp:77] Creating layer data
I0501 01:13:57.674152  1567 net.cpp:100] Creating Layer data
I0501 01:13:57.674173  1567 net.cpp:408] data -> data
I0501 01:13:57.674228  1567 net.cpp:408] data -> label
I0501 01:13:57.674278  1567 image_data_layer.cpp:38] Opening file data/finalproject/finalproject.train
I0501 01:13:57.701757  1567 image_data_layer.cpp:58] A total of 15696 images.
I0501 01:13:57.750633  1567 image_data_layer.cpp:85] output data size: 50,3,227,227
I0501 01:13:57.843685  1567 net.cpp:150] Setting up data
I0501 01:13:57.843753  1567 net.cpp:157] Top shape: 50 3 227 227 (7729350)
I0501 01:13:57.843771  1567 net.cpp:157] Top shape: 50 (50)
I0501 01:13:57.843783  1567 net.cpp:165] Memory required for data: 30917600
I0501 01:13:57.843807  1567 layer_factory.hpp:77] Creating layer conv1
I0501 01:13:57.843868  1567 net.cpp:100] Creating Layer conv1
I0501 01:13:57.843884  1567 net.cpp:434] conv1 <- data
I0501 01:13:57.843912  1567 net.cpp:408] conv1 -> conv1
I0501 01:13:58.353685  1567 net.cpp:150] Setting up conv1
I0501 01:13:58.353739  1567 net.cpp:157] Top shape: 50 96 55 55 (14520000)
I0501 01:13:58.353762  1567 net.cpp:165] Memory required for data: 88997600
I0501 01:13:58.353799  1567 layer_factory.hpp:77] Creating layer relu1
I0501 01:13:58.353826  1567 net.cpp:100] Creating Layer relu1
I0501 01:13:58.353847  1567 net.cpp:434] relu1 <- conv1
I0501 01:13:58.353884  1567 net.cpp:395] relu1 -> conv1 (in-place)
I0501 01:13:58.354238  1567 net.cpp:150] Setting up relu1
I0501 01:13:58.354256  1567 net.cpp:157] Top shape: 50 96 55 55 (14520000)
I0501 01:13:58.354269  1567 net.cpp:165] Memory required for data: 147077600
I0501 01:13:58.354281  1567 layer_factory.hpp:77] Creating layer pool1
I0501 01:13:58.354308  1567 net.cpp:100] Creating Layer pool1
I0501 01:13:58.354321  1567 net.cpp:434] pool1 <- conv1
I0501 01:13:58.354336  1567 net.cpp:408] pool1 -> pool1
I0501 01:13:58.354431  1567 net.cpp:150] Setting up pool1
I0501 01:13:58.354449  1567 net.cpp:157] Top shape: 50 96 27 27 (3499200)
I0501 01:13:58.354468  1567 net.cpp:165] Memory required for data: 161074400
I0501 01:13:58.354480  1567 layer_factory.hpp:77] Creating layer norm1
I0501 01:13:58.354508  1567 net.cpp:100] Creating Layer norm1
I0501 01:13:58.354529  1567 net.cpp:434] norm1 <- pool1
I0501 01:13:58.354544  1567 net.cpp:408] norm1 -> norm1
I0501 01:13:58.355084  1567 net.cpp:150] Setting up norm1
I0501 01:13:58.357892  1567 net.cpp:157] Top shape: 50 96 27 27 (3499200)
I0501 01:13:58.357921  1567 net.cpp:165] Memory required for data: 175071200
I0501 01:13:58.357938  1567 layer_factory.hpp:77] Creating layer conv2
I0501 01:13:58.357969  1567 net.cpp:100] Creating Layer conv2
I0501 01:13:58.357995  1567 net.cpp:434] conv2 <- norm1
I0501 01:13:58.358013  1567 net.cpp:408] conv2 -> conv2
I0501 01:13:58.368643  1567 net.cpp:150] Setting up conv2
I0501 01:13:58.368896  1567 net.cpp:157] Top shape: 50 256 27 27 (9331200)
I0501 01:13:58.368913  1567 net.cpp:165] Memory required for data: 212396000
I0501 01:13:58.368938  1567 layer_factory.hpp:77] Creating layer relu2
I0501 01:13:58.368970  1567 net.cpp:100] Creating Layer relu2
I0501 01:13:58.369145  1567 net.cpp:434] relu2 <- conv2
I0501 01:13:58.369169  1567 net.cpp:395] relu2 -> conv2 (in-place)
I0501 01:13:58.369796  1567 net.cpp:150] Setting up relu2
I0501 01:13:58.369819  1567 net.cpp:157] Top shape: 50 256 27 27 (9331200)
I0501 01:13:58.370069  1567 net.cpp:165] Memory required for data: 249720800
I0501 01:13:58.370085  1567 layer_factory.hpp:77] Creating layer pool2
I0501 01:13:58.370103  1567 net.cpp:100] Creating Layer pool2
I0501 01:13:58.370118  1567 net.cpp:434] pool2 <- conv2
I0501 01:13:58.370141  1567 net.cpp:408] pool2 -> pool2
I0501 01:13:58.370409  1567 net.cpp:150] Setting up pool2
I0501 01:13:58.370430  1567 net.cpp:157] Top shape: 50 256 13 13 (2163200)
I0501 01:13:58.370443  1567 net.cpp:165] Memory required for data: 258373600
I0501 01:13:58.379211  1567 layer_factory.hpp:77] Creating layer norm2
I0501 01:13:58.379245  1567 net.cpp:100] Creating Layer norm2
I0501 01:13:58.379259  1567 net.cpp:434] norm2 <- pool2
I0501 01:13:58.379281  1567 net.cpp:408] norm2 -> norm2
I0501 01:13:58.379909  1567 net.cpp:150] Setting up norm2
I0501 01:13:58.379931  1567 net.cpp:157] Top shape: 50 256 13 13 (2163200)
I0501 01:13:58.379952  1567 net.cpp:165] Memory required for data: 267026400
I0501 01:13:58.379966  1567 layer_factory.hpp:77] Creating layer conv3
I0501 01:13:58.379992  1567 net.cpp:100] Creating Layer conv3
I0501 01:13:58.380005  1567 net.cpp:434] conv3 <- norm2
I0501 01:13:58.380030  1567 net.cpp:408] conv3 -> conv3
I0501 01:13:58.427209  1567 net.cpp:150] Setting up conv3
I0501 01:13:58.427253  1567 net.cpp:157] Top shape: 50 384 13 13 (3244800)
I0501 01:13:58.427274  1567 net.cpp:165] Memory required for data: 280005600
I0501 01:13:58.427302  1567 layer_factory.hpp:77] Creating layer relu3
I0501 01:13:58.427326  1567 net.cpp:100] Creating Layer relu3
I0501 01:13:58.427340  1567 net.cpp:434] relu3 <- conv3
I0501 01:13:58.427361  1567 net.cpp:395] relu3 -> conv3 (in-place)
I0501 01:13:58.427932  1567 net.cpp:150] Setting up relu3
I0501 01:13:58.427959  1567 net.cpp:157] Top shape: 50 384 13 13 (3244800)
I0501 01:13:58.427973  1567 net.cpp:165] Memory required for data: 292984800
I0501 01:13:58.427989  1567 layer_factory.hpp:77] Creating layer conv4
I0501 01:13:58.428021  1567 net.cpp:100] Creating Layer conv4
I0501 01:13:58.428035  1567 net.cpp:434] conv4 <- conv3
I0501 01:13:58.428051  1567 net.cpp:408] conv4 -> conv4
I0501 01:13:58.458921  1567 net.cpp:150] Setting up conv4
I0501 01:13:58.458967  1567 net.cpp:157] Top shape: 50 384 13 13 (3244800)
I0501 01:13:58.458981  1567 net.cpp:165] Memory required for data: 305964000
I0501 01:13:58.459002  1567 layer_factory.hpp:77] Creating layer relu4
I0501 01:13:58.459020  1567 net.cpp:100] Creating Layer relu4
I0501 01:13:58.459039  1567 net.cpp:434] relu4 <- conv4
I0501 01:13:58.459056  1567 net.cpp:395] relu4 -> conv4 (in-place)
I0501 01:13:58.459414  1567 net.cpp:150] Setting up relu4
I0501 01:13:58.462157  1567 net.cpp:157] Top shape: 50 384 13 13 (3244800)
I0501 01:13:58.462177  1567 net.cpp:165] Memory required for data: 318943200
I0501 01:13:58.462193  1567 layer_factory.hpp:77] Creating layer conv5
I0501 01:13:58.462224  1567 net.cpp:100] Creating Layer conv5
I0501 01:13:58.462239  1567 net.cpp:434] conv5 <- conv4
I0501 01:13:58.462268  1567 net.cpp:408] conv5 -> conv5
I0501 01:13:58.485278  1567 net.cpp:150] Setting up conv5
I0501 01:13:58.485327  1567 net.cpp:157] Top shape: 50 256 13 13 (2163200)
I0501 01:13:58.485343  1567 net.cpp:165] Memory required for data: 327596000
I0501 01:13:58.485374  1567 layer_factory.hpp:77] Creating layer relu5
I0501 01:13:58.485399  1567 net.cpp:100] Creating Layer relu5
I0501 01:13:58.485411  1567 net.cpp:434] relu5 <- conv5
I0501 01:13:58.485440  1567 net.cpp:395] relu5 -> conv5 (in-place)
I0501 01:13:58.485805  1567 net.cpp:150] Setting up relu5
I0501 01:13:58.485826  1567 net.cpp:157] Top shape: 50 256 13 13 (2163200)
I0501 01:13:58.485838  1567 net.cpp:165] Memory required for data: 336248800
I0501 01:13:58.485851  1567 layer_factory.hpp:77] Creating layer pool5
I0501 01:13:58.485869  1567 net.cpp:100] Creating Layer pool5
I0501 01:13:58.485889  1567 net.cpp:434] pool5 <- conv5
I0501 01:13:58.485909  1567 net.cpp:408] pool5 -> pool5
I0501 01:13:58.485990  1567 net.cpp:150] Setting up pool5
I0501 01:13:58.486011  1567 net.cpp:157] Top shape: 50 256 6 6 (460800)
I0501 01:13:58.486022  1567 net.cpp:165] Memory required for data: 338092000
I0501 01:13:58.486042  1567 layer_factory.hpp:77] Creating layer fc6
I0501 01:13:58.486075  1567 net.cpp:100] Creating Layer fc6
I0501 01:13:58.486088  1567 net.cpp:434] fc6 <- pool5
I0501 01:13:58.486107  1567 net.cpp:408] fc6 -> fc6
I0501 01:13:59.868630  1567 net.cpp:150] Setting up fc6
I0501 01:13:59.868677  1567 net.cpp:157] Top shape: 50 4096 (204800)
I0501 01:13:59.868691  1567 net.cpp:165] Memory required for data: 338911200
I0501 01:13:59.868716  1567 layer_factory.hpp:77] Creating layer relu6
I0501 01:13:59.868737  1567 net.cpp:100] Creating Layer relu6
I0501 01:13:59.868752  1567 net.cpp:434] relu6 <- fc6
I0501 01:13:59.868773  1567 net.cpp:395] relu6 -> fc6 (in-place)
I0501 01:13:59.869495  1567 net.cpp:150] Setting up relu6
I0501 01:13:59.869518  1567 net.cpp:157] Top shape: 50 4096 (204800)
I0501 01:13:59.869539  1567 net.cpp:165] Memory required for data: 339730400
I0501 01:13:59.869561  1567 layer_factory.hpp:77] Creating layer drop6
I0501 01:13:59.869596  1567 net.cpp:100] Creating Layer drop6
I0501 01:13:59.869609  1567 net.cpp:434] drop6 <- fc6
I0501 01:13:59.869626  1567 net.cpp:395] drop6 -> fc6 (in-place)
I0501 01:13:59.869678  1567 net.cpp:150] Setting up drop6
I0501 01:13:59.869704  1567 net.cpp:157] Top shape: 50 4096 (204800)
I0501 01:13:59.869716  1567 net.cpp:165] Memory required for data: 340549600
I0501 01:13:59.869729  1567 layer_factory.hpp:77] Creating layer fc7
I0501 01:13:59.869747  1567 net.cpp:100] Creating Layer fc7
I0501 01:13:59.869760  1567 net.cpp:434] fc7 <- fc6
I0501 01:13:59.869776  1567 net.cpp:408] fc7 -> fc7
I0501 01:14:00.473248  1567 net.cpp:150] Setting up fc7
I0501 01:14:00.473295  1567 net.cpp:157] Top shape: 50 4096 (204800)
I0501 01:14:00.473309  1567 net.cpp:165] Memory required for data: 341368800
I0501 01:14:00.473333  1567 layer_factory.hpp:77] Creating layer relu7
I0501 01:14:00.473354  1567 net.cpp:100] Creating Layer relu7
I0501 01:14:00.473368  1567 net.cpp:434] relu7 <- fc7
I0501 01:14:00.473390  1567 net.cpp:395] relu7 -> fc7 (in-place)
I0501 01:14:00.473812  1567 net.cpp:150] Setting up relu7
I0501 01:14:00.473832  1567 net.cpp:157] Top shape: 50 4096 (204800)
I0501 01:14:00.473845  1567 net.cpp:165] Memory required for data: 342188000
I0501 01:14:00.473856  1567 layer_factory.hpp:77] Creating layer drop7
I0501 01:14:00.473883  1567 net.cpp:100] Creating Layer drop7
I0501 01:14:00.473896  1567 net.cpp:434] drop7 <- fc7
I0501 01:14:00.473912  1567 net.cpp:395] drop7 -> fc7 (in-place)
I0501 01:14:00.473958  1567 net.cpp:150] Setting up drop7
I0501 01:14:00.473978  1567 net.cpp:157] Top shape: 50 4096 (204800)
I0501 01:14:00.473996  1567 net.cpp:165] Memory required for data: 343007200
I0501 01:14:00.474009  1567 layer_factory.hpp:77] Creating layer fc8_fp1
I0501 01:14:00.474028  1567 net.cpp:100] Creating Layer fc8_fp1
I0501 01:14:00.474050  1567 net.cpp:434] fc8_fp1 <- fc7
I0501 01:14:00.474066  1567 net.cpp:408] fc8_fp1 -> fc8_fp1
I0501 01:14:00.475169  1567 net.cpp:150] Setting up fc8_fp1
I0501 01:14:00.475203  1567 net.cpp:157] Top shape: 50 11 (550)
I0501 01:14:00.475219  1567 net.cpp:165] Memory required for data: 343009400
I0501 01:14:00.475236  1567 layer_factory.hpp:77] Creating layer loss
I0501 01:14:00.475260  1567 net.cpp:100] Creating Layer loss
I0501 01:14:00.475278  1567 net.cpp:434] loss <- fc8_fp1
I0501 01:14:00.475292  1567 net.cpp:434] loss <- label
I0501 01:14:00.475311  1567 net.cpp:408] loss -> loss
I0501 01:14:00.475338  1567 layer_factory.hpp:77] Creating layer loss
…
I0501 01:14:00.481894  1567 solver.cpp:181] Creating test net (#0) specified by net file: models/fp1/train_val.prototxt
I0501 01:14:00.481981  1567 net.cpp:322] The NetState phase (1) differed from the phase (0) specified by a rule in layer data
I0501 01:14:00.482414  1567 net.cpp:58] Initializing net from parameters: 
name: "fp1CaffeNet"
state {
  phase: TEST
}
layer {
  name: "data"
  type: "ImageData"
  top: "data"
  top: "label"
  include {
    phase: TEST
  }
  image_data_param {
    source: "data/finalproject/finalproject.val"
    batch_size: 25
    new_height: 227
    new_width: 227
  }
}
layer {
  name: "conv1"
  type: "Convolution"
  bottom: "data"
  top: "conv1"
  param {
    lr_mult: 1
    decay_mult: 1
  }
  param {
    lr_mult: 2
    decay_mult: 0
  }
  convolution_param {
    num_output: 96
    kernel_size: 11
    stride: 4
    weight_filler {
      type: "gaussian"
      std: 0.01
    }
    bias_filler {
      type: "constant"
      value: 0
    }
  }
}
layer {
  name: "relu1"
  type: "ReLU"
  bottom: "conv1"
  top: "conv1"
}
layer {
  name: "pool1"
  type: "Pooling"
  bottom: "conv1"
  top: "pool1"
  pooling_param {
    pool: MAX
    kernel_size: 3
    stride: 2
  }
}
layer {
  name: "norm1"
  type: "LRN"
  bottom: "pool1"
  top: "norm1"
  lrn_param {
    local_size: 5
    alpha: 0.0001
    beta: 0.75
  }
}
layer {
  name: "conv2"
  type: "Convolution"
  bottom: "norm1"
  top: "conv2"
  param {
    lr_mult: 1
    decay_mult: 1
  }
  param {
    lr_mult: 2
    decay_mult: 0
  }
  convolution_param {
    num_output: 256
    pad: 2
    kernel_size: 5
    group: 2
    weight_filler {
      type: "gaussian"
      std: 0.01
    }
    bias_filler {
      type: "constant"
      value: 1
    }
  }
}
layer {
  name: "relu2"
  type: "ReLU"
  bottom: "conv2"
  top: "conv2"
}
layer {
  name: "pool2"
  type: "Pooling"
  bottom: "conv2"
  top: "pool2"
  pooling_param {
    pool: MAX
    kernel_size: 3
    stride: 2
  }
}
layer {
  name: "norm2"
  type: "LRN"
  bottom: "pool2"
  top: "norm2"
  lrn_param {
    local_size: 5
    alpha: 0.0001
    beta: 0.75
  }
}
layer {
  name: "conv3"
  type: "Convolution"
  bottom: "norm2"
  top: "conv3"
  param {
    lr_mult: 1
    decay_mult: 1
  }
  param {
    lr_mult: 2
    decay_mult: 0
  }
  convolution_param {
    num_output: 384
    pad: 1
    kernel_size: 3
    weight_filler {
      type: "gaussian"
      std: 0.01
    }
    bias_filler {
      type: "constant"
      value: 0
    }
  }
}
layer {
  name: "relu3"
  type: "ReLU"
  bottom: "conv3"
  top: "conv3"
}
layer {
  name: "conv4"
  type: "Convolution"
  bottom: "conv3"
  top: "conv4"
  param {
    lr_mult: 1
    decay_mult: 1
  }
  param {
    lr_mult: 2
    decay_mult: 0
  }
  convolution_param {
    num_output: 384
    pad: 1
    kernel_size: 3
    group: 2
    weight_filler {
      type: "gaussian"
      std: 0.01
    }
    bias_filler {
      type: "constant"
      value: 1
    }
  }
}
layer {
  name: "relu4"
  type: "ReLU"
  bottom: "conv4"
  top: "conv4"
}
layer {
  name: "conv5"
  type: "Convolution"
  bottom: "conv4"
  top: "conv5"
  param {
    lr_mult: 1
    decay_mult: 1
  }
  param {
    lr_mult: 2
    decay_mult: 0
  }
  convolution_param {
    num_output: 256
    pad: 1
    kernel_size: 3
    group: 2
    weight_filler {
      type: "gaussian"
      std: 0.01
    }
    bias_filler {
      type: "constant"
      value: 1
    }
  }
}
layer {
  name: "relu5"
  type: "ReLU"
  bottom: "conv5"
  top: "conv5"
}
layer {
  name: "pool5"
  type: "Pooling"
  bottom: "conv5"
  top: "pool5"
  pooling_param {
    pool: MAX
    kernel_size: 3
    stride: 2
  }
}
layer {
  name: "fc6"
  type: "InnerProduct"
  bottom: "pool5"
  top: "fc6"
  param {
    lr_mult: 1
    decay_mult: 1
  }
  param {
    lr_mult: 2
    decay_mult: 0
  }
  inner_product_param {
    num_output: 4096
    weight_filler {
      type: "gaussian"
      std: 0.005
    }
    bias_filler {
      type: "constant"
      value: 1
    }
  }
}
layer {
  name: "relu6"
  type: "ReLU"
  bottom: "fc6"
  top: "fc6"
}
layer {
  name: "drop6"
  type: "Dropout"
  bottom: "fc6"
  top: "fc6"
  dropout_param {
    dropout_ratio: 0.5
  }
}
layer {
  name: "fc7"
  type: "InnerProduct"
  bottom: "fc6"
  top: "fc7"
  param {
    lr_mult: 1
    decay_mult: 1
  }
  param {
    lr_mult: 2
    decay_mult: 0
  }
  inner_product_param {
    num_output: 4096
    weight_filler {
      type: "gaussian"
      std: 0.005
    }
    bias_filler {
      type: "constant"
      value: 1
    }
  }
}
layer {
  name: "relu7"
  type: "ReLU"
  bottom: "fc7"
  top: "fc7"
}
layer {
  name: "drop7"
  type: "Dropout"
  bottom: "fc7"
  top: "fc7"
  dropout_param {
    dropout_ratio: 0.5
  }
}
layer {
  name: "fc8_fp1"
  type: "InnerProduct"
  bottom: "fc7"
  top: "fc8_fp1"
  param {
    lr_mult: 10
    decay_mult: 1
  }
  param {
    lr_mult: 20
    decay_mult: 0
  }
  inner_product_param {
    num_output: 11
    weight_filler {
      type: "gaussian"
      std: 0.01
    }
    bias_filler {
      type: "constant"
      value: 0
    }
  }
}
layer {
  name: "accuracy"
  type: "Accuracy"
  bottom: "fc8_fp1"
  bottom: "label"
  top: "accuracy"
  include {
    phase: TEST
  }
}
layer {
  name: "loss"
  type: "SoftmaxWithLoss"
  bottom: "fc8_fp1"
  bottom: "label"
  top: "loss"
}
I0501 01:14:00.482687  1567 layer_factory.hpp:77] Creating layer data
I0501 01:14:00.482713  1567 net.cpp:100] Creating Layer data
I0501 01:14:00.482738  1567 net.cpp:408] data -> data
I0501 01:14:00.482766  1567 net.cpp:408] data -> label
I0501 01:14:00.482785  1567 image_data_layer.cpp:38] Opening file data/finalproject/finalproject.val
I0501 01:14:00.500026  1567 image_data_layer.cpp:58] A total of 3363 images.
I0501 01:14:00.523917  1567 image_data_layer.cpp:85] output data size: 25,3,227,227
I0501 01:14:00.594851  1567 net.cpp:150] Setting up data
I0501 01:14:00.594892  1567 net.cpp:157] Top shape: 25 3 227 227 (3864675)
I0501 01:14:00.594910  1567 net.cpp:157] Top shape: 25 (25)
I0501 01:14:00.594923  1567 net.cpp:165] Memory required for data: 15458800
I0501 01:14:00.594938  1567 layer_factory.hpp:77] Creating layer label_data_1_split
I0501 01:14:00.594962  1567 net.cpp:100] Creating Layer label_data_1_split
I0501 01:14:00.594981  1567 net.cpp:434] label_data_1_split <- label
I0501 01:14:00.595000  1567 net.cpp:408] label_data_1_split -> label_data_1_split_0
I0501 01:14:00.595041  1567 net.cpp:408] label_data_1_split -> label_data_1_split_1
I0501 01:14:00.595130  1567 net.cpp:150] Setting up label_data_1_split
I0501 01:14:00.595151  1567 net.cpp:157] Top shape: 25 (25)
I0501 01:14:00.595173  1567 net.cpp:157] Top shape: 25 (25)
I0501 01:14:00.595186  1567 net.cpp:165] Memory required for data: 15459000
I0501 01:14:00.595198  1567 layer_factory.hpp:77] Creating layer conv1
I0501 01:14:00.595224  1567 net.cpp:100] Creating Layer conv1
I0501 01:14:00.595237  1567 net.cpp:434] conv1 <- data
I0501 01:14:00.595254  1567 net.cpp:408] conv1 -> conv1
I0501 01:14:00.597880  1567 net.cpp:150] Setting up conv1
I0501 01:14:00.598091  1567 net.cpp:157] Top shape: 25 96 55 55 (7260000)
I0501 01:14:00.598109  1567 net.cpp:165] Memory required for data: 44499000
I0501 01:14:00.598134  1567 layer_factory.hpp:77] Creating layer relu1
I0501 01:14:00.598155  1567 net.cpp:100] Creating Layer relu1
I0501 01:14:00.598172  1567 net.cpp:434] relu1 <- conv1
I0501 01:14:00.598341  1567 net.cpp:395] relu1 -> conv1 (in-place)
I0501 01:14:00.598909  1567 net.cpp:150] Setting up relu1
I0501 01:14:00.598932  1567 net.cpp:157] Top shape: 25 96 55 55 (7260000)
I0501 01:14:00.598948  1567 net.cpp:165] Memory required for data: 73539000
I0501 01:14:00.598961  1567 layer_factory.hpp:77] Creating layer pool1
I0501 01:14:00.599200  1567 net.cpp:100] Creating Layer pool1
I0501 01:14:00.599216  1567 net.cpp:434] pool1 <- conv1
I0501 01:14:00.599234  1567 net.cpp:408] pool1 -> pool1
I0501 01:14:00.599503  1567 net.cpp:150] Setting up pool1
I0501 01:14:00.599525  1567 net.cpp:157] Top shape: 25 96 27 27 (1749600)
I0501 01:14:00.599539  1567 net.cpp:165] Memory required for data: 80537400
I0501 01:14:00.599565  1567 layer_factory.hpp:77] Creating layer norm1
I0501 01:14:00.608000  1567 net.cpp:100] Creating Layer norm1
I0501 01:14:00.608022  1567 net.cpp:434] norm1 <- pool1
I0501 01:14:00.608042  1567 net.cpp:408] norm1 -> norm1
I0501 01:14:00.608683  1567 net.cpp:150] Setting up norm1
I0501 01:14:00.608708  1567 net.cpp:157] Top shape: 25 96 27 27 (1749600)
I0501 01:14:00.608721  1567 net.cpp:165] Memory required for data: 87535800
I0501 01:14:00.608736  1567 layer_factory.hpp:77] Creating layer conv2
I0501 01:14:00.608762  1567 net.cpp:100] Creating Layer conv2
I0501 01:14:00.608783  1567 net.cpp:434] conv2 <- norm1
I0501 01:14:00.608803  1567 net.cpp:408] conv2 -> conv2
I0501 01:14:00.631126  1567 net.cpp:150] Setting up conv2
I0501 01:14:00.631163  1567 net.cpp:157] Top shape: 25 256 27 27 (4665600)
I0501 01:14:00.631178  1567 net.cpp:165] Memory required for data: 106198200
I0501 01:14:00.631203  1567 layer_factory.hpp:77] Creating layer relu2
I0501 01:14:00.631227  1567 net.cpp:100] Creating Layer relu2
I0501 01:14:00.631239  1567 net.cpp:434] relu2 <- conv2
I0501 01:14:00.631269  1567 net.cpp:395] relu2 -> conv2 (in-place)
I0501 01:14:00.631825  1567 net.cpp:150] Setting up relu2
I0501 01:14:00.631849  1567 net.cpp:157] Top shape: 25 256 27 27 (4665600)
I0501 01:14:00.631861  1567 net.cpp:165] Memory required for data: 124860600
I0501 01:14:00.631873  1567 layer_factory.hpp:77] Creating layer pool2
I0501 01:14:00.631896  1567 net.cpp:100] Creating Layer pool2
I0501 01:14:00.631932  1567 net.cpp:434] pool2 <- conv2
I0501 01:14:00.631949  1567 net.cpp:408] pool2 -> pool2
I0501 01:14:00.632030  1567 net.cpp:150] Setting up pool2
I0501 01:14:00.632055  1567 net.cpp:157] Top shape: 25 256 13 13 (1081600)
I0501 01:14:00.632067  1567 net.cpp:165] Memory required for data: 129187000
I0501 01:14:00.632079  1567 layer_factory.hpp:77] Creating layer norm2
I0501 01:14:00.632104  1567 net.cpp:100] Creating Layer norm2
I0501 01:14:00.632117  1567 net.cpp:434] norm2 <- pool2
I0501 01:14:00.632135  1567 net.cpp:408] norm2 -> norm2
I0501 01:14:00.632513  1567 net.cpp:150] Setting up norm2
I0501 01:14:00.632531  1567 net.cpp:157] Top shape: 25 256 13 13 (1081600)
I0501 01:14:00.632544  1567 net.cpp:165] Memory required for data: 133513400
I0501 01:14:00.632556  1567 layer_factory.hpp:77] Creating layer conv3
I0501 01:14:00.632581  1567 net.cpp:100] Creating Layer conv3
I0501 01:14:00.632601  1567 net.cpp:434] conv3 <- norm2
I0501 01:14:00.632619  1567 net.cpp:408] conv3 -> conv3
I0501 01:14:00.672693  1567 net.cpp:150] Setting up conv3
I0501 01:14:00.672734  1567 net.cpp:157] Top shape: 25 384 13 13 (1622400)
I0501 01:14:00.672755  1567 net.cpp:165] Memory required for data: 140003000
I0501 01:14:00.672781  1567 layer_factory.hpp:77] Creating layer relu3
I0501 01:14:00.672801  1567 net.cpp:100] Creating Layer relu3
I0501 01:14:00.672821  1567 net.cpp:434] relu3 <- conv3
I0501 01:14:00.672837  1567 net.cpp:395] relu3 -> conv3 (in-place)
I0501 01:14:00.673348  1567 net.cpp:150] Setting up relu3
I0501 01:14:00.673372  1567 net.cpp:157] Top shape: 25 384 13 13 (1622400)
I0501 01:14:00.673384  1567 net.cpp:165] Memory required for data: 146492600
I0501 01:14:00.673398  1567 layer_factory.hpp:77] Creating layer conv4
I0501 01:14:00.673431  1567 net.cpp:100] Creating Layer conv4
I0501 01:14:00.673446  1567 net.cpp:434] conv4 <- conv3
I0501 01:14:00.673463  1567 net.cpp:408] conv4 -> conv4
I0501 01:14:00.728341  1567 net.cpp:150] Setting up conv4
I0501 01:14:00.728384  1567 net.cpp:157] Top shape: 25 384 13 13 (1622400)
I0501 01:14:00.728410  1567 net.cpp:165] Memory required for data: 152982200
I0501 01:14:00.728431  1567 layer_factory.hpp:77] Creating layer relu4
I0501 01:14:00.728452  1567 net.cpp:100] Creating Layer relu4
I0501 01:14:00.728467  1567 net.cpp:434] relu4 <- conv4
I0501 01:14:00.728490  1567 net.cpp:395] relu4 -> conv4 (in-place)
I0501 01:14:00.729033  1567 net.cpp:150] Setting up relu4
I0501 01:14:00.729056  1567 net.cpp:157] Top shape: 25 384 13 13 (1622400)
I0501 01:14:00.729069  1567 net.cpp:165] Memory required for data: 159471800
I0501 01:14:00.729082  1567 layer_factory.hpp:77] Creating layer conv5
I0501 01:14:00.729115  1567 net.cpp:100] Creating Layer conv5
I0501 01:14:00.729130  1567 net.cpp:434] conv5 <- conv4
I0501 01:14:00.729148  1567 net.cpp:408] conv5 -> conv5
I0501 01:14:00.754210  1567 net.cpp:150] Setting up conv5
I0501 01:14:00.754247  1567 net.cpp:157] Top shape: 25 256 13 13 (1081600)
I0501 01:14:00.754261  1567 net.cpp:165] Memory required for data: 163798200
I0501 01:14:00.754289  1567 layer_factory.hpp:77] Creating layer relu5
I0501 01:14:00.754313  1567 net.cpp:100] Creating Layer relu5
I0501 01:14:00.754326  1567 net.cpp:434] relu5 <- conv5
I0501 01:14:00.754359  1567 net.cpp:395] relu5 -> conv5 (in-place)
I0501 01:14:00.754691  1567 net.cpp:150] Setting up relu5
I0501 01:14:00.754711  1567 net.cpp:157] Top shape: 25 256 13 13 (1081600)
I0501 01:14:00.754724  1567 net.cpp:165] Memory required for data: 168124600
I0501 01:14:00.754736  1567 layer_factory.hpp:77] Creating layer pool5
I0501 01:14:00.754767  1567 net.cpp:100] Creating Layer pool5
I0501 01:14:00.755055  1567 net.cpp:434] pool5 <- conv5
I0501 01:14:00.755085  1567 net.cpp:408] pool5 -> pool5
I0501 01:14:00.763878  1567 net.cpp:150] Setting up pool5
I0501 01:14:00.763905  1567 net.cpp:157] Top shape: 25 256 6 6 (230400)
I0501 01:14:00.764066  1567 net.cpp:165] Memory required for data: 169046200
I0501 01:14:00.764088  1567 layer_factory.hpp:77] Creating layer fc6
I0501 01:14:00.764111  1567 net.cpp:100] Creating Layer fc6
I0501 01:14:00.764145  1567 net.cpp:434] fc6 <- pool5
I0501 01:14:00.764168  1567 net.cpp:408] fc6 -> fc6
I0501 01:14:02.523309  1567 net.cpp:150] Setting up fc6
I0501 01:14:02.525918  1567 net.cpp:157] Top shape: 25 4096 (102400)
I0501 01:14:02.525938  1567 net.cpp:165] Memory required for data: 169455800
I0501 01:14:02.525965  1567 layer_factory.hpp:77] Creating layer relu6
I0501 01:14:02.525990  1567 net.cpp:100] Creating Layer relu6
I0501 01:14:02.526016  1567 net.cpp:434] relu6 <- fc6
I0501 01:14:02.526033  1567 net.cpp:395] relu6 -> fc6 (in-place)
I0501 01:14:02.526762  1567 net.cpp:150] Setting up relu6
I0501 01:14:02.526960  1567 net.cpp:157] Top shape: 25 4096 (102400)
I0501 01:14:02.526978  1567 net.cpp:165] Memory required for data: 169865400
I0501 01:14:02.526991  1567 layer_factory.hpp:77] Creating layer drop6
I0501 01:14:02.527009  1567 net.cpp:100] Creating Layer drop6
I0501 01:14:02.527035  1567 net.cpp:434] drop6 <- fc6
I0501 01:14:02.527202  1567 net.cpp:395] drop6 -> fc6 (in-place)
I0501 01:14:02.527278  1567 net.cpp:150] Setting up drop6
I0501 01:14:02.527299  1567 net.cpp:157] Top shape: 25 4096 (102400)
I0501 01:14:02.527313  1567 net.cpp:165] Memory required for data: 170275000
I0501 01:14:02.527324  1567 layer_factory.hpp:77] Creating layer fc7
I0501 01:14:02.527578  1567 net.cpp:100] Creating Layer fc7
I0501 01:14:02.527593  1567 net.cpp:434] fc7 <- fc6
I0501 01:14:02.527621  1567 net.cpp:408] fc7 -> fc7
I0501 01:14:03.295996  1567 net.cpp:150] Setting up fc7
I0501 01:14:03.313177  1567 net.cpp:157] Top shape: 25 4096 (102400)
I0501 01:14:03.313199  1567 net.cpp:165] Memory required for data: 170684600
I0501 01:14:03.313225  1567 layer_factory.hpp:77] Creating layer relu7
I0501 01:14:03.313457  1567 net.cpp:100] Creating Layer relu7
I0501 01:14:03.313477  1567 net.cpp:434] relu7 <- fc7
I0501 01:14:03.313496  1567 net.cpp:395] relu7 -> fc7 (in-place)
I0501 01:14:03.321898  1567 net.cpp:150] Setting up relu7
I0501 01:14:03.321925  1567 net.cpp:157] Top shape: 25 4096 (102400)
I0501 01:14:03.321941  1567 net.cpp:165] Memory required for data: 171094200
I0501 01:14:03.321954  1567 layer_factory.hpp:77] Creating layer drop7
I0501 01:14:03.321975  1567 net.cpp:100] Creating Layer drop7
I0501 01:14:03.321998  1567 net.cpp:434] drop7 <- fc7
I0501 01:14:03.322016  1567 net.cpp:395] drop7 -> fc7 (in-place)
I0501 01:14:03.322073  1567 net.cpp:150] Setting up drop7
I0501 01:14:03.322089  1567 net.cpp:157] Top shape: 25 4096 (102400)
I0501 01:14:03.322104  1567 net.cpp:165] Memory required for data: 171503800
I0501 01:14:03.322123  1567 layer_factory.hpp:77] Creating layer fc8_fp1
I0501 01:14:03.322142  1567 net.cpp:100] Creating Layer fc8_fp1
I0501 01:14:03.322155  1567 net.cpp:434] fc8_fp1 <- fc7
I0501 01:14:03.322171  1567 net.cpp:408] fc8_fp1 -> fc8_fp1
I0501 01:14:03.323305  1567 net.cpp:150] Setting up fc8_fp1
I0501 01:14:03.323323  1567 net.cpp:157] Top shape: 25 11 (275)
I0501 01:14:03.323346  1567 net.cpp:165] Memory required for data: 171504900
I0501 01:14:03.323365  1567 layer_factory.hpp:77] Creating layer fc8_fp1_fc8_fp1_0_split
I0501 01:14:03.323384  1567 net.cpp:100] Creating Layer fc8_fp1_fc8_fp1_0_split
I0501 01:14:03.323401  1567 net.cpp:434] fc8_fp1_fc8_fp1_0_split <- fc8_fp1
I0501 01:14:03.323417  1567 net.cpp:408] fc8_fp1_fc8_fp1_0_split -> fc8_fp1_fc8_fp1_0_split_0
I0501 01:14:03.323434  1567 net.cpp:408] fc8_fp1_fc8_fp1_0_split -> fc8_fp1_fc8_fp1_0_split_1
I0501 01:14:03.323510  1567 net.cpp:150] Setting up fc8_fp1_fc8_fp1_0_split
I0501 01:14:03.323536  1567 net.cpp:157] Top shape: 25 11 (275)
I0501 01:14:03.323550  1567 net.cpp:157] Top shape: 25 11 (275)
I0501 01:14:03.323562  1567 net.cpp:165] Memory required for data: 171507100
I0501 01:14:03.323576  1567 layer_factory.hpp:77] Creating layer accuracy
I0501 01:14:03.323598  1567 net.cpp:100] Creating Layer accuracy
I0501 01:14:03.323612  1567 net.cpp:434] accuracy <- fc8_fp1_fc8_fp1_0_split_0
I0501 01:14:03.323626  1567 net.cpp:434] accuracy <- label_data_1_split_0
I0501 01:14:03.323642  1567 net.cpp:408] accuracy -> accuracy
…
