…
W0425 18:40:28.313606 13256 _caffe.cpp:122] DEPRECATION WARNING - deprecated use of Python interface
W0425 18:40:28.313650 13256 _caffe.cpp:123] Use this instead (with the named "weights" parameter):
W0425 18:40:28.313663 13256 _caffe.cpp:125] Net('models/finalproject/deploy.prototxt', 1, weights='models/finalproject/finalproject_iter_90000.caffemodel')
I0425 18:40:28.346144 13256 net.cpp:58] Initializing net from parameters: 
name: "finalprojectCaffeNet"
state {
  phase: TEST
  level: 0
}
layer {
  name: "data"
  type: "Input"
  top: "data"
  input_param {
    shape {
      dim: 10
      dim: 3
      dim: 227
      dim: 227
    }
  }
}
layer {
  name: "conv1"
  type: "Convolution"
  bottom: "data"
  top: "conv1"
  param {
    lr_mult: 1
    decay_mult: 1
  }
  param {
    lr_mult: 2
    decay_mult: 0
  }
  convolution_param {
    num_output: 96
    kernel_size: 11
    stride: 4
    weight_filler {
      type: "gaussian"
      std: 0.01
    }
    bias_filler {
      type: "constant"
      value: 0
    }
  }
}
layer {
  name: "relu1"
  type: "ReLU"
  bottom: "conv1"
  top: "conv1"
}
layer {
  name: "pool1"
  type: "Pooling"
  bottom: "conv1"
  top: "pool1"
  pooling_param {
    pool: MAX
    kernel_size: 3
    stride: 2
  }
}
layer {
  name: "norm1"
  type: "LRN"
  bottom: "pool1"
  top: "norm1"
  lrn_param {
    local_size: 5
    alpha: 0.0001
    beta: 0.75
  }
}
layer {
  name: "conv2"
  type: "Convolution"
  bottom: "norm1"
  top: "conv2"
  param {
    lr_mult: 1
    decay_mult: 1
  }
  param {
    lr_mult: 2
    decay_mult: 0
  }
  convolution_param {
    num_output: 256
    pad: 2
    kernel_size: 5
    group: 2
    weight_filler {
      type: "gaussian"
      std: 0.01
    }
    bias_filler {
      type: "constant"
      value: 1
    }
  }
}
layer {
  name: "relu2"
  type: "ReLU"
  bottom: "conv2"
  top: "conv2"
}
layer {
  name: "pool2"
  type: "Pooling"
  bottom: "conv2"
  top: "pool2"
  pooling_param {
    pool: MAX
    kernel_size: 3
    stride: 2
  }
}
layer {
  name: "norm2"
  type: "LRN"
  bottom: "pool2"
  top: "norm2"
  lrn_param {
    local_size: 5
    alpha: 0.0001
    beta: 0.75
  }
}
layer {
  name: "conv3"
  type: "Convolution"
  bottom: "norm2"
  top: "conv3"
  param {
    lr_mult: 1
    decay_mult: 1
  }
  param {
    lr_mult: 2
    decay_mult: 0
  }
  convolution_param {
    num_output: 384
    pad: 1
    kernel_size: 3
    weight_filler {
      type: "gaussian"
      std: 0.01
    }
    bias_filler {
      type: "constant"
      value: 0
    }
  }
}
layer {
  name: "relu3"
  type: "ReLU"
  bottom: "conv3"
  top: "conv3"
}
layer {
  name: "conv4"
  type: "Convolution"
  bottom: "conv3"
  top: "conv4"
  param {
    lr_mult: 1
    decay_mult: 1
  }
  param {
    lr_mult: 2
    decay_mult: 0
  }
  convolution_param {
    num_output: 384
    pad: 1
    kernel_size: 3
    group: 2
    weight_filler {
      type: "gaussian"
      std: 0.01
    }
    bias_filler {
      type: "constant"
      value: 1
    }
  }
}
layer {
  name: "relu4"
  type: "ReLU"
  bottom: "conv4"
  top: "conv4"
}
layer {
  name: "conv5"
  type: "Convolution"
  bottom: "conv4"
  top: "conv5"
  param {
    lr_mult: 1
    decay_mult: 1
  }
  param {
    lr_mult: 2
    decay_mult: 0
  }
  convolution_param {
    num_output: 256
    pad: 1
    kernel_size: 3
    group: 2
    weight_filler {
      type: "gaussian"
      std: 0.01
    }
    bias_filler {
      type: "constant"
      value: 1
    }
  }
}
layer {
  name: "relu5"
  type: "ReLU"
  bottom: "conv5"
  top: "conv5"
}
layer {
  name: "pool5"
  type: "Pooling"
  bottom: "conv5"
  top: "pool5"
  pooling_param {
    pool: MAX
    kernel_size: 3
    stride: 2
  }
}
layer {
  name: "fc6"
  type: "InnerProduct"
  bottom: "pool5"
  top: "fc6"
  param {
    lr_mult: 1
    decay_mult: 1
  }
  param {
    lr_mult: 2
    decay_mult: 0
  }
  inner_product_param {
    num_output: 4096
    weight_filler {
      type: "gaussian"
      std: 0.005
    }
    bias_filler {
      type: "constant"
      value: 1
    }
  }
}
layer {
  name: "relu6"
  type: "ReLU"
  bottom: "fc6"
  top: "fc6"
}
layer {
  name: "drop6"
  type: "Dropout"
  bottom: "fc6"
  top: "fc6"
  dropout_param {
    dropout_ratio: 0.5
  }
}
layer {
  name: "fc7"
  type: "InnerProduct"
  bottom: "fc6"
  top: "fc7"
  param {
    lr_mult: 1
    decay_mult: 1
  }
  param {
    lr_mult: 2
    decay_mult: 0
  }
  inner_product_param {
    num_output: 4096
    weight_filler {
      type: "gaussian"
      std: 0.005
    }
    bias_filler {
      type: "constant"
      value: 1
    }
  }
}
layer {
  name: "relu7"
  type: "ReLU"
  bottom: "fc7"
  top: "fc7"
}
layer {
  name: "drop7"
  type: "Dropout"
  bottom: "fc7"
  top: "fc7"
  dropout_param {
    dropout_ratio: 0.5
  }
}
layer {
  name: "fc8_finalproject"
  type: "InnerProduct"
  bottom: "fc7"
  top: "fc8_finalproject"
  param {
    lr_mult: 10
    decay_mult: 1
  }
  param {
    lr_mult: 20
    decay_mult: 0
  }
  inner_product_param {
    num_output: 11
    weight_filler {
      type: "gaussian"
      std: 0.01
    }
    bias_filler {
      type: "constant"
      value: 0
    }
  }
}
I0425 18:40:28.346323 13256 layer_factory.hpp:77] Creating layer data
I0425 18:40:28.346379 13256 net.cpp:100] Creating Layer data
I0425 18:40:28.346401 13256 net.cpp:408] data -> data
I0425 18:40:28.366405 13256 net.cpp:150] Setting up data
I0425 18:40:28.366524 13256 net.cpp:157] Top shape: 10 3 227 227 (1545870)
I0425 18:40:28.366552 13256 net.cpp:165] Memory required for data: 6183480
I0425 18:40:28.366569 13256 layer_factory.hpp:77] Creating layer conv1
I0425 18:40:28.366608 13256 net.cpp:100] Creating Layer conv1
I0425 18:40:28.366622 13256 net.cpp:434] conv1 <- data
I0425 18:40:28.366650 13256 net.cpp:408] conv1 -> conv1
I0425 18:40:30.138267 13256 net.cpp:150] Setting up conv1
I0425 18:40:30.138311 13256 net.cpp:157] Top shape: 10 96 55 55 (2904000)
I0425 18:40:30.138329 13256 net.cpp:165] Memory required for data: 17799480
I0425 18:40:30.138363 13256 layer_factory.hpp:77] Creating layer relu1
I0425 18:40:30.138391 13256 net.cpp:100] Creating Layer relu1
I0425 18:40:30.138411 13256 net.cpp:434] relu1 <- conv1
I0425 18:40:30.138444 13256 net.cpp:395] relu1 -> conv1 (in-place)
I0425 18:40:30.138782 13256 net.cpp:150] Setting up relu1
I0425 18:40:30.138802 13256 net.cpp:157] Top shape: 10 96 55 55 (2904000)
I0425 18:40:30.138813 13256 net.cpp:165] Memory required for data: 29415480
I0425 18:40:30.138834 13256 layer_factory.hpp:77] Creating layer pool1
I0425 18:40:30.138857 13256 net.cpp:100] Creating Layer pool1
I0425 18:40:30.138870 13256 net.cpp:434] pool1 <- conv1
I0425 18:40:30.138885 13256 net.cpp:408] pool1 -> pool1
I0425 18:40:30.138968 13256 net.cpp:150] Setting up pool1
I0425 18:40:30.138991 13256 net.cpp:157] Top shape: 10 96 27 27 (699840)
I0425 18:40:30.139003 13256 net.cpp:165] Memory required for data: 32214840
I0425 18:40:30.139014 13256 layer_factory.hpp:77] Creating layer norm1
I0425 18:40:30.139045 13256 net.cpp:100] Creating Layer norm1
I0425 18:40:30.139057 13256 net.cpp:434] norm1 <- pool1
I0425 18:40:30.139072 13256 net.cpp:408] norm1 -> norm1
I0425 18:40:30.139600 13256 net.cpp:150] Setting up norm1
I0425 18:40:30.139622 13256 net.cpp:157] Top shape: 10 96 27 27 (699840)
I0425 18:40:30.139641 13256 net.cpp:165] Memory required for data: 35014200
I0425 18:40:30.139652 13256 layer_factory.hpp:77] Creating layer conv2
I0425 18:40:30.139688 13256 net.cpp:100] Creating Layer conv2
I0425 18:40:30.139701 13256 net.cpp:434] conv2 <- norm1
I0425 18:40:30.139719 13256 net.cpp:408] conv2 -> conv2
I0425 18:40:30.150360 13256 net.cpp:150] Setting up conv2
I0425 18:40:30.150396 13256 net.cpp:157] Top shape: 10 256 27 27 (1866240)
I0425 18:40:30.150409 13256 net.cpp:165] Memory required for data: 42479160
I0425 18:40:30.150432 13256 layer_factory.hpp:77] Creating layer relu2
I0425 18:40:30.150454 13256 net.cpp:100] Creating Layer relu2
I0425 18:40:30.150480 13256 net.cpp:434] relu2 <- conv2
I0425 18:40:30.150496 13256 net.cpp:395] relu2 -> conv2 (in-place)
I0425 18:40:30.150835 13256 net.cpp:150] Setting up relu2
I0425 18:40:30.150854 13256 net.cpp:157] Top shape: 10 256 27 27 (1866240)
I0425 18:40:30.150866 13256 net.cpp:165] Memory required for data: 49944120
I0425 18:40:30.150877 13256 layer_factory.hpp:77] Creating layer pool2
I0425 18:40:30.150902 13256 net.cpp:100] Creating Layer pool2
I0425 18:40:30.150914 13256 net.cpp:434] pool2 <- conv2
I0425 18:40:30.150929 13256 net.cpp:408] pool2 -> pool2
I0425 18:40:30.151016 13256 net.cpp:150] Setting up pool2
I0425 18:40:30.151032 13256 net.cpp:157] Top shape: 10 256 13 13 (432640)
I0425 18:40:30.151043 13256 net.cpp:165] Memory required for data: 51674680
I0425 18:40:30.151057 13256 layer_factory.hpp:77] Creating layer norm2
I0425 18:40:30.151074 13256 net.cpp:100] Creating Layer norm2
I0425 18:40:30.151090 13256 net.cpp:434] norm2 <- pool2
I0425 18:40:30.151111 13256 net.cpp:408] norm2 -> norm2
I0425 18:40:30.151656 13256 net.cpp:150] Setting up norm2
I0425 18:40:30.151677 13256 net.cpp:157] Top shape: 10 256 13 13 (432640)
I0425 18:40:30.151691 13256 net.cpp:165] Memory required for data: 53405240
I0425 18:40:30.151702 13256 layer_factory.hpp:77] Creating layer conv3
I0425 18:40:30.151734 13256 net.cpp:100] Creating Layer conv3
I0425 18:40:30.151747 13256 net.cpp:434] conv3 <- norm2
I0425 18:40:30.151763 13256 net.cpp:408] conv3 -> conv3
I0425 18:40:30.173395 13256 net.cpp:150] Setting up conv3
I0425 18:40:30.173434 13256 net.cpp:157] Top shape: 10 384 13 13 (648960)
I0425 18:40:30.173446 13256 net.cpp:165] Memory required for data: 56001080
I0425 18:40:30.173470 13256 layer_factory.hpp:77] Creating layer relu3
I0425 18:40:30.173492 13256 net.cpp:100] Creating Layer relu3
I0425 18:40:30.173504 13256 net.cpp:434] relu3 <- conv3
I0425 18:40:30.173533 13256 net.cpp:395] relu3 -> conv3 (in-place)
I0425 18:40:30.174019 13256 net.cpp:150] Setting up relu3
I0425 18:40:30.174041 13256 net.cpp:157] Top shape: 10 384 13 13 (648960)
I0425 18:40:30.174052 13256 net.cpp:165] Memory required for data: 58596920
I0425 18:40:30.174064 13256 layer_factory.hpp:77] Creating layer conv4
I0425 18:40:30.174089 13256 net.cpp:100] Creating Layer conv4
I0425 18:40:30.174101 13256 net.cpp:434] conv4 <- conv3
I0425 18:40:30.174126 13256 net.cpp:408] conv4 -> conv4
I0425 18:40:30.192145 13256 net.cpp:150] Setting up conv4
I0425 18:40:30.192178 13256 net.cpp:157] Top shape: 10 384 13 13 (648960)
I0425 18:40:30.192199 13256 net.cpp:165] Memory required for data: 61192760
I0425 18:40:30.192219 13256 layer_factory.hpp:77] Creating layer relu4
I0425 18:40:30.192236 13256 net.cpp:100] Creating Layer relu4
I0425 18:40:30.192253 13256 net.cpp:434] relu4 <- conv4
I0425 18:40:30.192268 13256 net.cpp:395] relu4 -> conv4 (in-place)
I0425 18:40:30.192596 13256 net.cpp:150] Setting up relu4
I0425 18:40:30.192615 13256 net.cpp:157] Top shape: 10 384 13 13 (648960)
I0425 18:40:30.192627 13256 net.cpp:165] Memory required for data: 63788600
I0425 18:40:30.192638 13256 layer_factory.hpp:77] Creating layer conv5
I0425 18:40:30.192661 13256 net.cpp:100] Creating Layer conv5
I0425 18:40:30.192682 13256 net.cpp:434] conv5 <- conv4
I0425 18:40:30.192698 13256 net.cpp:408] conv5 -> conv5
I0425 18:40:30.205715 13256 net.cpp:150] Setting up conv5
I0425 18:40:30.205749 13256 net.cpp:157] Top shape: 10 256 13 13 (432640)
I0425 18:40:30.205762 13256 net.cpp:165] Memory required for data: 65519160
I0425 18:40:30.205793 13256 layer_factory.hpp:77] Creating layer relu5
I0425 18:40:30.205809 13256 net.cpp:100] Creating Layer relu5
I0425 18:40:30.205822 13256 net.cpp:434] relu5 <- conv5
I0425 18:40:30.205850 13256 net.cpp:395] relu5 -> conv5 (in-place)
I0425 18:40:30.206179 13256 net.cpp:150] Setting up relu5
I0425 18:40:30.206198 13256 net.cpp:157] Top shape: 10 256 13 13 (432640)
I0425 18:40:30.206210 13256 net.cpp:165] Memory required for data: 67249720
I0425 18:40:30.206221 13256 layer_factory.hpp:77] Creating layer pool5
I0425 18:40:30.206239 13256 net.cpp:100] Creating Layer pool5
I0425 18:40:30.206252 13256 net.cpp:434] pool5 <- conv5
I0425 18:40:30.206267 13256 net.cpp:408] pool5 -> pool5
I0425 18:40:30.206346 13256 net.cpp:150] Setting up pool5
I0425 18:40:30.206362 13256 net.cpp:157] Top shape: 10 256 6 6 (92160)
I0425 18:40:30.206373 13256 net.cpp:165] Memory required for data: 67618360
I0425 18:40:30.206384 13256 layer_factory.hpp:77] Creating layer fc6
I0425 18:40:30.206408 13256 net.cpp:100] Creating Layer fc6
I0425 18:40:30.206418 13256 net.cpp:434] fc6 <- pool5
I0425 18:40:30.206446 13256 net.cpp:408] fc6 -> fc6
I0425 18:40:31.031334 13256 net.cpp:150] Setting up fc6
I0425 18:40:31.031384 13256 net.cpp:157] Top shape: 10 4096 (40960)
I0425 18:40:31.031397 13256 net.cpp:165] Memory required for data: 67782200
I0425 18:40:31.031422 13256 layer_factory.hpp:77] Creating layer relu6
I0425 18:40:31.031442 13256 net.cpp:100] Creating Layer relu6
I0425 18:40:31.031455 13256 net.cpp:434] relu6 <- fc6
I0425 18:40:31.031478 13256 net.cpp:395] relu6 -> fc6 (in-place)
I0425 18:40:31.032305 13256 net.cpp:150] Setting up relu6
I0425 18:40:31.032325 13256 net.cpp:157] Top shape: 10 4096 (40960)
I0425 18:40:31.032346 13256 net.cpp:165] Memory required for data: 67946040
I0425 18:40:31.032359 13256 layer_factory.hpp:77] Creating layer drop6
I0425 18:40:31.032383 13256 net.cpp:100] Creating Layer drop6
I0425 18:40:31.032398 13256 net.cpp:434] drop6 <- fc6
I0425 18:40:31.032421 13256 net.cpp:395] drop6 -> fc6 (in-place)
I0425 18:40:31.032467 13256 net.cpp:150] Setting up drop6
I0425 18:40:31.032485 13256 net.cpp:157] Top shape: 10 4096 (40960)
I0425 18:40:31.032502 13256 net.cpp:165] Memory required for data: 68109880
I0425 18:40:31.032515 13256 layer_factory.hpp:77] Creating layer fc7
I0425 18:40:31.032533 13256 net.cpp:100] Creating Layer fc7
I0425 18:40:31.032552 13256 net.cpp:434] fc7 <- fc6
I0425 18:40:31.032568 13256 net.cpp:408] fc7 -> fc7
I0425 18:40:31.400274 13256 net.cpp:150] Setting up fc7
I0425 18:40:31.400319 13256 net.cpp:157] Top shape: 10 4096 (40960)
I0425 18:40:31.400333 13256 net.cpp:165] Memory required for data: 68273720
I0425 18:40:31.400357 13256 layer_factory.hpp:77] Creating layer relu7
I0425 18:40:31.400377 13256 net.cpp:100] Creating Layer relu7
I0425 18:40:31.400390 13256 net.cpp:434] relu7 <- fc7
I0425 18:40:31.400413 13256 net.cpp:395] relu7 -> fc7 (in-place)
I0425 18:40:31.400820 13256 net.cpp:150] Setting up relu7
I0425 18:40:31.400837 13256 net.cpp:157] Top shape: 10 4096 (40960)
I0425 18:40:31.400849 13256 net.cpp:165] Memory required for data: 68437560
I0425 18:40:31.400861 13256 layer_factory.hpp:77] Creating layer drop7
I0425 18:40:31.400887 13256 net.cpp:100] Creating Layer drop7
I0425 18:40:31.400900 13256 net.cpp:434] drop7 <- fc7
I0425 18:40:31.400915 13256 net.cpp:395] drop7 -> fc7 (in-place)
I0425 18:40:31.400966 13256 net.cpp:150] Setting up drop7
I0425 18:40:31.400980 13256 net.cpp:157] Top shape: 10 4096 (40960)
I0425 18:40:31.400995 13256 net.cpp:165] Memory required for data: 68601400
I0425 18:40:31.401011 13256 layer_factory.hpp:77] Creating layer fc8_finalproject
I0425 18:40:31.401029 13256 net.cpp:100] Creating Layer fc8_finalproject
I0425 18:40:31.401041 13256 net.cpp:434] fc8_finalproject <- fc7
I0425 18:40:31.401057 13256 net.cpp:408] fc8_finalproject -> fc8_finalproject
I0425 18:40:31.402143 13256 net.cpp:150] Setting up fc8_finalproject
I0425 18:40:31.402158 13256 net.cpp:157] Top shape: 10 11 (110)
I0425 18:40:31.402176 13256 net.cpp:165] Memory required for data: 68601840
I0425 18:40:31.402196 13256 net.cpp:228] fc8_finalproject does not need backward computation.
I0425 18:40:31.402207 13256 net.cpp:228] drop7 does not need backward computation.
I0425 18:40:31.402221 13256 net.cpp:228] relu7 does not need backward computation.
I0425 18:40:31.402232 13256 net.cpp:228] fc7 does not need backward computation.
…
