…
W0501 02:27:03.564838  1352 _caffe.cpp:122] DEPRECATION WARNING - deprecated use of Python interface
W0501 02:27:03.564883  1352 _caffe.cpp:123] Use this instead (with the named "weights" parameter):
W0501 02:27:03.564894  1352 _caffe.cpp:125] Net('models/finalproject/deploy.prototxt', 1, weights='models/finalproject/finalproject_iter_90000.caffemodel')
I0501 02:27:03.588583  1352 net.cpp:58] Initializing net from parameters: 
name: "finalprojectCaffeNet"
state {
  phase: TEST
  level: 0
}
layer {
  name: "data"
  type: "Input"
  top: "data"
  input_param {
    shape {
      dim: 10
      dim: 3
      dim: 227
      dim: 227
    }
  }
}
layer {
  name: "conv1"
  type: "Convolution"
  bottom: "data"
  top: "conv1"
  param {
    lr_mult: 1
    decay_mult: 1
  }
  param {
    lr_mult: 2
    decay_mult: 0
  }
  convolution_param {
    num_output: 96
    kernel_size: 11
    stride: 4
    weight_filler {
      type: "gaussian"
      std: 0.01
    }
    bias_filler {
      type: "constant"
      value: 0
    }
  }
}
layer {
  name: "relu1"
  type: "ReLU"
  bottom: "conv1"
  top: "conv1"
}
layer {
  name: "pool1"
  type: "Pooling"
  bottom: "conv1"
  top: "pool1"
  pooling_param {
    pool: MAX
    kernel_size: 3
    stride: 2
  }
}
layer {
  name: "norm1"
  type: "LRN"
  bottom: "pool1"
  top: "norm1"
  lrn_param {
    local_size: 5
    alpha: 0.0001
    beta: 0.75
  }
}
layer {
  name: "conv2"
  type: "Convolution"
  bottom: "norm1"
  top: "conv2"
  param {
    lr_mult: 1
    decay_mult: 1
  }
  param {
    lr_mult: 2
    decay_mult: 0
  }
  convolution_param {
    num_output: 256
    pad: 2
    kernel_size: 5
    group: 2
    weight_filler {
      type: "gaussian"
      std: 0.01
    }
    bias_filler {
      type: "constant"
      value: 1
    }
  }
}
layer {
  name: "relu2"
  type: "ReLU"
  bottom: "conv2"
  top: "conv2"
}
layer {
  name: "pool2"
  type: "Pooling"
  bottom: "conv2"
  top: "pool2"
  pooling_param {
    pool: MAX
    kernel_size: 3
    stride: 2
  }
}
layer {
  name: "norm2"
  type: "LRN"
  bottom: "pool2"
  top: "norm2"
  lrn_param {
    local_size: 5
    alpha: 0.0001
    beta: 0.75
  }
}
layer {
  name: "conv3"
  type: "Convolution"
  bottom: "norm2"
  top: "conv3"
  param {
    lr_mult: 1
    decay_mult: 1
  }
  param {
    lr_mult: 2
    decay_mult: 0
  }
  convolution_param {
    num_output: 384
    pad: 1
    kernel_size: 3
    weight_filler {
      type: "gaussian"
      std: 0.01
    }
    bias_filler {
      type: "constant"
      value: 0
    }
  }
}
layer {
  name: "relu3"
  type: "ReLU"
  bottom: "conv3"
  top: "conv3"
}
layer {
  name: "conv4"
  type: "Convolution"
  bottom: "conv3"
  top: "conv4"
  param {
    lr_mult: 1
    decay_mult: 1
  }
  param {
    lr_mult: 2
    decay_mult: 0
  }
  convolution_param {
    num_output: 384
    pad: 1
    kernel_size: 3
    group: 2
    weight_filler {
      type: "gaussian"
      std: 0.01
    }
    bias_filler {
      type: "constant"
      value: 1
    }
  }
}
layer {
  name: "relu4"
  type: "ReLU"
  bottom: "conv4"
  top: "conv4"
}
layer {
  name: "conv5"
  type: "Convolution"
  bottom: "conv4"
  top: "conv5"
  param {
    lr_mult: 1
    decay_mult: 1
  }
  param {
    lr_mult: 2
    decay_mult: 0
  }
  convolution_param {
    num_output: 256
    pad: 1
    kernel_size: 3
    group: 2
    weight_filler {
      type: "gaussian"
      std: 0.01
    }
    bias_filler {
      type: "constant"
      value: 1
    }
  }
}
layer {
  name: "relu5"
  type: "ReLU"
  bottom: "conv5"
  top: "conv5"
}
layer {
  name: "pool5"
  type: "Pooling"
  bottom: "conv5"
  top: "pool5"
  pooling_param {
    pool: MAX
    kernel_size: 3
    stride: 2
  }
}
layer {
  name: "fc6"
  type: "InnerProduct"
  bottom: "pool5"
  top: "fc6"
  param {
    lr_mult: 1
    decay_mult: 1
  }
  param {
    lr_mult: 2
    decay_mult: 0
  }
  inner_product_param {
    num_output: 4096
    weight_filler {
      type: "gaussian"
      std: 0.005
    }
    bias_filler {
      type: "constant"
      value: 1
    }
  }
}
layer {
  name: "relu6"
  type: "ReLU"
  bottom: "fc6"
  top: "fc6"
}
layer {
  name: "drop6"
  type: "Dropout"
  bottom: "fc6"
  top: "fc6"
  dropout_param {
    dropout_ratio: 0.5
  }
}
layer {
  name: "fc7"
  type: "InnerProduct"
  bottom: "fc6"
  top: "fc7"
  param {
    lr_mult: 1
    decay_mult: 1
  }
  param {
    lr_mult: 2
    decay_mult: 0
  }
  inner_product_param {
    num_output: 4096
    weight_filler {
      type: "gaussian"
      std: 0.005
    }
    bias_filler {
      type: "constant"
      value: 1
    }
  }
}
layer {
  name: "relu7"
  type: "ReLU"
  bottom: "fc7"
  top: "fc7"
}
layer {
  name: "drop7"
  type: "Dropout"
  bottom: "fc7"
  top: "fc7"
  dropout_param {
    dropout_ratio: 0.5
  }
}
layer {
  name: "fc8_finalproject"
  type: "InnerProduct"
  bottom: "fc7"
  top: "fc8_finalproject"
  param {
    lr_mult: 10
    decay_mult: 1
  }
  param {
    lr_mult: 20
    decay_mult: 0
  }
  inner_product_param {
    num_output: 11
    weight_filler {
      type: "gaussian"
      std: 0.01
    }
    bias_filler {
      type: "constant"
      value: 0
    }
  }
}
I0501 02:27:03.588762  1352 layer_factory.hpp:77] Creating layer data
I0501 02:27:03.588819  1352 net.cpp:100] Creating Layer data
I0501 02:27:03.588838  1352 net.cpp:408] data -> data
I0501 02:27:03.608878  1352 net.cpp:150] Setting up data
I0501 02:27:03.608932  1352 net.cpp:157] Top shape: 10 3 227 227 (1545870)
I0501 02:27:03.608944  1352 net.cpp:165] Memory required for data: 6183480
I0501 02:27:03.608959  1352 layer_factory.hpp:77] Creating layer conv1
I0501 02:27:03.609001  1352 net.cpp:100] Creating Layer conv1
I0501 02:27:03.609026  1352 net.cpp:434] conv1 <- data
I0501 02:27:03.609045  1352 net.cpp:408] conv1 -> conv1
I0501 02:27:04.124544  1352 net.cpp:150] Setting up conv1
I0501 02:27:04.124596  1352 net.cpp:157] Top shape: 10 96 55 55 (2904000)
I0501 02:27:04.124621  1352 net.cpp:165] Memory required for data: 17799480
I0501 02:27:04.124655  1352 layer_factory.hpp:77] Creating layer relu1
I0501 02:27:04.124681  1352 net.cpp:100] Creating Layer relu1
I0501 02:27:04.124702  1352 net.cpp:434] relu1 <- conv1
I0501 02:27:04.124737  1352 net.cpp:395] relu1 -> conv1 (in-place)
I0501 02:27:04.125077  1352 net.cpp:150] Setting up relu1
I0501 02:27:04.125097  1352 net.cpp:157] Top shape: 10 96 55 55 (2904000)
I0501 02:27:04.125108  1352 net.cpp:165] Memory required for data: 29415480
I0501 02:27:04.125120  1352 layer_factory.hpp:77] Creating layer pool1
I0501 02:27:04.125145  1352 net.cpp:100] Creating Layer pool1
I0501 02:27:04.125159  1352 net.cpp:434] pool1 <- conv1
I0501 02:27:04.125172  1352 net.cpp:408] pool1 -> pool1
I0501 02:27:04.125262  1352 net.cpp:150] Setting up pool1
I0501 02:27:04.125279  1352 net.cpp:157] Top shape: 10 96 27 27 (699840)
I0501 02:27:04.125296  1352 net.cpp:165] Memory required for data: 32214840
I0501 02:27:04.125308  1352 layer_factory.hpp:77] Creating layer norm1
I0501 02:27:04.125334  1352 net.cpp:100] Creating Layer norm1
I0501 02:27:04.125351  1352 net.cpp:434] norm1 <- pool1
I0501 02:27:04.125366  1352 net.cpp:408] norm1 -> norm1
I0501 02:27:04.125902  1352 net.cpp:150] Setting up norm1
I0501 02:27:04.125924  1352 net.cpp:157] Top shape: 10 96 27 27 (699840)
I0501 02:27:04.125942  1352 net.cpp:165] Memory required for data: 35014200
I0501 02:27:04.125954  1352 layer_factory.hpp:77] Creating layer conv2
I0501 02:27:04.125989  1352 net.cpp:100] Creating Layer conv2
I0501 02:27:04.126003  1352 net.cpp:434] conv2 <- norm1
I0501 02:27:04.126019  1352 net.cpp:408] conv2 -> conv2
I0501 02:27:04.137022  1352 net.cpp:150] Setting up conv2
I0501 02:27:04.137058  1352 net.cpp:157] Top shape: 10 256 27 27 (1866240)
I0501 02:27:04.137070  1352 net.cpp:165] Memory required for data: 42479160
I0501 02:27:04.137092  1352 layer_factory.hpp:77] Creating layer relu2
I0501 02:27:04.137115  1352 net.cpp:100] Creating Layer relu2
I0501 02:27:04.137140  1352 net.cpp:434] relu2 <- conv2
I0501 02:27:04.137154  1352 net.cpp:395] relu2 -> conv2 (in-place)
I0501 02:27:04.137507  1352 net.cpp:150] Setting up relu2
I0501 02:27:04.137526  1352 net.cpp:157] Top shape: 10 256 27 27 (1866240)
I0501 02:27:04.137538  1352 net.cpp:165] Memory required for data: 49944120
I0501 02:27:04.137549  1352 layer_factory.hpp:77] Creating layer pool2
I0501 02:27:04.137576  1352 net.cpp:100] Creating Layer pool2
I0501 02:27:04.137589  1352 net.cpp:434] pool2 <- conv2
I0501 02:27:04.137603  1352 net.cpp:408] pool2 -> pool2
I0501 02:27:04.137699  1352 net.cpp:150] Setting up pool2
I0501 02:27:04.137717  1352 net.cpp:157] Top shape: 10 256 13 13 (432640)
I0501 02:27:04.137733  1352 net.cpp:165] Memory required for data: 51674680
I0501 02:27:04.137745  1352 layer_factory.hpp:77] Creating layer norm2
I0501 02:27:04.137770  1352 net.cpp:100] Creating Layer norm2
I0501 02:27:04.137789  1352 net.cpp:434] norm2 <- pool2
I0501 02:27:04.137804  1352 net.cpp:408] norm2 -> norm2
I0501 02:27:04.138371  1352 net.cpp:150] Setting up norm2
I0501 02:27:04.138396  1352 net.cpp:157] Top shape: 10 256 13 13 (432640)
I0501 02:27:04.138413  1352 net.cpp:165] Memory required for data: 53405240
I0501 02:27:04.138425  1352 layer_factory.hpp:77] Creating layer conv3
I0501 02:27:04.138453  1352 net.cpp:100] Creating Layer conv3
I0501 02:27:04.138473  1352 net.cpp:434] conv3 <- norm2
I0501 02:27:04.138490  1352 net.cpp:408] conv3 -> conv3
I0501 02:27:04.160141  1352 net.cpp:150] Setting up conv3
I0501 02:27:04.160176  1352 net.cpp:157] Top shape: 10 384 13 13 (648960)
I0501 02:27:04.160197  1352 net.cpp:165] Memory required for data: 56001080
I0501 02:27:04.160221  1352 layer_factory.hpp:77] Creating layer relu3
I0501 02:27:04.160244  1352 net.cpp:100] Creating Layer relu3
I0501 02:27:04.160269  1352 net.cpp:434] relu3 <- conv3
I0501 02:27:04.160289  1352 net.cpp:395] relu3 -> conv3 (in-place)
I0501 02:27:04.160796  1352 net.cpp:150] Setting up relu3
I0501 02:27:04.160817  1352 net.cpp:157] Top shape: 10 384 13 13 (648960)
I0501 02:27:04.160830  1352 net.cpp:165] Memory required for data: 58596920
I0501 02:27:04.160842  1352 layer_factory.hpp:77] Creating layer conv4
I0501 02:27:04.160877  1352 net.cpp:100] Creating Layer conv4
I0501 02:27:04.160890  1352 net.cpp:434] conv4 <- conv3
I0501 02:27:04.160910  1352 net.cpp:408] conv4 -> conv4
I0501 02:27:04.179229  1352 net.cpp:150] Setting up conv4
I0501 02:27:04.179262  1352 net.cpp:157] Top shape: 10 384 13 13 (648960)
I0501 02:27:04.179275  1352 net.cpp:165] Memory required for data: 61192760
I0501 02:27:04.179294  1352 layer_factory.hpp:77] Creating layer relu4
I0501 02:27:04.179316  1352 net.cpp:100] Creating Layer relu4
I0501 02:27:04.179327  1352 net.cpp:434] relu4 <- conv4
I0501 02:27:04.179355  1352 net.cpp:395] relu4 -> conv4 (in-place)
I0501 02:27:04.179692  1352 net.cpp:150] Setting up relu4
I0501 02:27:04.179709  1352 net.cpp:157] Top shape: 10 384 13 13 (648960)
I0501 02:27:04.179721  1352 net.cpp:165] Memory required for data: 63788600
I0501 02:27:04.179733  1352 layer_factory.hpp:77] Creating layer conv5
I0501 02:27:04.179766  1352 net.cpp:100] Creating Layer conv5
I0501 02:27:04.179780  1352 net.cpp:434] conv5 <- conv4
I0501 02:27:04.179798  1352 net.cpp:408] conv5 -> conv5
I0501 02:27:04.193068  1352 net.cpp:150] Setting up conv5
I0501 02:27:04.193099  1352 net.cpp:157] Top shape: 10 256 13 13 (432640)
I0501 02:27:04.193117  1352 net.cpp:165] Memory required for data: 65519160
I0501 02:27:04.193147  1352 layer_factory.hpp:77] Creating layer relu5
I0501 02:27:04.193168  1352 net.cpp:100] Creating Layer relu5
I0501 02:27:04.193181  1352 net.cpp:434] relu5 <- conv5
I0501 02:27:04.193207  1352 net.cpp:395] relu5 -> conv5 (in-place)
I0501 02:27:04.193550  1352 net.cpp:150] Setting up relu5
I0501 02:27:04.193572  1352 net.cpp:157] Top shape: 10 256 13 13 (432640)
I0501 02:27:04.193584  1352 net.cpp:165] Memory required for data: 67249720
I0501 02:27:04.193599  1352 layer_factory.hpp:77] Creating layer pool5
I0501 02:27:04.193621  1352 net.cpp:100] Creating Layer pool5
I0501 02:27:04.193634  1352 net.cpp:434] pool5 <- conv5
I0501 02:27:04.193651  1352 net.cpp:408] pool5 -> pool5
I0501 02:27:04.193730  1352 net.cpp:150] Setting up pool5
I0501 02:27:04.193763  1352 net.cpp:157] Top shape: 10 256 6 6 (92160)
I0501 02:27:04.193775  1352 net.cpp:165] Memory required for data: 67618360
I0501 02:27:04.193789  1352 layer_factory.hpp:77] Creating layer fc6
I0501 02:27:04.193812  1352 net.cpp:100] Creating Layer fc6
I0501 02:27:04.193825  1352 net.cpp:434] fc6 <- pool5
I0501 02:27:04.193843  1352 net.cpp:408] fc6 -> fc6
I0501 02:27:05.023253  1352 net.cpp:150] Setting up fc6
I0501 02:27:05.023304  1352 net.cpp:157] Top shape: 10 4096 (40960)
I0501 02:27:05.023319  1352 net.cpp:165] Memory required for data: 67782200
I0501 02:27:05.023342  1352 layer_factory.hpp:77] Creating layer relu6
I0501 02:27:05.023362  1352 net.cpp:100] Creating Layer relu6
I0501 02:27:05.023382  1352 net.cpp:434] relu6 <- fc6
I0501 02:27:05.023418  1352 net.cpp:395] relu6 -> fc6 (in-place)
I0501 02:27:05.024118  1352 net.cpp:150] Setting up relu6
I0501 02:27:05.024142  1352 net.cpp:157] Top shape: 10 4096 (40960)
I0501 02:27:05.024161  1352 net.cpp:165] Memory required for data: 67946040
I0501 02:27:05.024173  1352 layer_factory.hpp:77] Creating layer drop6
I0501 02:27:05.024199  1352 net.cpp:100] Creating Layer drop6
I0501 02:27:05.024210  1352 net.cpp:434] drop6 <- fc6
I0501 02:27:05.024233  1352 net.cpp:395] drop6 -> fc6 (in-place)
I0501 02:27:05.024282  1352 net.cpp:150] Setting up drop6
I0501 02:27:05.024307  1352 net.cpp:157] Top shape: 10 4096 (40960)
I0501 02:27:05.024318  1352 net.cpp:165] Memory required for data: 68109880
I0501 02:27:05.024329  1352 layer_factory.hpp:77] Creating layer fc7
I0501 02:27:05.024354  1352 net.cpp:100] Creating Layer fc7
I0501 02:27:05.024366  1352 net.cpp:434] fc7 <- fc6
I0501 02:27:05.024384  1352 net.cpp:408] fc7 -> fc7
I0501 02:27:05.393653  1352 net.cpp:150] Setting up fc7
I0501 02:27:05.393699  1352 net.cpp:157] Top shape: 10 4096 (40960)
I0501 02:27:05.393713  1352 net.cpp:165] Memory required for data: 68273720
I0501 02:27:05.393736  1352 layer_factory.hpp:77] Creating layer relu7
I0501 02:27:05.393760  1352 net.cpp:100] Creating Layer relu7
I0501 02:27:05.393774  1352 net.cpp:434] relu7 <- fc7
I0501 02:27:05.393795  1352 net.cpp:395] relu7 -> fc7 (in-place)
I0501 02:27:05.394217  1352 net.cpp:150] Setting up relu7
I0501 02:27:05.394235  1352 net.cpp:157] Top shape: 10 4096 (40960)
I0501 02:27:05.394248  1352 net.cpp:165] Memory required for data: 68437560
I0501 02:27:05.394258  1352 layer_factory.hpp:77] Creating layer drop7
I0501 02:27:05.394284  1352 net.cpp:100] Creating Layer drop7
I0501 02:27:05.394297  1352 net.cpp:434] drop7 <- fc7
I0501 02:27:05.394310  1352 net.cpp:395] drop7 -> fc7 (in-place)
I0501 02:27:05.394358  1352 net.cpp:150] Setting up drop7
I0501 02:27:05.394381  1352 net.cpp:157] Top shape: 10 4096 (40960)
I0501 02:27:05.394393  1352 net.cpp:165] Memory required for data: 68601400
I0501 02:27:05.394404  1352 layer_factory.hpp:77] Creating layer fc8_finalproject
I0501 02:27:05.394426  1352 net.cpp:100] Creating Layer fc8_finalproject
I0501 02:27:05.394438  1352 net.cpp:434] fc8_finalproject <- fc7
I0501 02:27:05.394454  1352 net.cpp:408] fc8_finalproject -> fc8_finalproject
I0501 02:27:05.395588  1352 net.cpp:150] Setting up fc8_finalproject
I0501 02:27:05.395606  1352 net.cpp:157] Top shape: 10 11 (110)
I0501 02:27:05.395625  1352 net.cpp:165] Memory required for data: 68601840
I0501 02:27:05.395644  1352 net.cpp:228] fc8_finalproject does not need backward computation.
I0501 02:27:05.395656  1352 net.cpp:228] drop7 does not need backward computation.
I0501 02:27:05.395668  1352 net.cpp:228] relu7 does not need backward computation.
I0501 02:27:05.395681  1352 net.cpp:228] fc7 does not need backward computation.
…
