…
W0423 21:25:38.203748 25827 _caffe.cpp:122] DEPRECATION WARNING - deprecated use of Python interface
W0423 21:25:38.203794 25827 _caffe.cpp:123] Use this instead (with the named "weights" parameter):
W0423 21:25:38.203805 25827 _caffe.cpp:125] Net('models/fp-mini/deploy.prototxt', 1, weights='models/fp-mini/fp-mini_iter_30000.caffemodel')
I0423 21:25:38.220862 25827 net.cpp:58] Initializing net from parameters: 
name: "fp-miniCaffeNet"
state {
  phase: TEST
  level: 0
}
layer {
  name: "data"
  type: "Input"
  top: "data"
  input_param {
    shape {
      dim: 10
      dim: 3
      dim: 227
      dim: 227
    }
  }
}
layer {
  name: "conv1"
  type: "Convolution"
  bottom: "data"
  top: "conv1"
  param {
    lr_mult: 1
    decay_mult: 1
  }
  param {
    lr_mult: 2
    decay_mult: 0
  }
  convolution_param {
    num_output: 96
    kernel_size: 11
    stride: 4
    weight_filler {
      type: "gaussian"
      std: 0.01
    }
    bias_filler {
      type: "constant"
      value: 0
    }
  }
}
layer {
  name: "relu1"
  type: "ReLU"
  bottom: "conv1"
  top: "conv1"
}
layer {
  name: "pool1"
  type: "Pooling"
  bottom: "conv1"
  top: "pool1"
  pooling_param {
    pool: MAX
    kernel_size: 3
    stride: 2
  }
}
layer {
  name: "norm1"
  type: "LRN"
  bottom: "pool1"
  top: "norm1"
  lrn_param {
    local_size: 5
    alpha: 0.0001
    beta: 0.75
  }
}
layer {
  name: "conv2"
  type: "Convolution"
  bottom: "norm1"
  top: "conv2"
  param {
    lr_mult: 1
    decay_mult: 1
  }
  param {
    lr_mult: 2
    decay_mult: 0
  }
  convolution_param {
    num_output: 256
    pad: 2
    kernel_size: 5
    group: 2
    weight_filler {
      type: "gaussian"
      std: 0.01
    }
    bias_filler {
      type: "constant"
      value: 1
    }
  }
}
layer {
  name: "relu2"
  type: "ReLU"
  bottom: "conv2"
  top: "conv2"
}
layer {
  name: "pool2"
  type: "Pooling"
  bottom: "conv2"
  top: "pool2"
  pooling_param {
    pool: MAX
    kernel_size: 3
    stride: 2
  }
}
layer {
  name: "norm2"
  type: "LRN"
  bottom: "pool2"
  top: "norm2"
  lrn_param {
    local_size: 5
    alpha: 0.0001
    beta: 0.75
  }
}
layer {
  name: "conv3"
  type: "Convolution"
  bottom: "norm2"
  top: "conv3"
  param {
    lr_mult: 1
    decay_mult: 1
  }
  param {
    lr_mult: 2
    decay_mult: 0
  }
  convolution_param {
    num_output: 384
    pad: 1
    kernel_size: 3
    weight_filler {
      type: "gaussian"
      std: 0.01
    }
    bias_filler {
      type: "constant"
      value: 0
    }
  }
}
layer {
  name: "relu3"
  type: "ReLU"
  bottom: "conv3"
  top: "conv3"
}
layer {
  name: "conv4"
  type: "Convolution"
  bottom: "conv3"
  top: "conv4"
  param {
    lr_mult: 1
    decay_mult: 1
  }
  param {
    lr_mult: 2
    decay_mult: 0
  }
  convolution_param {
    num_output: 384
    pad: 1
    kernel_size: 3
    group: 2
    weight_filler {
      type: "gaussian"
      std: 0.01
    }
    bias_filler {
      type: "constant"
      value: 1
    }
  }
}
layer {
  name: "relu4"
  type: "ReLU"
  bottom: "conv4"
  top: "conv4"
}
layer {
  name: "conv5"
  type: "Convolution"
  bottom: "conv4"
  top: "conv5"
  param {
    lr_mult: 1
    decay_mult: 1
  }
  param {
    lr_mult: 2
    decay_mult: 0
  }
  convolution_param {
    num_output: 256
    pad: 1
    kernel_size: 3
    group: 2
    weight_filler {
      type: "gaussian"
      std: 0.01
    }
    bias_filler {
      type: "constant"
      value: 1
    }
  }
}
layer {
  name: "relu5"
  type: "ReLU"
  bottom: "conv5"
  top: "conv5"
}
layer {
  name: "pool5"
  type: "Pooling"
  bottom: "conv5"
  top: "pool5"
  pooling_param {
    pool: MAX
    kernel_size: 3
    stride: 2
  }
}
layer {
  name: "fc6"
  type: "InnerProduct"
  bottom: "pool5"
  top: "fc6"
  param {
    lr_mult: 1
    decay_mult: 1
  }
  param {
    lr_mult: 2
    decay_mult: 0
  }
  inner_product_param {
    num_output: 4096
    weight_filler {
      type: "gaussian"
      std: 0.005
    }
    bias_filler {
      type: "constant"
      value: 1
    }
  }
}
layer {
  name: "relu6"
  type: "ReLU"
  bottom: "fc6"
  top: "fc6"
}
layer {
  name: "drop6"
  type: "Dropout"
  bottom: "fc6"
  top: "fc6"
  dropout_param {
    dropout_ratio: 0.5
  }
}
layer {
  name: "fc7"
  type: "InnerProduct"
  bottom: "fc6"
  top: "fc7"
  param {
    lr_mult: 1
    decay_mult: 1
  }
  param {
    lr_mult: 2
    decay_mult: 0
  }
  inner_product_param {
    num_output: 4096
    weight_filler {
      type: "gaussian"
      std: 0.005
    }
    bias_filler {
      type: "constant"
      value: 1
    }
  }
}
layer {
  name: "relu7"
  type: "ReLU"
  bottom: "fc7"
  top: "fc7"
}
layer {
  name: "drop7"
  type: "Dropout"
  bottom: "fc7"
  top: "fc7"
  dropout_param {
    dropout_ratio: 0.5
  }
}
layer {
  name: "fc8_fp-mini"
  type: "InnerProduct"
  bottom: "fc7"
  top: "fc8_fp-mini"
  param {
    lr_mult: 10
    decay_mult: 1
  }
  param {
    lr_mult: 20
    decay_mult: 0
  }
  inner_product_param {
    num_output: 10
    weight_filler {
      type: "gaussian"
      std: 0.01
    }
    bias_filler {
      type: "constant"
      value: 0
    }
  }
}
I0423 21:25:38.221040 25827 layer_factory.hpp:77] Creating layer data
I0423 21:25:38.221097 25827 net.cpp:100] Creating Layer data
I0423 21:25:38.221119 25827 net.cpp:408] data -> data
I0423 21:25:38.241091 25827 net.cpp:150] Setting up data
I0423 21:25:38.241230 25827 net.cpp:157] Top shape: 10 3 227 227 (1545870)
I0423 21:25:38.241245 25827 net.cpp:165] Memory required for data: 6183480
I0423 21:25:38.241261 25827 layer_factory.hpp:77] Creating layer conv1
I0423 21:25:38.241299 25827 net.cpp:100] Creating Layer conv1
I0423 21:25:38.241322 25827 net.cpp:434] conv1 <- data
I0423 21:25:38.241346 25827 net.cpp:408] conv1 -> conv1
I0423 21:25:38.694828 25827 net.cpp:150] Setting up conv1
I0423 21:25:38.694876 25827 net.cpp:157] Top shape: 10 96 55 55 (2904000)
I0423 21:25:38.694897 25827 net.cpp:165] Memory required for data: 17799480
I0423 21:25:38.694933 25827 layer_factory.hpp:77] Creating layer relu1
I0423 21:25:38.694967 25827 net.cpp:100] Creating Layer relu1
I0423 21:25:38.694999 25827 net.cpp:434] relu1 <- conv1
I0423 21:25:38.695015 25827 net.cpp:395] relu1 -> conv1 (in-place)
I0423 21:25:38.695353 25827 net.cpp:150] Setting up relu1
I0423 21:25:38.695372 25827 net.cpp:157] Top shape: 10 96 55 55 (2904000)
I0423 21:25:38.695384 25827 net.cpp:165] Memory required for data: 29415480
I0423 21:25:38.695395 25827 layer_factory.hpp:77] Creating layer pool1
I0423 21:25:38.695420 25827 net.cpp:100] Creating Layer pool1
I0423 21:25:38.695433 25827 net.cpp:434] pool1 <- conv1
I0423 21:25:38.695447 25827 net.cpp:408] pool1 -> pool1
I0423 21:25:38.695530 25827 net.cpp:150] Setting up pool1
I0423 21:25:38.695546 25827 net.cpp:157] Top shape: 10 96 27 27 (699840)
I0423 21:25:38.695564 25827 net.cpp:165] Memory required for data: 32214840
I0423 21:25:38.695575 25827 layer_factory.hpp:77] Creating layer norm1
I0423 21:25:38.695605 25827 net.cpp:100] Creating Layer norm1
I0423 21:25:38.695618 25827 net.cpp:434] norm1 <- pool1
I0423 21:25:38.695632 25827 net.cpp:408] norm1 -> norm1
I0423 21:25:38.696159 25827 net.cpp:150] Setting up norm1
I0423 21:25:38.696180 25827 net.cpp:157] Top shape: 10 96 27 27 (699840)
I0423 21:25:38.696197 25827 net.cpp:165] Memory required for data: 35014200
I0423 21:25:38.696209 25827 layer_factory.hpp:77] Creating layer conv2
I0423 21:25:38.696244 25827 net.cpp:100] Creating Layer conv2
I0423 21:25:38.696256 25827 net.cpp:434] conv2 <- norm1
I0423 21:25:38.696274 25827 net.cpp:408] conv2 -> conv2
I0423 21:25:38.707036 25827 net.cpp:150] Setting up conv2
I0423 21:25:38.707067 25827 net.cpp:157] Top shape: 10 256 27 27 (1866240)
I0423 21:25:38.707082 25827 net.cpp:165] Memory required for data: 42479160
I0423 21:25:38.707109 25827 layer_factory.hpp:77] Creating layer relu2
I0423 21:25:38.707141 25827 net.cpp:100] Creating Layer relu2
I0423 21:25:38.707154 25827 net.cpp:434] relu2 <- conv2
I0423 21:25:38.707168 25827 net.cpp:395] relu2 -> conv2 (in-place)
I0423 21:25:38.707545 25827 net.cpp:150] Setting up relu2
I0423 21:25:38.707563 25827 net.cpp:157] Top shape: 10 256 27 27 (1866240)
I0423 21:25:38.707574 25827 net.cpp:165] Memory required for data: 49944120
I0423 21:25:38.707586 25827 layer_factory.hpp:77] Creating layer pool2
I0423 21:25:38.707609 25827 net.cpp:100] Creating Layer pool2
I0423 21:25:38.707622 25827 net.cpp:434] pool2 <- conv2
I0423 21:25:38.707639 25827 net.cpp:408] pool2 -> pool2
I0423 21:25:38.707733 25827 net.cpp:150] Setting up pool2
I0423 21:25:38.707749 25827 net.cpp:157] Top shape: 10 256 13 13 (432640)
I0423 21:25:38.707761 25827 net.cpp:165] Memory required for data: 51674680
I0423 21:25:38.707772 25827 layer_factory.hpp:77] Creating layer norm2
I0423 21:25:38.707801 25827 net.cpp:100] Creating Layer norm2
I0423 21:25:38.707813 25827 net.cpp:434] norm2 <- pool2
I0423 21:25:38.707828 25827 net.cpp:408] norm2 -> norm2
I0423 21:25:38.708410 25827 net.cpp:150] Setting up norm2
I0423 21:25:38.708431 25827 net.cpp:157] Top shape: 10 256 13 13 (432640)
I0423 21:25:38.708449 25827 net.cpp:165] Memory required for data: 53405240
I0423 21:25:38.708464 25827 layer_factory.hpp:77] Creating layer conv3
I0423 21:25:38.708492 25827 net.cpp:100] Creating Layer conv3
I0423 21:25:38.708504 25827 net.cpp:434] conv3 <- norm2
I0423 21:25:38.708523 25827 net.cpp:408] conv3 -> conv3
I0423 21:25:38.730186 25827 net.cpp:150] Setting up conv3
I0423 21:25:38.730221 25827 net.cpp:157] Top shape: 10 384 13 13 (648960)
I0423 21:25:38.730240 25827 net.cpp:165] Memory required for data: 56001080
I0423 21:25:38.730267 25827 layer_factory.hpp:77] Creating layer relu3
I0423 21:25:38.730288 25827 net.cpp:100] Creating Layer relu3
I0423 21:25:38.730300 25827 net.cpp:434] relu3 <- conv3
I0423 21:25:38.730330 25827 net.cpp:395] relu3 -> conv3 (in-place)
I0423 21:25:38.730849 25827 net.cpp:150] Setting up relu3
I0423 21:25:38.730871 25827 net.cpp:157] Top shape: 10 384 13 13 (648960)
I0423 21:25:38.730885 25827 net.cpp:165] Memory required for data: 58596920
I0423 21:25:38.730896 25827 layer_factory.hpp:77] Creating layer conv4
I0423 21:25:38.730931 25827 net.cpp:100] Creating Layer conv4
I0423 21:25:38.730943 25827 net.cpp:434] conv4 <- conv3
I0423 21:25:38.730963 25827 net.cpp:408] conv4 -> conv4
I0423 21:25:38.749197 25827 net.cpp:150] Setting up conv4
I0423 21:25:38.749231 25827 net.cpp:157] Top shape: 10 384 13 13 (648960)
I0423 21:25:38.749244 25827 net.cpp:165] Memory required for data: 61192760
I0423 21:25:38.749264 25827 layer_factory.hpp:77] Creating layer relu4
I0423 21:25:38.749286 25827 net.cpp:100] Creating Layer relu4
I0423 21:25:38.749299 25827 net.cpp:434] relu4 <- conv4
I0423 21:25:38.749326 25827 net.cpp:395] relu4 -> conv4 (in-place)
I0423 21:25:38.749676 25827 net.cpp:150] Setting up relu4
I0423 21:25:38.749696 25827 net.cpp:157] Top shape: 10 384 13 13 (648960)
I0423 21:25:38.749707 25827 net.cpp:165] Memory required for data: 63788600
I0423 21:25:38.749718 25827 layer_factory.hpp:77] Creating layer conv5
I0423 21:25:38.749752 25827 net.cpp:100] Creating Layer conv5
I0423 21:25:38.749763 25827 net.cpp:434] conv5 <- conv4
I0423 21:25:38.749783 25827 net.cpp:408] conv5 -> conv5
I0423 21:25:38.763046 25827 net.cpp:150] Setting up conv5
I0423 21:25:38.763074 25827 net.cpp:157] Top shape: 10 256 13 13 (432640)
I0423 21:25:38.763087 25827 net.cpp:165] Memory required for data: 65519160
I0423 21:25:38.763118 25827 layer_factory.hpp:77] Creating layer relu5
I0423 21:25:38.763137 25827 net.cpp:100] Creating Layer relu5
I0423 21:25:38.763162 25827 net.cpp:434] relu5 <- conv5
I0423 21:25:38.763177 25827 net.cpp:395] relu5 -> conv5 (in-place)
I0423 21:25:38.763531 25827 net.cpp:150] Setting up relu5
I0423 21:25:38.763553 25827 net.cpp:157] Top shape: 10 256 13 13 (432640)
I0423 21:25:38.763564 25827 net.cpp:165] Memory required for data: 67249720
I0423 21:25:38.763578 25827 layer_factory.hpp:77] Creating layer pool5
I0423 21:25:38.763602 25827 net.cpp:100] Creating Layer pool5
I0423 21:25:38.763613 25827 net.cpp:434] pool5 <- conv5
I0423 21:25:38.763631 25827 net.cpp:408] pool5 -> pool5
I0423 21:25:38.763707 25827 net.cpp:150] Setting up pool5
I0423 21:25:38.763728 25827 net.cpp:157] Top shape: 10 256 6 6 (92160)
I0423 21:25:38.763746 25827 net.cpp:165] Memory required for data: 67618360
I0423 21:25:38.763761 25827 layer_factory.hpp:77] Creating layer fc6
I0423 21:25:38.763787 25827 net.cpp:100] Creating Layer fc6
I0423 21:25:38.763798 25827 net.cpp:434] fc6 <- pool5
I0423 21:25:38.763818 25827 net.cpp:408] fc6 -> fc6
I0423 21:25:39.583953 25827 net.cpp:150] Setting up fc6
I0423 21:25:39.584002 25827 net.cpp:157] Top shape: 10 4096 (40960)
I0423 21:25:39.584014 25827 net.cpp:165] Memory required for data: 67782200
I0423 21:25:39.584038 25827 layer_factory.hpp:77] Creating layer relu6
I0423 21:25:39.584061 25827 net.cpp:100] Creating Layer relu6
I0423 21:25:39.584080 25827 net.cpp:434] relu6 <- fc6
I0423 21:25:39.584117 25827 net.cpp:395] relu6 -> fc6 (in-place)
I0423 21:25:39.584810 25827 net.cpp:150] Setting up relu6
I0423 21:25:39.584830 25827 net.cpp:157] Top shape: 10 4096 (40960)
I0423 21:25:39.584852 25827 net.cpp:165] Memory required for data: 67946040
I0423 21:25:39.584864 25827 layer_factory.hpp:77] Creating layer drop6
I0423 21:25:39.584888 25827 net.cpp:100] Creating Layer drop6
I0423 21:25:39.584900 25827 net.cpp:434] drop6 <- fc6
I0423 21:25:39.584923 25827 net.cpp:395] drop6 -> fc6 (in-place)
I0423 21:25:39.584970 25827 net.cpp:150] Setting up drop6
I0423 21:25:39.584995 25827 net.cpp:157] Top shape: 10 4096 (40960)
I0423 21:25:39.585007 25827 net.cpp:165] Memory required for data: 68109880
I0423 21:25:39.585018 25827 layer_factory.hpp:77] Creating layer fc7
I0423 21:25:39.585039 25827 net.cpp:100] Creating Layer fc7
I0423 21:25:39.585052 25827 net.cpp:434] fc7 <- fc6
I0423 21:25:39.585069 25827 net.cpp:408] fc7 -> fc7
I0423 21:25:39.950901 25827 net.cpp:150] Setting up fc7
I0423 21:25:39.950943 25827 net.cpp:157] Top shape: 10 4096 (40960)
I0423 21:25:39.950956 25827 net.cpp:165] Memory required for data: 68273720
I0423 21:25:39.950979 25827 layer_factory.hpp:77] Creating layer relu7
I0423 21:25:39.950999 25827 net.cpp:100] Creating Layer relu7
I0423 21:25:39.951014 25827 net.cpp:434] relu7 <- fc7
I0423 21:25:39.951058 25827 net.cpp:395] relu7 -> fc7 (in-place)
I0423 21:25:39.951460 25827 net.cpp:150] Setting up relu7
I0423 21:25:39.951483 25827 net.cpp:157] Top shape: 10 4096 (40960)
I0423 21:25:39.951494 25827 net.cpp:165] Memory required for data: 68437560
I0423 21:25:39.951508 25827 layer_factory.hpp:77] Creating layer drop7
I0423 21:25:39.951530 25827 net.cpp:100] Creating Layer drop7
I0423 21:25:39.951542 25827 net.cpp:434] drop7 <- fc7
I0423 21:25:39.951556 25827 net.cpp:395] drop7 -> fc7 (in-place)
I0423 21:25:39.951611 25827 net.cpp:150] Setting up drop7
I0423 21:25:39.951634 25827 net.cpp:157] Top shape: 10 4096 (40960)
I0423 21:25:39.951647 25827 net.cpp:165] Memory required for data: 68601400
I0423 21:25:39.951659 25827 layer_factory.hpp:77] Creating layer fc8_fp-mini
I0423 21:25:39.951680 25827 net.cpp:100] Creating Layer fc8_fp-mini
I0423 21:25:39.951692 25827 net.cpp:434] fc8_fp-mini <- fc7
I0423 21:25:39.951716 25827 net.cpp:408] fc8_fp-mini -> fc8_fp-mini
I0423 21:25:39.952725 25827 net.cpp:150] Setting up fc8_fp-mini
I0423 21:25:39.952741 25827 net.cpp:157] Top shape: 10 10 (100)
I0423 21:25:39.952760 25827 net.cpp:165] Memory required for data: 68601800
I0423 21:25:39.952780 25827 net.cpp:228] fc8_fp-mini does not need backward computation.
I0423 21:25:39.952791 25827 net.cpp:228] drop7 does not need backward computation.
I0423 21:25:39.952805 25827 net.cpp:228] relu7 does not need backward computation.
I0423 21:25:39.952822 25827 net.cpp:228] fc7 does not need backward computation.
…
