…
W0501 03:15:53.029405 28263 _caffe.cpp:122] DEPRECATION WARNING - deprecated use of Python interface
W0501 03:15:53.029450 28263 _caffe.cpp:123] Use this instead (with the named "weights" parameter):
W0501 03:15:53.029461 28263 _caffe.cpp:125] Net('models/fp1/deploy.prototxt', 1, weights='models/fp1/fp1_iter_1000.caffemodel')
I0501 03:15:53.049242 28263 net.cpp:58] Initializing net from parameters: 
name: "fp1CaffeNet"
state {
  phase: TEST
  level: 0
}
layer {
  name: "data"
  type: "Input"
  top: "data"
  input_param {
    shape {
      dim: 10
      dim: 3
      dim: 227
      dim: 227
    }
  }
}
layer {
  name: "conv1"
  type: "Convolution"
  bottom: "data"
  top: "conv1"
  param {
    lr_mult: 1
    decay_mult: 1
  }
  param {
    lr_mult: 2
    decay_mult: 0
  }
  convolution_param {
    num_output: 96
    kernel_size: 11
    stride: 4
    weight_filler {
      type: "gaussian"
      std: 0.01
    }
    bias_filler {
      type: "constant"
      value: 0
    }
  }
}
layer {
  name: "relu1"
  type: "ReLU"
  bottom: "conv1"
  top: "conv1"
}
layer {
  name: "pool1"
  type: "Pooling"
  bottom: "conv1"
  top: "pool1"
  pooling_param {
    pool: MAX
    kernel_size: 3
    stride: 2
  }
}
layer {
  name: "norm1"
  type: "LRN"
  bottom: "pool1"
  top: "norm1"
  lrn_param {
    local_size: 5
    alpha: 0.0001
    beta: 0.75
  }
}
layer {
  name: "conv2"
  type: "Convolution"
  bottom: "norm1"
  top: "conv2"
  param {
    lr_mult: 1
    decay_mult: 1
  }
  param {
    lr_mult: 2
    decay_mult: 0
  }
  convolution_param {
    num_output: 256
    pad: 2
    kernel_size: 5
    group: 2
    weight_filler {
      type: "gaussian"
      std: 0.01
    }
    bias_filler {
      type: "constant"
      value: 1
    }
  }
}
layer {
  name: "relu2"
  type: "ReLU"
  bottom: "conv2"
  top: "conv2"
}
layer {
  name: "pool2"
  type: "Pooling"
  bottom: "conv2"
  top: "pool2"
  pooling_param {
    pool: MAX
    kernel_size: 3
    stride: 2
  }
}
layer {
  name: "norm2"
  type: "LRN"
  bottom: "pool2"
  top: "norm2"
  lrn_param {
    local_size: 5
    alpha: 0.0001
    beta: 0.75
  }
}
layer {
  name: "conv3"
  type: "Convolution"
  bottom: "norm2"
  top: "conv3"
  param {
    lr_mult: 1
    decay_mult: 1
  }
  param {
    lr_mult: 2
    decay_mult: 0
  }
  convolution_param {
    num_output: 384
    pad: 1
    kernel_size: 3
    weight_filler {
      type: "gaussian"
      std: 0.01
    }
    bias_filler {
      type: "constant"
      value: 0
    }
  }
}
layer {
  name: "relu3"
  type: "ReLU"
  bottom: "conv3"
  top: "conv3"
}
layer {
  name: "conv4"
  type: "Convolution"
  bottom: "conv3"
  top: "conv4"
  param {
    lr_mult: 1
    decay_mult: 1
  }
  param {
    lr_mult: 2
    decay_mult: 0
  }
  convolution_param {
    num_output: 384
    pad: 1
    kernel_size: 3
    group: 2
    weight_filler {
      type: "gaussian"
      std: 0.01
    }
    bias_filler {
      type: "constant"
      value: 1
    }
  }
}
layer {
  name: "relu4"
  type: "ReLU"
  bottom: "conv4"
  top: "conv4"
}
layer {
  name: "conv5"
  type: "Convolution"
  bottom: "conv4"
  top: "conv5"
  param {
    lr_mult: 1
    decay_mult: 1
  }
  param {
    lr_mult: 2
    decay_mult: 0
  }
  convolution_param {
    num_output: 256
    pad: 1
    kernel_size: 3
    group: 2
    weight_filler {
      type: "gaussian"
      std: 0.01
    }
    bias_filler {
      type: "constant"
      value: 1
    }
  }
}
layer {
  name: "relu5"
  type: "ReLU"
  bottom: "conv5"
  top: "conv5"
}
layer {
  name: "pool5"
  type: "Pooling"
  bottom: "conv5"
  top: "pool5"
  pooling_param {
    pool: MAX
    kernel_size: 3
    stride: 2
  }
}
layer {
  name: "fc6"
  type: "InnerProduct"
  bottom: "pool5"
  top: "fc6"
  param {
    lr_mult: 1
    decay_mult: 1
  }
  param {
    lr_mult: 2
    decay_mult: 0
  }
  inner_product_param {
    num_output: 4096
    weight_filler {
      type: "gaussian"
      std: 0.005
    }
    bias_filler {
      type: "constant"
      value: 1
    }
  }
}
layer {
  name: "relu6"
  type: "ReLU"
  bottom: "fc6"
  top: "fc6"
}
layer {
  name: "drop6"
  type: "Dropout"
  bottom: "fc6"
  top: "fc6"
  dropout_param {
    dropout_ratio: 0.5
  }
}
layer {
  name: "fc7"
  type: "InnerProduct"
  bottom: "fc6"
  top: "fc7"
  param {
    lr_mult: 1
    decay_mult: 1
  }
  param {
    lr_mult: 2
    decay_mult: 0
  }
  inner_product_param {
    num_output: 4096
    weight_filler {
      type: "gaussian"
      std: 0.005
    }
    bias_filler {
      type: "constant"
      value: 1
    }
  }
}
layer {
  name: "relu7"
  type: "ReLU"
  bottom: "fc7"
  top: "fc7"
}
layer {
  name: "drop7"
  type: "Dropout"
  bottom: "fc7"
  top: "fc7"
  dropout_param {
    dropout_ratio: 0.5
  }
}
layer {
  name: "fc8_fp1"
  type: "InnerProduct"
  bottom: "fc7"
  top: "fc8_fp1"
  param {
    lr_mult: 10
    decay_mult: 1
  }
  param {
    lr_mult: 20
    decay_mult: 0
  }
  inner_product_param {
    num_output: 11
    weight_filler {
      type: "gaussian"
      std: 0.01
    }
    bias_filler {
      type: "constant"
      value: 0
    }
  }
}
I0501 03:15:53.049420 28263 layer_factory.hpp:77] Creating layer data
I0501 03:15:53.049479 28263 net.cpp:100] Creating Layer data
I0501 03:15:53.049499 28263 net.cpp:408] data -> data
I0501 03:15:53.069532 28263 net.cpp:150] Setting up data
I0501 03:15:53.069586 28263 net.cpp:157] Top shape: 10 3 227 227 (1545870)
I0501 03:15:53.069598 28263 net.cpp:165] Memory required for data: 6183480
I0501 03:15:53.069614 28263 layer_factory.hpp:77] Creating layer conv1
I0501 03:15:53.069667 28263 net.cpp:100] Creating Layer conv1
I0501 03:15:53.069682 28263 net.cpp:434] conv1 <- data
I0501 03:15:53.069700 28263 net.cpp:408] conv1 -> conv1
I0501 03:15:53.719117 28263 net.cpp:150] Setting up conv1
I0501 03:15:53.719177 28263 net.cpp:157] Top shape: 10 96 55 55 (2904000)
I0501 03:15:53.719189 28263 net.cpp:165] Memory required for data: 17799480
I0501 03:15:53.719221 28263 layer_factory.hpp:77] Creating layer relu1
I0501 03:15:53.719256 28263 net.cpp:100] Creating Layer relu1
I0501 03:15:53.719290 28263 net.cpp:434] relu1 <- conv1
I0501 03:15:53.719305 28263 net.cpp:395] relu1 -> conv1 (in-place)
I0501 03:15:53.719642 28263 net.cpp:150] Setting up relu1
I0501 03:15:53.719662 28263 net.cpp:157] Top shape: 10 96 55 55 (2904000)
I0501 03:15:53.719674 28263 net.cpp:165] Memory required for data: 29415480
I0501 03:15:53.719686 28263 layer_factory.hpp:77] Creating layer pool1
I0501 03:15:53.719710 28263 net.cpp:100] Creating Layer pool1
I0501 03:15:53.719723 28263 net.cpp:434] pool1 <- conv1
I0501 03:15:53.719738 28263 net.cpp:408] pool1 -> pool1
I0501 03:15:53.719828 28263 net.cpp:150] Setting up pool1
I0501 03:15:53.719846 28263 net.cpp:157] Top shape: 10 96 27 27 (699840)
I0501 03:15:53.719864 28263 net.cpp:165] Memory required for data: 32214840
I0501 03:15:53.719877 28263 layer_factory.hpp:77] Creating layer norm1
I0501 03:15:53.719902 28263 net.cpp:100] Creating Layer norm1
I0501 03:15:53.719919 28263 net.cpp:434] norm1 <- pool1
I0501 03:15:53.719933 28263 net.cpp:408] norm1 -> norm1
I0501 03:15:53.720468 28263 net.cpp:150] Setting up norm1
I0501 03:15:53.720490 28263 net.cpp:157] Top shape: 10 96 27 27 (699840)
I0501 03:15:53.720508 28263 net.cpp:165] Memory required for data: 35014200
I0501 03:15:53.720522 28263 layer_factory.hpp:77] Creating layer conv2
I0501 03:15:53.720551 28263 net.cpp:100] Creating Layer conv2
I0501 03:15:53.720571 28263 net.cpp:434] conv2 <- norm1
I0501 03:15:53.720587 28263 net.cpp:408] conv2 -> conv2
I0501 03:15:53.731506 28263 net.cpp:150] Setting up conv2
I0501 03:15:53.731542 28263 net.cpp:157] Top shape: 10 256 27 27 (1866240)
I0501 03:15:53.731555 28263 net.cpp:165] Memory required for data: 42479160
I0501 03:15:53.731577 28263 layer_factory.hpp:77] Creating layer relu2
I0501 03:15:53.731600 28263 net.cpp:100] Creating Layer relu2
I0501 03:15:53.731626 28263 net.cpp:434] relu2 <- conv2
I0501 03:15:53.731640 28263 net.cpp:395] relu2 -> conv2 (in-place)
I0501 03:15:53.731994 28263 net.cpp:150] Setting up relu2
I0501 03:15:53.732013 28263 net.cpp:157] Top shape: 10 256 27 27 (1866240)
I0501 03:15:53.732025 28263 net.cpp:165] Memory required for data: 49944120
I0501 03:15:53.732036 28263 layer_factory.hpp:77] Creating layer pool2
I0501 03:15:53.732064 28263 net.cpp:100] Creating Layer pool2
I0501 03:15:53.732076 28263 net.cpp:434] pool2 <- conv2
I0501 03:15:53.732091 28263 net.cpp:408] pool2 -> pool2
I0501 03:15:53.732187 28263 net.cpp:150] Setting up pool2
I0501 03:15:53.732203 28263 net.cpp:157] Top shape: 10 256 13 13 (432640)
I0501 03:15:53.732213 28263 net.cpp:165] Memory required for data: 51674680
I0501 03:15:53.732224 28263 layer_factory.hpp:77] Creating layer norm2
I0501 03:15:53.732254 28263 net.cpp:100] Creating Layer norm2
I0501 03:15:53.732266 28263 net.cpp:434] norm2 <- pool2
I0501 03:15:53.732281 28263 net.cpp:408] norm2 -> norm2
I0501 03:15:53.732856 28263 net.cpp:150] Setting up norm2
I0501 03:15:53.732880 28263 net.cpp:157] Top shape: 10 256 13 13 (432640)
I0501 03:15:53.732892 28263 net.cpp:165] Memory required for data: 53405240
I0501 03:15:53.732913 28263 layer_factory.hpp:77] Creating layer conv3
I0501 03:15:53.732946 28263 net.cpp:100] Creating Layer conv3
I0501 03:15:53.732960 28263 net.cpp:434] conv3 <- norm2
I0501 03:15:53.732978 28263 net.cpp:408] conv3 -> conv3
I0501 03:15:53.754622 28263 net.cpp:150] Setting up conv3
I0501 03:15:53.754655 28263 net.cpp:157] Top shape: 10 384 13 13 (648960)
I0501 03:15:53.754678 28263 net.cpp:165] Memory required for data: 56001080
I0501 03:15:53.754701 28263 layer_factory.hpp:77] Creating layer relu3
I0501 03:15:53.754719 28263 net.cpp:100] Creating Layer relu3
I0501 03:15:53.754736 28263 net.cpp:434] relu3 <- conv3
I0501 03:15:53.754755 28263 net.cpp:395] relu3 -> conv3 (in-place)
I0501 03:15:53.755275 28263 net.cpp:150] Setting up relu3
I0501 03:15:53.755295 28263 net.cpp:157] Top shape: 10 384 13 13 (648960)
I0501 03:15:53.755307 28263 net.cpp:165] Memory required for data: 58596920
I0501 03:15:53.755319 28263 layer_factory.hpp:77] Creating layer conv4
I0501 03:15:53.755354 28263 net.cpp:100] Creating Layer conv4
I0501 03:15:53.755367 28263 net.cpp:434] conv4 <- conv3
I0501 03:15:53.755388 28263 net.cpp:408] conv4 -> conv4
I0501 03:15:53.773655 28263 net.cpp:150] Setting up conv4
I0501 03:15:53.773692 28263 net.cpp:157] Top shape: 10 384 13 13 (648960)
I0501 03:15:53.773705 28263 net.cpp:165] Memory required for data: 61192760
I0501 03:15:53.773725 28263 layer_factory.hpp:77] Creating layer relu4
I0501 03:15:53.773746 28263 net.cpp:100] Creating Layer relu4
I0501 03:15:53.773757 28263 net.cpp:434] relu4 <- conv4
I0501 03:15:53.773785 28263 net.cpp:395] relu4 -> conv4 (in-place)
I0501 03:15:53.774124 28263 net.cpp:150] Setting up relu4
I0501 03:15:53.774143 28263 net.cpp:157] Top shape: 10 384 13 13 (648960)
I0501 03:15:53.774155 28263 net.cpp:165] Memory required for data: 63788600
I0501 03:15:53.774166 28263 layer_factory.hpp:77] Creating layer conv5
I0501 03:15:53.774199 28263 net.cpp:100] Creating Layer conv5
I0501 03:15:53.774212 28263 net.cpp:434] conv5 <- conv4
I0501 03:15:53.774231 28263 net.cpp:408] conv5 -> conv5
I0501 03:15:53.787559 28263 net.cpp:150] Setting up conv5
I0501 03:15:53.787590 28263 net.cpp:157] Top shape: 10 256 13 13 (432640)
I0501 03:15:53.787609 28263 net.cpp:165] Memory required for data: 65519160
I0501 03:15:53.787637 28263 layer_factory.hpp:77] Creating layer relu5
I0501 03:15:53.787659 28263 net.cpp:100] Creating Layer relu5
I0501 03:15:53.787672 28263 net.cpp:434] relu5 <- conv5
I0501 03:15:53.787698 28263 net.cpp:395] relu5 -> conv5 (in-place)
I0501 03:15:53.788043 28263 net.cpp:150] Setting up relu5
I0501 03:15:53.788064 28263 net.cpp:157] Top shape: 10 256 13 13 (432640)
I0501 03:15:53.788075 28263 net.cpp:165] Memory required for data: 67249720
I0501 03:15:53.788090 28263 layer_factory.hpp:77] Creating layer pool5
I0501 03:15:53.788105 28263 net.cpp:100] Creating Layer pool5
I0501 03:15:53.788125 28263 net.cpp:434] pool5 <- conv5
I0501 03:15:53.788142 28263 net.cpp:408] pool5 -> pool5
I0501 03:15:53.788220 28263 net.cpp:150] Setting up pool5
I0501 03:15:53.788251 28263 net.cpp:157] Top shape: 10 256 6 6 (92160)
I0501 03:15:53.788264 28263 net.cpp:165] Memory required for data: 67618360
I0501 03:15:53.788277 28263 layer_factory.hpp:77] Creating layer fc6
I0501 03:15:53.788300 28263 net.cpp:100] Creating Layer fc6
I0501 03:15:53.788312 28263 net.cpp:434] fc6 <- pool5
I0501 03:15:53.788338 28263 net.cpp:408] fc6 -> fc6
I0501 03:15:54.612776 28263 net.cpp:150] Setting up fc6
I0501 03:15:54.612831 28263 net.cpp:157] Top shape: 10 4096 (40960)
I0501 03:15:54.612845 28263 net.cpp:165] Memory required for data: 67782200
I0501 03:15:54.612869 28263 layer_factory.hpp:77] Creating layer relu6
I0501 03:15:54.612890 28263 net.cpp:100] Creating Layer relu6
I0501 03:15:54.612921 28263 net.cpp:434] relu6 <- fc6
I0501 03:15:54.612957 28263 net.cpp:395] relu6 -> fc6 (in-place)
I0501 03:15:54.613654 28263 net.cpp:150] Setting up relu6
I0501 03:15:54.613678 28263 net.cpp:157] Top shape: 10 4096 (40960)
I0501 03:15:54.613698 28263 net.cpp:165] Memory required for data: 67946040
I0501 03:15:54.613710 28263 layer_factory.hpp:77] Creating layer drop6
I0501 03:15:54.613732 28263 net.cpp:100] Creating Layer drop6
I0501 03:15:54.613755 28263 net.cpp:434] drop6 <- fc6
I0501 03:15:54.613770 28263 net.cpp:395] drop6 -> fc6 (in-place)
I0501 03:15:54.613819 28263 net.cpp:150] Setting up drop6
I0501 03:15:54.613837 28263 net.cpp:157] Top shape: 10 4096 (40960)
I0501 03:15:54.613854 28263 net.cpp:165] Memory required for data: 68109880
I0501 03:15:54.613867 28263 layer_factory.hpp:77] Creating layer fc7
I0501 03:15:54.613888 28263 net.cpp:100] Creating Layer fc7
I0501 03:15:54.613900 28263 net.cpp:434] fc7 <- fc6
I0501 03:15:54.613917 28263 net.cpp:408] fc7 -> fc7
I0501 03:15:54.981501 28263 net.cpp:150] Setting up fc7
I0501 03:15:54.981545 28263 net.cpp:157] Top shape: 10 4096 (40960)
I0501 03:15:54.981559 28263 net.cpp:165] Memory required for data: 68273720
I0501 03:15:54.981581 28263 layer_factory.hpp:77] Creating layer relu7
I0501 03:15:54.981601 28263 net.cpp:100] Creating Layer relu7
I0501 03:15:54.981614 28263 net.cpp:434] relu7 <- fc7
I0501 03:15:54.981659 28263 net.cpp:395] relu7 -> fc7 (in-place)
I0501 03:15:54.982064 28263 net.cpp:150] Setting up relu7
I0501 03:15:54.982084 28263 net.cpp:157] Top shape: 10 4096 (40960)
I0501 03:15:54.982095 28263 net.cpp:165] Memory required for data: 68437560
I0501 03:15:54.982106 28263 layer_factory.hpp:77] Creating layer drop7
I0501 03:15:54.982132 28263 net.cpp:100] Creating Layer drop7
I0501 03:15:54.982144 28263 net.cpp:434] drop7 <- fc7
I0501 03:15:54.982161 28263 net.cpp:395] drop7 -> fc7 (in-place)
I0501 03:15:54.982213 28263 net.cpp:150] Setting up drop7
I0501 03:15:54.982239 28263 net.cpp:157] Top shape: 10 4096 (40960)
I0501 03:15:54.982251 28263 net.cpp:165] Memory required for data: 68601400
I0501 03:15:54.982262 28263 layer_factory.hpp:77] Creating layer fc8_fp1
I0501 03:15:54.982285 28263 net.cpp:100] Creating Layer fc8_fp1
I0501 03:15:54.982295 28263 net.cpp:434] fc8_fp1 <- fc7
I0501 03:15:54.982313 28263 net.cpp:408] fc8_fp1 -> fc8_fp1
I0501 03:15:54.983419 28263 net.cpp:150] Setting up fc8_fp1
I0501 03:15:54.983436 28263 net.cpp:157] Top shape: 10 11 (110)
I0501 03:15:54.983454 28263 net.cpp:165] Memory required for data: 68601840
I0501 03:15:54.983474 28263 net.cpp:228] fc8_fp1 does not need backward computation.
I0501 03:15:54.983485 28263 net.cpp:228] drop7 does not need backward computation.
I0501 03:15:54.983500 28263 net.cpp:228] relu7 does not need backward computation.
I0501 03:15:54.983510 28263 net.cpp:228] fc7 does not need backward computation.
…
