…
W0425 18:40:28.352382  2336 _caffe.cpp:122] DEPRECATION WARNING - deprecated use of Python interface
W0425 18:40:28.352444  2336 _caffe.cpp:123] Use this instead (with the named "weights" parameter):
W0425 18:40:28.352455  2336 _caffe.cpp:125] Net('models/finalproject/deploy.prototxt', 1, weights='models/finalproject/finalproject_iter_90000.caffemodel')
I0425 18:40:28.360442  2336 net.cpp:58] Initializing net from parameters: 
name: "finalprojectCaffeNet"
state {
  phase: TEST
  level: 0
}
layer {
  name: "data"
  type: "Input"
  top: "data"
  input_param {
    shape {
      dim: 10
      dim: 3
      dim: 227
      dim: 227
    }
  }
}
layer {
  name: "conv1"
  type: "Convolution"
  bottom: "data"
  top: "conv1"
  param {
    lr_mult: 1
    decay_mult: 1
  }
  param {
    lr_mult: 2
    decay_mult: 0
  }
  convolution_param {
    num_output: 96
    kernel_size: 11
    stride: 4
    weight_filler {
      type: "gaussian"
      std: 0.01
    }
    bias_filler {
      type: "constant"
      value: 0
    }
  }
}
layer {
  name: "relu1"
  type: "ReLU"
  bottom: "conv1"
  top: "conv1"
}
layer {
  name: "pool1"
  type: "Pooling"
  bottom: "conv1"
  top: "pool1"
  pooling_param {
    pool: MAX
    kernel_size: 3
    stride: 2
  }
}
layer {
  name: "norm1"
  type: "LRN"
  bottom: "pool1"
  top: "norm1"
  lrn_param {
    local_size: 5
    alpha: 0.0001
    beta: 0.75
  }
}
layer {
  name: "conv2"
  type: "Convolution"
  bottom: "norm1"
  top: "conv2"
  param {
    lr_mult: 1
    decay_mult: 1
  }
  param {
    lr_mult: 2
    decay_mult: 0
  }
  convolution_param {
    num_output: 256
    pad: 2
    kernel_size: 5
    group: 2
    weight_filler {
      type: "gaussian"
      std: 0.01
    }
    bias_filler {
      type: "constant"
      value: 1
    }
  }
}
layer {
  name: "relu2"
  type: "ReLU"
  bottom: "conv2"
  top: "conv2"
}
layer {
  name: "pool2"
  type: "Pooling"
  bottom: "conv2"
  top: "pool2"
  pooling_param {
    pool: MAX
    kernel_size: 3
    stride: 2
  }
}
layer {
  name: "norm2"
  type: "LRN"
  bottom: "pool2"
  top: "norm2"
  lrn_param {
    local_size: 5
    alpha: 0.0001
    beta: 0.75
  }
}
layer {
  name: "conv3"
  type: "Convolution"
  bottom: "norm2"
  top: "conv3"
  param {
    lr_mult: 1
    decay_mult: 1
  }
  param {
    lr_mult: 2
    decay_mult: 0
  }
  convolution_param {
    num_output: 384
    pad: 1
    kernel_size: 3
    weight_filler {
      type: "gaussian"
      std: 0.01
    }
    bias_filler {
      type: "constant"
      value: 0
    }
  }
}
layer {
  name: "relu3"
  type: "ReLU"
  bottom: "conv3"
  top: "conv3"
}
layer {
  name: "conv4"
  type: "Convolution"
  bottom: "conv3"
  top: "conv4"
  param {
    lr_mult: 1
    decay_mult: 1
  }
  param {
    lr_mult: 2
    decay_mult: 0
  }
  convolution_param {
    num_output: 384
    pad: 1
    kernel_size: 3
    group: 2
    weight_filler {
      type: "gaussian"
      std: 0.01
    }
    bias_filler {
      type: "constant"
      value: 1
    }
  }
}
layer {
  name: "relu4"
  type: "ReLU"
  bottom: "conv4"
  top: "conv4"
}
layer {
  name: "conv5"
  type: "Convolution"
  bottom: "conv4"
  top: "conv5"
  param {
    lr_mult: 1
    decay_mult: 1
  }
  param {
    lr_mult: 2
    decay_mult: 0
  }
  convolution_param {
    num_output: 256
    pad: 1
    kernel_size: 3
    group: 2
    weight_filler {
      type: "gaussian"
      std: 0.01
    }
    bias_filler {
      type: "constant"
      value: 1
    }
  }
}
layer {
  name: "relu5"
  type: "ReLU"
  bottom: "conv5"
  top: "conv5"
}
layer {
  name: "pool5"
  type: "Pooling"
  bottom: "conv5"
  top: "pool5"
  pooling_param {
    pool: MAX
    kernel_size: 3
    stride: 2
  }
}
layer {
  name: "fc6"
  type: "InnerProduct"
  bottom: "pool5"
  top: "fc6"
  param {
    lr_mult: 1
    decay_mult: 1
  }
  param {
    lr_mult: 2
    decay_mult: 0
  }
  inner_product_param {
    num_output: 4096
    weight_filler {
      type: "gaussian"
      std: 0.005
    }
    bias_filler {
      type: "constant"
      value: 1
    }
  }
}
layer {
  name: "relu6"
  type: "ReLU"
  bottom: "fc6"
  top: "fc6"
}
layer {
  name: "drop6"
  type: "Dropout"
  bottom: "fc6"
  top: "fc6"
  dropout_param {
    dropout_ratio: 0.5
  }
}
layer {
  name: "fc7"
  type: "InnerProduct"
  bottom: "fc6"
  top: "fc7"
  param {
    lr_mult: 1
    decay_mult: 1
  }
  param {
    lr_mult: 2
    decay_mult: 0
  }
  inner_product_param {
    num_output: 4096
    weight_filler {
      type: "gaussian"
      std: 0.005
    }
    bias_filler {
      type: "constant"
      value: 1
    }
  }
}
layer {
  name: "relu7"
  type: "ReLU"
  bottom: "fc7"
  top: "fc7"
}
layer {
  name: "drop7"
  type: "Dropout"
  bottom: "fc7"
  top: "fc7"
  dropout_param {
    dropout_ratio: 0.5
  }
}
layer {
  name: "fc8_finalproject"
  type: "InnerProduct"
  bottom: "fc7"
  top: "fc8_finalproject"
  param {
    lr_mult: 10
    decay_mult: 1
  }
  param {
    lr_mult: 20
    decay_mult: 0
  }
  inner_product_param {
    num_output: 11
    weight_filler {
      type: "gaussian"
      std: 0.01
    }
    bias_filler {
      type: "constant"
      value: 0
    }
  }
}
I0425 18:40:28.360622  2336 layer_factory.hpp:77] Creating layer data
I0425 18:40:28.360678  2336 net.cpp:100] Creating Layer data
I0425 18:40:28.360700  2336 net.cpp:408] data -> data
I0425 18:40:28.380595  2336 net.cpp:150] Setting up data
I0425 18:40:28.380712  2336 net.cpp:157] Top shape: 10 3 227 227 (1545870)
I0425 18:40:28.380726  2336 net.cpp:165] Memory required for data: 6183480
I0425 18:40:28.380743  2336 layer_factory.hpp:77] Creating layer conv1
I0425 18:40:28.380780  2336 net.cpp:100] Creating Layer conv1
I0425 18:40:28.380795  2336 net.cpp:434] conv1 <- data
I0425 18:40:28.380812  2336 net.cpp:408] conv1 -> conv1
I0425 18:40:30.222303  2336 net.cpp:150] Setting up conv1
I0425 18:40:30.222355  2336 net.cpp:157] Top shape: 10 96 55 55 (2904000)
I0425 18:40:30.222383  2336 net.cpp:165] Memory required for data: 17799480
I0425 18:40:30.222417  2336 layer_factory.hpp:77] Creating layer relu1
I0425 18:40:30.222445  2336 net.cpp:100] Creating Layer relu1
I0425 18:40:30.222466  2336 net.cpp:434] relu1 <- conv1
I0425 18:40:30.222503  2336 net.cpp:395] relu1 -> conv1 (in-place)
I0425 18:40:30.222844  2336 net.cpp:150] Setting up relu1
I0425 18:40:30.222864  2336 net.cpp:157] Top shape: 10 96 55 55 (2904000)
I0425 18:40:30.222877  2336 net.cpp:165] Memory required for data: 29415480
I0425 18:40:30.222888  2336 layer_factory.hpp:77] Creating layer pool1
I0425 18:40:30.222913  2336 net.cpp:100] Creating Layer pool1
I0425 18:40:30.222925  2336 net.cpp:434] pool1 <- conv1
I0425 18:40:30.222941  2336 net.cpp:408] pool1 -> pool1
I0425 18:40:30.223032  2336 net.cpp:150] Setting up pool1
I0425 18:40:30.223049  2336 net.cpp:157] Top shape: 10 96 27 27 (699840)
I0425 18:40:30.223065  2336 net.cpp:165] Memory required for data: 32214840
I0425 18:40:30.223078  2336 layer_factory.hpp:77] Creating layer norm1
I0425 18:40:30.223103  2336 net.cpp:100] Creating Layer norm1
I0425 18:40:30.223120  2336 net.cpp:434] norm1 <- pool1
I0425 18:40:30.223135  2336 net.cpp:408] norm1 -> norm1
I0425 18:40:30.223665  2336 net.cpp:150] Setting up norm1
I0425 18:40:30.223688  2336 net.cpp:157] Top shape: 10 96 27 27 (699840)
I0425 18:40:30.223706  2336 net.cpp:165] Memory required for data: 35014200
I0425 18:40:30.223718  2336 layer_factory.hpp:77] Creating layer conv2
I0425 18:40:30.223747  2336 net.cpp:100] Creating Layer conv2
I0425 18:40:30.223767  2336 net.cpp:434] conv2 <- norm1
I0425 18:40:30.223783  2336 net.cpp:408] conv2 -> conv2
I0425 18:40:30.234568  2336 net.cpp:150] Setting up conv2
I0425 18:40:30.234601  2336 net.cpp:157] Top shape: 10 256 27 27 (1866240)
I0425 18:40:30.234622  2336 net.cpp:165] Memory required for data: 42479160
I0425 18:40:30.234645  2336 layer_factory.hpp:77] Creating layer relu2
I0425 18:40:30.234668  2336 net.cpp:100] Creating Layer relu2
I0425 18:40:30.234693  2336 net.cpp:434] relu2 <- conv2
I0425 18:40:30.234709  2336 net.cpp:395] relu2 -> conv2 (in-place)
I0425 18:40:30.235040  2336 net.cpp:150] Setting up relu2
I0425 18:40:30.235059  2336 net.cpp:157] Top shape: 10 256 27 27 (1866240)
I0425 18:40:30.235071  2336 net.cpp:165] Memory required for data: 49944120
I0425 18:40:30.235082  2336 layer_factory.hpp:77] Creating layer pool2
I0425 18:40:30.235107  2336 net.cpp:100] Creating Layer pool2
I0425 18:40:30.235121  2336 net.cpp:434] pool2 <- conv2
I0425 18:40:30.235136  2336 net.cpp:408] pool2 -> pool2
I0425 18:40:30.235222  2336 net.cpp:150] Setting up pool2
I0425 18:40:30.235239  2336 net.cpp:157] Top shape: 10 256 13 13 (432640)
I0425 18:40:30.235258  2336 net.cpp:165] Memory required for data: 51674680
I0425 18:40:30.235270  2336 layer_factory.hpp:77] Creating layer norm2
I0425 18:40:30.235288  2336 net.cpp:100] Creating Layer norm2
I0425 18:40:30.235309  2336 net.cpp:434] norm2 <- pool2
I0425 18:40:30.235325  2336 net.cpp:408] norm2 -> norm2
I0425 18:40:30.235872  2336 net.cpp:150] Setting up norm2
I0425 18:40:30.235893  2336 net.cpp:157] Top shape: 10 256 13 13 (432640)
I0425 18:40:30.235905  2336 net.cpp:165] Memory required for data: 53405240
I0425 18:40:30.235918  2336 layer_factory.hpp:77] Creating layer conv3
I0425 18:40:30.235939  2336 net.cpp:100] Creating Layer conv3
I0425 18:40:30.235962  2336 net.cpp:434] conv3 <- norm2
I0425 18:40:30.235980  2336 net.cpp:408] conv3 -> conv3
I0425 18:40:30.257593  2336 net.cpp:150] Setting up conv3
I0425 18:40:30.257625  2336 net.cpp:157] Top shape: 10 384 13 13 (648960)
I0425 18:40:30.257647  2336 net.cpp:165] Memory required for data: 56001080
I0425 18:40:30.257673  2336 layer_factory.hpp:77] Creating layer relu3
I0425 18:40:30.257689  2336 net.cpp:100] Creating Layer relu3
I0425 18:40:30.257706  2336 net.cpp:434] relu3 <- conv3
I0425 18:40:30.257735  2336 net.cpp:395] relu3 -> conv3 (in-place)
I0425 18:40:30.258221  2336 net.cpp:150] Setting up relu3
I0425 18:40:30.258244  2336 net.cpp:157] Top shape: 10 384 13 13 (648960)
I0425 18:40:30.258256  2336 net.cpp:165] Memory required for data: 58596920
I0425 18:40:30.258271  2336 layer_factory.hpp:77] Creating layer conv4
I0425 18:40:30.258291  2336 net.cpp:100] Creating Layer conv4
I0425 18:40:30.258304  2336 net.cpp:434] conv4 <- conv3
I0425 18:40:30.258329  2336 net.cpp:408] conv4 -> conv4
I0425 18:40:30.276412  2336 net.cpp:150] Setting up conv4
I0425 18:40:30.276444  2336 net.cpp:157] Top shape: 10 384 13 13 (648960)
I0425 18:40:30.276464  2336 net.cpp:165] Memory required for data: 61192760
I0425 18:40:30.276484  2336 layer_factory.hpp:77] Creating layer relu4
I0425 18:40:30.276501  2336 net.cpp:100] Creating Layer relu4
I0425 18:40:30.276517  2336 net.cpp:434] relu4 <- conv4
I0425 18:40:30.276533  2336 net.cpp:395] relu4 -> conv4 (in-place)
I0425 18:40:30.276863  2336 net.cpp:150] Setting up relu4
I0425 18:40:30.276882  2336 net.cpp:157] Top shape: 10 384 13 13 (648960)
I0425 18:40:30.276893  2336 net.cpp:165] Memory required for data: 63788600
I0425 18:40:30.276906  2336 layer_factory.hpp:77] Creating layer conv5
I0425 18:40:30.276928  2336 net.cpp:100] Creating Layer conv5
I0425 18:40:30.276948  2336 net.cpp:434] conv5 <- conv4
I0425 18:40:30.276964  2336 net.cpp:408] conv5 -> conv5
I0425 18:40:30.290062  2336 net.cpp:150] Setting up conv5
I0425 18:40:30.290093  2336 net.cpp:157] Top shape: 10 256 13 13 (432640)
I0425 18:40:30.290112  2336 net.cpp:165] Memory required for data: 65519160
I0425 18:40:30.290138  2336 layer_factory.hpp:77] Creating layer relu5
I0425 18:40:30.290163  2336 net.cpp:100] Creating Layer relu5
I0425 18:40:30.290175  2336 net.cpp:434] relu5 <- conv5
I0425 18:40:30.290191  2336 net.cpp:395] relu5 -> conv5 (in-place)
I0425 18:40:30.290540  2336 net.cpp:150] Setting up relu5
I0425 18:40:30.290562  2336 net.cpp:157] Top shape: 10 256 13 13 (432640)
I0425 18:40:30.290575  2336 net.cpp:165] Memory required for data: 67249720
I0425 18:40:30.290588  2336 layer_factory.hpp:77] Creating layer pool5
I0425 18:40:30.290603  2336 net.cpp:100] Creating Layer pool5
I0425 18:40:30.290623  2336 net.cpp:434] pool5 <- conv5
I0425 18:40:30.290644  2336 net.cpp:408] pool5 -> pool5
I0425 18:40:30.290724  2336 net.cpp:150] Setting up pool5
I0425 18:40:30.290740  2336 net.cpp:157] Top shape: 10 256 6 6 (92160)
I0425 18:40:30.290750  2336 net.cpp:165] Memory required for data: 67618360
I0425 18:40:30.290761  2336 layer_factory.hpp:77] Creating layer fc6
I0425 18:40:30.290801  2336 net.cpp:100] Creating Layer fc6
I0425 18:40:30.290813  2336 net.cpp:434] fc6 <- pool5
I0425 18:40:30.290832  2336 net.cpp:408] fc6 -> fc6
I0425 18:40:31.115510  2336 net.cpp:150] Setting up fc6
I0425 18:40:31.115561  2336 net.cpp:157] Top shape: 10 4096 (40960)
I0425 18:40:31.115574  2336 net.cpp:165] Memory required for data: 67782200
I0425 18:40:31.115598  2336 layer_factory.hpp:77] Creating layer relu6
I0425 18:40:31.115622  2336 net.cpp:100] Creating Layer relu6
I0425 18:40:31.115635  2336 net.cpp:434] relu6 <- fc6
I0425 18:40:31.115658  2336 net.cpp:395] relu6 -> fc6 (in-place)
I0425 18:40:31.116410  2336 net.cpp:150] Setting up relu6
I0425 18:40:31.116433  2336 net.cpp:157] Top shape: 10 4096 (40960)
I0425 18:40:31.116453  2336 net.cpp:165] Memory required for data: 67946040
I0425 18:40:31.116466  2336 layer_factory.hpp:77] Creating layer drop6
I0425 18:40:31.116489  2336 net.cpp:100] Creating Layer drop6
I0425 18:40:31.116502  2336 net.cpp:434] drop6 <- fc6
I0425 18:40:31.116523  2336 net.cpp:395] drop6 -> fc6 (in-place)
I0425 18:40:31.116575  2336 net.cpp:150] Setting up drop6
I0425 18:40:31.116592  2336 net.cpp:157] Top shape: 10 4096 (40960)
I0425 18:40:31.116610  2336 net.cpp:165] Memory required for data: 68109880
I0425 18:40:31.116621  2336 layer_factory.hpp:77] Creating layer fc7
I0425 18:40:31.116642  2336 net.cpp:100] Creating Layer fc7
I0425 18:40:31.116662  2336 net.cpp:434] fc7 <- fc6
I0425 18:40:31.116677  2336 net.cpp:408] fc7 -> fc7
I0425 18:40:31.484519  2336 net.cpp:150] Setting up fc7
I0425 18:40:31.484566  2336 net.cpp:157] Top shape: 10 4096 (40960)
I0425 18:40:31.484580  2336 net.cpp:165] Memory required for data: 68273720
I0425 18:40:31.484604  2336 layer_factory.hpp:77] Creating layer relu7
I0425 18:40:31.484624  2336 net.cpp:100] Creating Layer relu7
I0425 18:40:31.484637  2336 net.cpp:434] relu7 <- fc7
I0425 18:40:31.484663  2336 net.cpp:395] relu7 -> fc7 (in-place)
I0425 18:40:31.485080  2336 net.cpp:150] Setting up relu7
I0425 18:40:31.485103  2336 net.cpp:157] Top shape: 10 4096 (40960)
I0425 18:40:31.485116  2336 net.cpp:165] Memory required for data: 68437560
I0425 18:40:31.485131  2336 layer_factory.hpp:77] Creating layer drop7
I0425 18:40:31.485152  2336 net.cpp:100] Creating Layer drop7
I0425 18:40:31.485164  2336 net.cpp:434] drop7 <- fc7
I0425 18:40:31.485178  2336 net.cpp:395] drop7 -> fc7 (in-place)
I0425 18:40:31.485236  2336 net.cpp:150] Setting up drop7
I0425 18:40:31.485251  2336 net.cpp:157] Top shape: 10 4096 (40960)
I0425 18:40:31.485262  2336 net.cpp:165] Memory required for data: 68601400
I0425 18:40:31.485276  2336 layer_factory.hpp:77] Creating layer fc8_finalproject
I0425 18:40:31.485301  2336 net.cpp:100] Creating Layer fc8_finalproject
I0425 18:40:31.485317  2336 net.cpp:434] fc8_finalproject <- fc7
I0425 18:40:31.485333  2336 net.cpp:408] fc8_finalproject -> fc8_finalproject
I0425 18:40:31.486443  2336 net.cpp:150] Setting up fc8_finalproject
I0425 18:40:31.486459  2336 net.cpp:157] Top shape: 10 11 (110)
I0425 18:40:31.486479  2336 net.cpp:165] Memory required for data: 68601840
I0425 18:40:31.486497  2336 net.cpp:228] fc8_finalproject does not need backward computation.
I0425 18:40:31.486510  2336 net.cpp:228] drop7 does not need backward computation.
I0425 18:40:31.486523  2336 net.cpp:228] relu7 does not need backward computation.
I0425 18:40:31.486541  2336 net.cpp:228] fc7 does not need backward computation.
…
