…
W0424 02:46:22.491520  1560 _caffe.cpp:122] DEPRECATION WARNING - deprecated use of Python interface
W0424 02:46:22.491566  1560 _caffe.cpp:123] Use this instead (with the named "weights" parameter):
W0424 02:46:22.491577  1560 _caffe.cpp:125] Net('models/finalproject/deploy.prototxt', 1, weights='models/finalproject/finalproject_iter_90000.caffemodel')
I0424 02:46:22.515331  1560 net.cpp:58] Initializing net from parameters: 
name: "finalprojectCaffeNet"
state {
  phase: TEST
  level: 0
}
layer {
  name: "data"
  type: "Input"
  top: "data"
  input_param {
    shape {
      dim: 10
      dim: 3
      dim: 227
      dim: 227
    }
  }
}
layer {
  name: "conv1"
  type: "Convolution"
  bottom: "data"
  top: "conv1"
  param {
    lr_mult: 1
    decay_mult: 1
  }
  param {
    lr_mult: 2
    decay_mult: 0
  }
  convolution_param {
    num_output: 96
    kernel_size: 11
    stride: 4
    weight_filler {
      type: "gaussian"
      std: 0.01
    }
    bias_filler {
      type: "constant"
      value: 0
    }
  }
}
layer {
  name: "relu1"
  type: "ReLU"
  bottom: "conv1"
  top: "conv1"
}
layer {
  name: "pool1"
  type: "Pooling"
  bottom: "conv1"
  top: "pool1"
  pooling_param {
    pool: MAX
    kernel_size: 3
    stride: 2
  }
}
layer {
  name: "norm1"
  type: "LRN"
  bottom: "pool1"
  top: "norm1"
  lrn_param {
    local_size: 5
    alpha: 0.0001
    beta: 0.75
  }
}
layer {
  name: "conv2"
  type: "Convolution"
  bottom: "norm1"
  top: "conv2"
  param {
    lr_mult: 1
    decay_mult: 1
  }
  param {
    lr_mult: 2
    decay_mult: 0
  }
  convolution_param {
    num_output: 256
    pad: 2
    kernel_size: 5
    group: 2
    weight_filler {
      type: "gaussian"
      std: 0.01
    }
    bias_filler {
      type: "constant"
      value: 1
    }
  }
}
layer {
  name: "relu2"
  type: "ReLU"
  bottom: "conv2"
  top: "conv2"
}
layer {
  name: "pool2"
  type: "Pooling"
  bottom: "conv2"
  top: "pool2"
  pooling_param {
    pool: MAX
    kernel_size: 3
    stride: 2
  }
}
layer {
  name: "norm2"
  type: "LRN"
  bottom: "pool2"
  top: "norm2"
  lrn_param {
    local_size: 5
    alpha: 0.0001
    beta: 0.75
  }
}
layer {
  name: "conv3"
  type: "Convolution"
  bottom: "norm2"
  top: "conv3"
  param {
    lr_mult: 1
    decay_mult: 1
  }
  param {
    lr_mult: 2
    decay_mult: 0
  }
  convolution_param {
    num_output: 384
    pad: 1
    kernel_size: 3
    weight_filler {
      type: "gaussian"
      std: 0.01
    }
    bias_filler {
      type: "constant"
      value: 0
    }
  }
}
layer {
  name: "relu3"
  type: "ReLU"
  bottom: "conv3"
  top: "conv3"
}
layer {
  name: "conv4"
  type: "Convolution"
  bottom: "conv3"
  top: "conv4"
  param {
    lr_mult: 1
    decay_mult: 1
  }
  param {
    lr_mult: 2
    decay_mult: 0
  }
  convolution_param {
    num_output: 384
    pad: 1
    kernel_size: 3
    group: 2
    weight_filler {
      type: "gaussian"
      std: 0.01
    }
    bias_filler {
      type: "constant"
      value: 1
    }
  }
}
layer {
  name: "relu4"
  type: "ReLU"
  bottom: "conv4"
  top: "conv4"
}
layer {
  name: "conv5"
  type: "Convolution"
  bottom: "conv4"
  top: "conv5"
  param {
    lr_mult: 1
    decay_mult: 1
  }
  param {
    lr_mult: 2
    decay_mult: 0
  }
  convolution_param {
    num_output: 256
    pad: 1
    kernel_size: 3
    group: 2
    weight_filler {
      type: "gaussian"
      std: 0.01
    }
    bias_filler {
      type: "constant"
      value: 1
    }
  }
}
layer {
  name: "relu5"
  type: "ReLU"
  bottom: "conv5"
  top: "conv5"
}
layer {
  name: "pool5"
  type: "Pooling"
  bottom: "conv5"
  top: "pool5"
  pooling_param {
    pool: MAX
    kernel_size: 3
    stride: 2
  }
}
layer {
  name: "fc6"
  type: "InnerProduct"
  bottom: "pool5"
  top: "fc6"
  param {
    lr_mult: 1
    decay_mult: 1
  }
  param {
    lr_mult: 2
    decay_mult: 0
  }
  inner_product_param {
    num_output: 4096
    weight_filler {
      type: "gaussian"
      std: 0.005
    }
    bias_filler {
      type: "constant"
      value: 1
    }
  }
}
layer {
  name: "relu6"
  type: "ReLU"
  bottom: "fc6"
  top: "fc6"
}
layer {
  name: "drop6"
  type: "Dropout"
  bottom: "fc6"
  top: "fc6"
  dropout_param {
    dropout_ratio: 0.5
  }
}
layer {
  name: "fc7"
  type: "InnerProduct"
  bottom: "fc6"
  top: "fc7"
  param {
    lr_mult: 1
    decay_mult: 1
  }
  param {
    lr_mult: 2
    decay_mult: 0
  }
  inner_product_param {
    num_output: 4096
    weight_filler {
      type: "gaussian"
      std: 0.005
    }
    bias_filler {
      type: "constant"
      value: 1
    }
  }
}
layer {
  name: "relu7"
  type: "ReLU"
  bottom: "fc7"
  top: "fc7"
}
layer {
  name: "drop7"
  type: "Dropout"
  bottom: "fc7"
  top: "fc7"
  dropout_param {
    dropout_ratio: 0.5
  }
}
layer {
  name: "fc8_finalproject"
  type: "InnerProduct"
  bottom: "fc7"
  top: "fc8_finalproject"
  param {
    lr_mult: 10
    decay_mult: 1
  }
  param {
    lr_mult: 20
    decay_mult: 0
  }
  inner_product_param {
    num_output: 11
    weight_filler {
      type: "gaussian"
      std: 0.01
    }
    bias_filler {
      type: "constant"
      value: 0
    }
  }
}
I0424 02:46:22.515509  1560 layer_factory.hpp:77] Creating layer data
I0424 02:46:22.515566  1560 net.cpp:100] Creating Layer data
I0424 02:46:22.515588  1560 net.cpp:408] data -> data
I0424 02:46:22.535720  1560 net.cpp:150] Setting up data
I0424 02:46:22.535861  1560 net.cpp:157] Top shape: 10 3 227 227 (1545870)
I0424 02:46:22.535876  1560 net.cpp:165] Memory required for data: 6183480
I0424 02:46:22.535894  1560 layer_factory.hpp:77] Creating layer conv1
I0424 02:46:22.535938  1560 net.cpp:100] Creating Layer conv1
I0424 02:46:22.535955  1560 net.cpp:434] conv1 <- data
I0424 02:46:22.535984  1560 net.cpp:408] conv1 -> conv1
I0424 02:46:23.112215  1560 net.cpp:150] Setting up conv1
I0424 02:46:23.112263  1560 net.cpp:157] Top shape: 10 96 55 55 (2904000)
I0424 02:46:23.112287  1560 net.cpp:165] Memory required for data: 17799480
I0424 02:46:23.112323  1560 layer_factory.hpp:77] Creating layer relu1
I0424 02:46:23.112350  1560 net.cpp:100] Creating Layer relu1
I0424 02:46:23.112370  1560 net.cpp:434] relu1 <- conv1
I0424 02:46:23.112406  1560 net.cpp:395] relu1 -> conv1 (in-place)
I0424 02:46:23.112747  1560 net.cpp:150] Setting up relu1
I0424 02:46:23.112766  1560 net.cpp:157] Top shape: 10 96 55 55 (2904000)
I0424 02:46:23.112778  1560 net.cpp:165] Memory required for data: 29415480
I0424 02:46:23.112790  1560 layer_factory.hpp:77] Creating layer pool1
I0424 02:46:23.112815  1560 net.cpp:100] Creating Layer pool1
I0424 02:46:23.112828  1560 net.cpp:434] pool1 <- conv1
I0424 02:46:23.112843  1560 net.cpp:408] pool1 -> pool1
I0424 02:46:23.112931  1560 net.cpp:150] Setting up pool1
I0424 02:46:23.112947  1560 net.cpp:157] Top shape: 10 96 27 27 (699840)
I0424 02:46:23.112959  1560 net.cpp:165] Memory required for data: 32214840
I0424 02:46:23.112977  1560 layer_factory.hpp:77] Creating layer norm1
I0424 02:46:23.113000  1560 net.cpp:100] Creating Layer norm1
I0424 02:46:23.113014  1560 net.cpp:434] norm1 <- pool1
I0424 02:46:23.113035  1560 net.cpp:408] norm1 -> norm1
I0424 02:46:23.113566  1560 net.cpp:150] Setting up norm1
I0424 02:46:23.113587  1560 net.cpp:157] Top shape: 10 96 27 27 (699840)
I0424 02:46:23.113600  1560 net.cpp:165] Memory required for data: 35014200
I0424 02:46:23.113611  1560 layer_factory.hpp:77] Creating layer conv2
I0424 02:46:23.113646  1560 net.cpp:100] Creating Layer conv2
I0424 02:46:23.113661  1560 net.cpp:434] conv2 <- norm1
I0424 02:46:23.113677  1560 net.cpp:408] conv2 -> conv2
I0424 02:46:23.124495  1560 net.cpp:150] Setting up conv2
I0424 02:46:23.124531  1560 net.cpp:157] Top shape: 10 256 27 27 (1866240)
I0424 02:46:23.124544  1560 net.cpp:165] Memory required for data: 42479160
I0424 02:46:23.124577  1560 layer_factory.hpp:77] Creating layer relu2
I0424 02:46:23.124605  1560 net.cpp:100] Creating Layer relu2
I0424 02:46:23.124619  1560 net.cpp:434] relu2 <- conv2
I0424 02:46:23.124632  1560 net.cpp:395] relu2 -> conv2 (in-place)
I0424 02:46:23.125002  1560 net.cpp:150] Setting up relu2
I0424 02:46:23.125021  1560 net.cpp:157] Top shape: 10 256 27 27 (1866240)
I0424 02:46:23.125032  1560 net.cpp:165] Memory required for data: 49944120
I0424 02:46:23.125043  1560 layer_factory.hpp:77] Creating layer pool2
I0424 02:46:23.125073  1560 net.cpp:100] Creating Layer pool2
I0424 02:46:23.125085  1560 net.cpp:434] pool2 <- conv2
I0424 02:46:23.125102  1560 net.cpp:408] pool2 -> pool2
I0424 02:46:23.125200  1560 net.cpp:150] Setting up pool2
I0424 02:46:23.125214  1560 net.cpp:157] Top shape: 10 256 13 13 (432640)
I0424 02:46:23.125231  1560 net.cpp:165] Memory required for data: 51674680
I0424 02:46:23.125243  1560 layer_factory.hpp:77] Creating layer norm2
I0424 02:46:23.125267  1560 net.cpp:100] Creating Layer norm2
I0424 02:46:23.125285  1560 net.cpp:434] norm2 <- pool2
I0424 02:46:23.125300  1560 net.cpp:408] norm2 -> norm2
I0424 02:46:23.125866  1560 net.cpp:150] Setting up norm2
I0424 02:46:23.125891  1560 net.cpp:157] Top shape: 10 256 13 13 (432640)
I0424 02:46:23.125910  1560 net.cpp:165] Memory required for data: 53405240
I0424 02:46:23.125922  1560 layer_factory.hpp:77] Creating layer conv3
I0424 02:46:23.125952  1560 net.cpp:100] Creating Layer conv3
I0424 02:46:23.125972  1560 net.cpp:434] conv3 <- norm2
I0424 02:46:23.125993  1560 net.cpp:408] conv3 -> conv3
I0424 02:46:23.147649  1560 net.cpp:150] Setting up conv3
I0424 02:46:23.147682  1560 net.cpp:157] Top shape: 10 384 13 13 (648960)
I0424 02:46:23.147701  1560 net.cpp:165] Memory required for data: 56001080
I0424 02:46:23.147727  1560 layer_factory.hpp:77] Creating layer relu3
I0424 02:46:23.147744  1560 net.cpp:100] Creating Layer relu3
I0424 02:46:23.147761  1560 net.cpp:434] relu3 <- conv3
I0424 02:46:23.147779  1560 net.cpp:395] relu3 -> conv3 (in-place)
I0424 02:46:23.148299  1560 net.cpp:150] Setting up relu3
I0424 02:46:23.148320  1560 net.cpp:157] Top shape: 10 384 13 13 (648960)
I0424 02:46:23.148332  1560 net.cpp:165] Memory required for data: 58596920
I0424 02:46:23.148344  1560 layer_factory.hpp:77] Creating layer conv4
I0424 02:46:23.148380  1560 net.cpp:100] Creating Layer conv4
I0424 02:46:23.148393  1560 net.cpp:434] conv4 <- conv3
I0424 02:46:23.148412  1560 net.cpp:408] conv4 -> conv4
I0424 02:46:23.166712  1560 net.cpp:150] Setting up conv4
I0424 02:46:23.166746  1560 net.cpp:157] Top shape: 10 384 13 13 (648960)
I0424 02:46:23.166759  1560 net.cpp:165] Memory required for data: 61192760
I0424 02:46:23.166779  1560 layer_factory.hpp:77] Creating layer relu4
I0424 02:46:23.166800  1560 net.cpp:100] Creating Layer relu4
I0424 02:46:23.166812  1560 net.cpp:434] relu4 <- conv4
I0424 02:46:23.166841  1560 net.cpp:395] relu4 -> conv4 (in-place)
I0424 02:46:23.167181  1560 net.cpp:150] Setting up relu4
I0424 02:46:23.167199  1560 net.cpp:157] Top shape: 10 384 13 13 (648960)
I0424 02:46:23.167210  1560 net.cpp:165] Memory required for data: 63788600
I0424 02:46:23.167222  1560 layer_factory.hpp:77] Creating layer conv5
I0424 02:46:23.167254  1560 net.cpp:100] Creating Layer conv5
I0424 02:46:23.167268  1560 net.cpp:434] conv5 <- conv4
I0424 02:46:23.167287  1560 net.cpp:408] conv5 -> conv5
I0424 02:46:23.180480  1560 net.cpp:150] Setting up conv5
I0424 02:46:23.180510  1560 net.cpp:157] Top shape: 10 256 13 13 (432640)
I0424 02:46:23.180531  1560 net.cpp:165] Memory required for data: 65519160
I0424 02:46:23.180555  1560 layer_factory.hpp:77] Creating layer relu5
I0424 02:46:23.180580  1560 net.cpp:100] Creating Layer relu5
I0424 02:46:23.180593  1560 net.cpp:434] relu5 <- conv5
I0424 02:46:23.180621  1560 net.cpp:395] relu5 -> conv5 (in-place)
I0424 02:46:23.180958  1560 net.cpp:150] Setting up relu5
I0424 02:46:23.180979  1560 net.cpp:157] Top shape: 10 256 13 13 (432640)
I0424 02:46:23.180991  1560 net.cpp:165] Memory required for data: 67249720
I0424 02:46:23.181005  1560 layer_factory.hpp:77] Creating layer pool5
I0424 02:46:23.181027  1560 net.cpp:100] Creating Layer pool5
I0424 02:46:23.181040  1560 net.cpp:434] pool5 <- conv5
I0424 02:46:23.181058  1560 net.cpp:408] pool5 -> pool5
I0424 02:46:23.181134  1560 net.cpp:150] Setting up pool5
I0424 02:46:23.181159  1560 net.cpp:157] Top shape: 10 256 6 6 (92160)
I0424 02:46:23.181176  1560 net.cpp:165] Memory required for data: 67618360
I0424 02:46:23.181190  1560 layer_factory.hpp:77] Creating layer fc6
I0424 02:46:23.181212  1560 net.cpp:100] Creating Layer fc6
I0424 02:46:23.181226  1560 net.cpp:434] fc6 <- pool5
I0424 02:46:23.181244  1560 net.cpp:408] fc6 -> fc6
I0424 02:46:24.005614  1560 net.cpp:150] Setting up fc6
I0424 02:46:24.005666  1560 net.cpp:157] Top shape: 10 4096 (40960)
I0424 02:46:24.005681  1560 net.cpp:165] Memory required for data: 67782200
I0424 02:46:24.005704  1560 layer_factory.hpp:77] Creating layer relu6
I0424 02:46:24.005724  1560 net.cpp:100] Creating Layer relu6
I0424 02:46:24.005743  1560 net.cpp:434] relu6 <- fc6
I0424 02:46:24.005779  1560 net.cpp:395] relu6 -> fc6 (in-place)
I0424 02:46:24.006472  1560 net.cpp:150] Setting up relu6
I0424 02:46:24.006497  1560 net.cpp:157] Top shape: 10 4096 (40960)
I0424 02:46:24.006510  1560 net.cpp:165] Memory required for data: 67946040
I0424 02:46:24.006525  1560 layer_factory.hpp:77] Creating layer drop6
I0424 02:46:24.006554  1560 net.cpp:100] Creating Layer drop6
I0424 02:46:24.006568  1560 net.cpp:434] drop6 <- fc6
I0424 02:46:24.006582  1560 net.cpp:395] drop6 -> fc6 (in-place)
I0424 02:46:24.006644  1560 net.cpp:150] Setting up drop6
I0424 02:46:24.006659  1560 net.cpp:157] Top shape: 10 4096 (40960)
I0424 02:46:24.006678  1560 net.cpp:165] Memory required for data: 68109880
I0424 02:46:24.006690  1560 layer_factory.hpp:77] Creating layer fc7
I0424 02:46:24.006711  1560 net.cpp:100] Creating Layer fc7
I0424 02:46:24.006733  1560 net.cpp:434] fc7 <- fc6
I0424 02:46:24.006749  1560 net.cpp:408] fc7 -> fc7
I0424 02:46:24.374244  1560 net.cpp:150] Setting up fc7
I0424 02:46:24.374289  1560 net.cpp:157] Top shape: 10 4096 (40960)
I0424 02:46:24.374301  1560 net.cpp:165] Memory required for data: 68273720
I0424 02:46:24.374326  1560 layer_factory.hpp:77] Creating layer relu7
I0424 02:46:24.374346  1560 net.cpp:100] Creating Layer relu7
I0424 02:46:24.374359  1560 net.cpp:434] relu7 <- fc7
I0424 02:46:24.374405  1560 net.cpp:395] relu7 -> fc7 (in-place)
I0424 02:46:24.374809  1560 net.cpp:150] Setting up relu7
I0424 02:46:24.374830  1560 net.cpp:157] Top shape: 10 4096 (40960)
I0424 02:46:24.374842  1560 net.cpp:165] Memory required for data: 68437560
I0424 02:46:24.374853  1560 layer_factory.hpp:77] Creating layer drop7
I0424 02:46:24.374879  1560 net.cpp:100] Creating Layer drop7
I0424 02:46:24.374893  1560 net.cpp:434] drop7 <- fc7
I0424 02:46:24.374907  1560 net.cpp:395] drop7 -> fc7 (in-place)
I0424 02:46:24.374956  1560 net.cpp:150] Setting up drop7
I0424 02:46:24.374980  1560 net.cpp:157] Top shape: 10 4096 (40960)
I0424 02:46:24.374994  1560 net.cpp:165] Memory required for data: 68601400
I0424 02:46:24.375005  1560 layer_factory.hpp:77] Creating layer fc8_finalproject
I0424 02:46:24.375025  1560 net.cpp:100] Creating Layer fc8_finalproject
I0424 02:46:24.375037  1560 net.cpp:434] fc8_finalproject <- fc7
I0424 02:46:24.375056  1560 net.cpp:408] fc8_finalproject -> fc8_finalproject
I0424 02:46:24.376160  1560 net.cpp:150] Setting up fc8_finalproject
I0424 02:46:24.376176  1560 net.cpp:157] Top shape: 10 11 (110)
I0424 02:46:24.376196  1560 net.cpp:165] Memory required for data: 68601840
I0424 02:46:24.376216  1560 net.cpp:228] fc8_finalproject does not need backward computation.
I0424 02:46:24.376229  1560 net.cpp:228] drop7 does not need backward computation.
I0424 02:46:24.376243  1560 net.cpp:228] relu7 does not need backward computation.
I0424 02:46:24.376255  1560 net.cpp:228] fc7 does not need backward computation.
…
