…
W0419 20:53:54.279304  1314 _caffe.cpp:122] DEPRECATION WARNING - deprecated use of Python interface
W0419 20:53:54.279351  1314 _caffe.cpp:123] Use this instead (with the named "weights" parameter):
W0419 20:53:54.279363  1314 _caffe.cpp:125] Net('models/finalproject/deploy.prototxt', 1, weights='models/finalproject/finalproject_iter_90000.caffemodel')
I0419 20:53:54.302397  1314 net.cpp:58] Initializing net from parameters: 
name: "finalprojectCaffeNet"
state {
  phase: TEST
  level: 0
}
layer {
  name: "data"
  type: "Input"
  top: "data"
  input_param {
    shape {
      dim: 10
      dim: 3
      dim: 227
      dim: 227
    }
  }
}
layer {
  name: "conv1"
  type: "Convolution"
  bottom: "data"
  top: "conv1"
  param {
    lr_mult: 1
    decay_mult: 1
  }
  param {
    lr_mult: 2
    decay_mult: 0
  }
  convolution_param {
    num_output: 96
    kernel_size: 11
    stride: 4
    weight_filler {
      type: "gaussian"
      std: 0.01
    }
    bias_filler {
      type: "constant"
      value: 0
    }
  }
}
layer {
  name: "relu1"
  type: "ReLU"
  bottom: "conv1"
  top: "conv1"
}
layer {
  name: "pool1"
  type: "Pooling"
  bottom: "conv1"
  top: "pool1"
  pooling_param {
    pool: MAX
    kernel_size: 3
    stride: 2
  }
}
layer {
  name: "norm1"
  type: "LRN"
  bottom: "pool1"
  top: "norm1"
  lrn_param {
    local_size: 5
    alpha: 0.0001
    beta: 0.75
  }
}
layer {
  name: "conv2"
  type: "Convolution"
  bottom: "norm1"
  top: "conv2"
  param {
    lr_mult: 1
    decay_mult: 1
  }
  param {
    lr_mult: 2
    decay_mult: 0
  }
  convolution_param {
    num_output: 256
    pad: 2
    kernel_size: 5
    group: 2
    weight_filler {
      type: "gaussian"
      std: 0.01
    }
    bias_filler {
      type: "constant"
      value: 1
    }
  }
}
layer {
  name: "relu2"
  type: "ReLU"
  bottom: "conv2"
  top: "conv2"
}
layer {
  name: "pool2"
  type: "Pooling"
  bottom: "conv2"
  top: "pool2"
  pooling_param {
    pool: MAX
    kernel_size: 3
    stride: 2
  }
}
layer {
  name: "norm2"
  type: "LRN"
  bottom: "pool2"
  top: "norm2"
  lrn_param {
    local_size: 5
    alpha: 0.0001
    beta: 0.75
  }
}
layer {
  name: "conv3"
  type: "Convolution"
  bottom: "norm2"
  top: "conv3"
  param {
    lr_mult: 1
    decay_mult: 1
  }
  param {
    lr_mult: 2
    decay_mult: 0
  }
  convolution_param {
    num_output: 384
    pad: 1
    kernel_size: 3
    weight_filler {
      type: "gaussian"
      std: 0.01
    }
    bias_filler {
      type: "constant"
      value: 0
    }
  }
}
layer {
  name: "relu3"
  type: "ReLU"
  bottom: "conv3"
  top: "conv3"
}
layer {
  name: "conv4"
  type: "Convolution"
  bottom: "conv3"
  top: "conv4"
  param {
    lr_mult: 1
    decay_mult: 1
  }
  param {
    lr_mult: 2
    decay_mult: 0
  }
  convolution_param {
    num_output: 384
    pad: 1
    kernel_size: 3
    group: 2
    weight_filler {
      type: "gaussian"
      std: 0.01
    }
    bias_filler {
      type: "constant"
      value: 1
    }
  }
}
layer {
  name: "relu4"
  type: "ReLU"
  bottom: "conv4"
  top: "conv4"
}
layer {
  name: "conv5"
  type: "Convolution"
  bottom: "conv4"
  top: "conv5"
  param {
    lr_mult: 1
    decay_mult: 1
  }
  param {
    lr_mult: 2
    decay_mult: 0
  }
  convolution_param {
    num_output: 256
    pad: 1
    kernel_size: 3
    group: 2
    weight_filler {
      type: "gaussian"
      std: 0.01
    }
    bias_filler {
      type: "constant"
      value: 1
    }
  }
}
layer {
  name: "relu5"
  type: "ReLU"
  bottom: "conv5"
  top: "conv5"
}
layer {
  name: "pool5"
  type: "Pooling"
  bottom: "conv5"
  top: "pool5"
  pooling_param {
    pool: MAX
    kernel_size: 3
    stride: 2
  }
}
layer {
  name: "fc6"
  type: "InnerProduct"
  bottom: "pool5"
  top: "fc6"
  param {
    lr_mult: 1
    decay_mult: 1
  }
  param {
    lr_mult: 2
    decay_mult: 0
  }
  inner_product_param {
    num_output: 4096
    weight_filler {
      type: "gaussian"
      std: 0.005
    }
    bias_filler {
      type: "constant"
      value: 1
    }
  }
}
layer {
  name: "relu6"
  type: "ReLU"
  bottom: "fc6"
  top: "fc6"
}
layer {
  name: "drop6"
  type: "Dropout"
  bottom: "fc6"
  top: "fc6"
  dropout_param {
    dropout_ratio: 0.5
  }
}
layer {
  name: "fc7"
  type: "InnerProduct"
  bottom: "fc6"
  top: "fc7"
  param {
    lr_mult: 1
    decay_mult: 1
  }
  param {
    lr_mult: 2
    decay_mult: 0
  }
  inner_product_param {
    num_output: 4096
    weight_filler {
      type: "gaussian"
      std: 0.005
    }
    bias_filler {
      type: "constant"
      value: 1
    }
  }
}
layer {
  name: "relu7"
  type: "ReLU"
  bottom: "fc7"
  top: "fc7"
}
layer {
  name: "drop7"
  type: "Dropout"
  bottom: "fc7"
  top: "fc7"
  dropout_param {
    dropout_ratio: 0.5
  }
}
layer {
  name: "fc8_finalproject"
  type: "InnerProduct"
  bottom: "fc7"
  top: "fc8_finalproject"
  param {
    lr_mult: 10
    decay_mult: 1
  }
  param {
    lr_mult: 20
    decay_mult: 0
  }
  inner_product_param {
    num_output: 11
    weight_filler {
      type: "gaussian"
      std: 0.01
    }
    bias_filler {
      type: "constant"
      value: 0
    }
  }
}
I0419 20:53:54.302583  1314 layer_factory.hpp:77] Creating layer data
I0419 20:53:54.302640  1314 net.cpp:100] Creating Layer data
I0419 20:53:54.302662  1314 net.cpp:408] data -> data
I0419 20:53:54.322651  1314 net.cpp:150] Setting up data
I0419 20:53:54.322794  1314 net.cpp:157] Top shape: 10 3 227 227 (1545870)
I0419 20:53:54.322811  1314 net.cpp:165] Memory required for data: 6183480
I0419 20:53:54.322829  1314 layer_factory.hpp:77] Creating layer conv1
I0419 20:53:54.322865  1314 net.cpp:100] Creating Layer conv1
I0419 20:53:54.322880  1314 net.cpp:434] conv1 <- data
I0419 20:53:54.322911  1314 net.cpp:408] conv1 -> conv1
I0419 20:53:54.652148  1314 net.cpp:150] Setting up conv1
I0419 20:53:54.652197  1314 net.cpp:157] Top shape: 10 96 55 55 (2904000)
I0419 20:53:54.652210  1314 net.cpp:165] Memory required for data: 17799480
I0419 20:53:54.652246  1314 layer_factory.hpp:77] Creating layer relu1
I0419 20:53:54.652273  1314 net.cpp:100] Creating Layer relu1
I0419 20:53:54.652293  1314 net.cpp:434] relu1 <- conv1
I0419 20:53:54.652328  1314 net.cpp:395] relu1 -> conv1 (in-place)
I0419 20:53:54.652665  1314 net.cpp:150] Setting up relu1
I0419 20:53:54.652684  1314 net.cpp:157] Top shape: 10 96 55 55 (2904000)
I0419 20:53:54.652696  1314 net.cpp:165] Memory required for data: 29415480
I0419 20:53:54.652709  1314 layer_factory.hpp:77] Creating layer pool1
I0419 20:53:54.652734  1314 net.cpp:100] Creating Layer pool1
I0419 20:53:54.652746  1314 net.cpp:434] pool1 <- conv1
I0419 20:53:54.652761  1314 net.cpp:408] pool1 -> pool1
I0419 20:53:54.652853  1314 net.cpp:150] Setting up pool1
I0419 20:53:54.652868  1314 net.cpp:157] Top shape: 10 96 27 27 (699840)
I0419 20:53:54.652880  1314 net.cpp:165] Memory required for data: 32214840
I0419 20:53:54.652892  1314 layer_factory.hpp:77] Creating layer norm1
I0419 20:53:54.652923  1314 net.cpp:100] Creating Layer norm1
I0419 20:53:54.652936  1314 net.cpp:434] norm1 <- pool1
I0419 20:53:54.652951  1314 net.cpp:408] norm1 -> norm1
I0419 20:53:54.653481  1314 net.cpp:150] Setting up norm1
I0419 20:53:54.653502  1314 net.cpp:157] Top shape: 10 96 27 27 (699840)
I0419 20:53:54.653522  1314 net.cpp:165] Memory required for data: 35014200
I0419 20:53:54.653534  1314 layer_factory.hpp:77] Creating layer conv2
I0419 20:53:54.653570  1314 net.cpp:100] Creating Layer conv2
I0419 20:53:54.653584  1314 net.cpp:434] conv2 <- norm1
I0419 20:53:54.653600  1314 net.cpp:408] conv2 -> conv2
I0419 20:53:54.664444  1314 net.cpp:150] Setting up conv2
I0419 20:53:54.664479  1314 net.cpp:157] Top shape: 10 256 27 27 (1866240)
I0419 20:53:54.664494  1314 net.cpp:165] Memory required for data: 42479160
I0419 20:53:54.664525  1314 layer_factory.hpp:77] Creating layer relu2
I0419 20:53:54.664541  1314 net.cpp:100] Creating Layer relu2
I0419 20:53:54.664566  1314 net.cpp:434] relu2 <- conv2
I0419 20:53:54.664582  1314 net.cpp:395] relu2 -> conv2 (in-place)
I0419 20:53:54.664948  1314 net.cpp:150] Setting up relu2
I0419 20:53:54.664966  1314 net.cpp:157] Top shape: 10 256 27 27 (1866240)
I0419 20:53:54.664978  1314 net.cpp:165] Memory required for data: 49944120
I0419 20:53:54.664989  1314 layer_factory.hpp:77] Creating layer pool2
I0419 20:53:54.665019  1314 net.cpp:100] Creating Layer pool2
I0419 20:53:54.665031  1314 net.cpp:434] pool2 <- conv2
I0419 20:53:54.665046  1314 net.cpp:408] pool2 -> pool2
I0419 20:53:54.665138  1314 net.cpp:150] Setting up pool2
I0419 20:53:54.665153  1314 net.cpp:157] Top shape: 10 256 13 13 (432640)
I0419 20:53:54.665168  1314 net.cpp:165] Memory required for data: 51674680
I0419 20:53:54.665185  1314 layer_factory.hpp:77] Creating layer norm2
I0419 20:53:54.665207  1314 net.cpp:100] Creating Layer norm2
I0419 20:53:54.665220  1314 net.cpp:434] norm2 <- pool2
I0419 20:53:54.665235  1314 net.cpp:408] norm2 -> norm2
I0419 20:53:54.665812  1314 net.cpp:150] Setting up norm2
I0419 20:53:54.665838  1314 net.cpp:157] Top shape: 10 256 13 13 (432640)
I0419 20:53:54.665849  1314 net.cpp:165] Memory required for data: 53405240
I0419 20:53:54.665861  1314 layer_factory.hpp:77] Creating layer conv3
I0419 20:53:54.665892  1314 net.cpp:100] Creating Layer conv3
I0419 20:53:54.665905  1314 net.cpp:434] conv3 <- norm2
I0419 20:53:54.665925  1314 net.cpp:408] conv3 -> conv3
I0419 20:53:54.687584  1314 net.cpp:150] Setting up conv3
I0419 20:53:54.687618  1314 net.cpp:157] Top shape: 10 384 13 13 (648960)
I0419 20:53:54.687643  1314 net.cpp:165] Memory required for data: 56001080
I0419 20:53:54.687667  1314 layer_factory.hpp:77] Creating layer relu3
I0419 20:53:54.687685  1314 net.cpp:100] Creating Layer relu3
I0419 20:53:54.687703  1314 net.cpp:434] relu3 <- conv3
I0419 20:53:54.687736  1314 net.cpp:395] relu3 -> conv3 (in-place)
I0419 20:53:54.688241  1314 net.cpp:150] Setting up relu3
I0419 20:53:54.688263  1314 net.cpp:157] Top shape: 10 384 13 13 (648960)
I0419 20:53:54.688275  1314 net.cpp:165] Memory required for data: 58596920
I0419 20:53:54.688287  1314 layer_factory.hpp:77] Creating layer conv4
I0419 20:53:54.688323  1314 net.cpp:100] Creating Layer conv4
I0419 20:53:54.688336  1314 net.cpp:434] conv4 <- conv3
I0419 20:53:54.688365  1314 net.cpp:408] conv4 -> conv4
I0419 20:53:54.706576  1314 net.cpp:150] Setting up conv4
I0419 20:53:54.706611  1314 net.cpp:157] Top shape: 10 384 13 13 (648960)
I0419 20:53:54.706624  1314 net.cpp:165] Memory required for data: 61192760
I0419 20:53:54.706643  1314 layer_factory.hpp:77] Creating layer relu4
I0419 20:53:54.706665  1314 net.cpp:100] Creating Layer relu4
I0419 20:53:54.706676  1314 net.cpp:434] relu4 <- conv4
I0419 20:53:54.706703  1314 net.cpp:395] relu4 -> conv4 (in-place)
I0419 20:53:54.707041  1314 net.cpp:150] Setting up relu4
I0419 20:53:54.707059  1314 net.cpp:157] Top shape: 10 384 13 13 (648960)
I0419 20:53:54.707072  1314 net.cpp:165] Memory required for data: 63788600
I0419 20:53:54.707082  1314 layer_factory.hpp:77] Creating layer conv5
I0419 20:53:54.707115  1314 net.cpp:100] Creating Layer conv5
I0419 20:53:54.707129  1314 net.cpp:434] conv5 <- conv4
I0419 20:53:54.707149  1314 net.cpp:408] conv5 -> conv5
I0419 20:53:54.720367  1314 net.cpp:150] Setting up conv5
I0419 20:53:54.720397  1314 net.cpp:157] Top shape: 10 256 13 13 (432640)
I0419 20:53:54.720417  1314 net.cpp:165] Memory required for data: 65519160
I0419 20:53:54.720443  1314 layer_factory.hpp:77] Creating layer relu5
I0419 20:53:54.720468  1314 net.cpp:100] Creating Layer relu5
I0419 20:53:54.720480  1314 net.cpp:434] relu5 <- conv5
I0419 20:53:54.720507  1314 net.cpp:395] relu5 -> conv5 (in-place)
I0419 20:53:54.720844  1314 net.cpp:150] Setting up relu5
I0419 20:53:54.720865  1314 net.cpp:157] Top shape: 10 256 13 13 (432640)
I0419 20:53:54.720877  1314 net.cpp:165] Memory required for data: 67249720
I0419 20:53:54.720891  1314 layer_factory.hpp:77] Creating layer pool5
I0419 20:53:54.720913  1314 net.cpp:100] Creating Layer pool5
I0419 20:53:54.720927  1314 net.cpp:434] pool5 <- conv5
I0419 20:53:54.720944  1314 net.cpp:408] pool5 -> pool5
I0419 20:53:54.721020  1314 net.cpp:150] Setting up pool5
I0419 20:53:54.721050  1314 net.cpp:157] Top shape: 10 256 6 6 (92160)
I0419 20:53:54.721062  1314 net.cpp:165] Memory required for data: 67618360
I0419 20:53:54.721076  1314 layer_factory.hpp:77] Creating layer fc6
I0419 20:53:54.721098  1314 net.cpp:100] Creating Layer fc6
I0419 20:53:54.721110  1314 net.cpp:434] fc6 <- pool5
I0419 20:53:54.721130  1314 net.cpp:408] fc6 -> fc6
I0419 20:53:55.545898  1314 net.cpp:150] Setting up fc6
I0419 20:53:55.545950  1314 net.cpp:157] Top shape: 10 4096 (40960)
I0419 20:53:55.545965  1314 net.cpp:165] Memory required for data: 67782200
I0419 20:53:55.545989  1314 layer_factory.hpp:77] Creating layer relu6
I0419 20:53:55.546010  1314 net.cpp:100] Creating Layer relu6
I0419 20:53:55.546030  1314 net.cpp:434] relu6 <- fc6
I0419 20:53:55.546067  1314 net.cpp:395] relu6 -> fc6 (in-place)
I0419 20:53:55.546775  1314 net.cpp:150] Setting up relu6
I0419 20:53:55.546799  1314 net.cpp:157] Top shape: 10 4096 (40960)
I0419 20:53:55.546813  1314 net.cpp:165] Memory required for data: 67946040
I0419 20:53:55.546824  1314 layer_factory.hpp:77] Creating layer drop6
I0419 20:53:55.546846  1314 net.cpp:100] Creating Layer drop6
I0419 20:53:55.546861  1314 net.cpp:434] drop6 <- fc6
I0419 20:53:55.546883  1314 net.cpp:395] drop6 -> fc6 (in-place)
I0419 20:53:55.546932  1314 net.cpp:150] Setting up drop6
I0419 20:53:55.546949  1314 net.cpp:157] Top shape: 10 4096 (40960)
I0419 20:53:55.546967  1314 net.cpp:165] Memory required for data: 68109880
I0419 20:53:55.546979  1314 layer_factory.hpp:77] Creating layer fc7
I0419 20:53:55.547001  1314 net.cpp:100] Creating Layer fc7
I0419 20:53:55.547013  1314 net.cpp:434] fc7 <- fc6
I0419 20:53:55.547029  1314 net.cpp:408] fc7 -> fc7
I0419 20:53:55.914659  1314 net.cpp:150] Setting up fc7
I0419 20:53:55.914712  1314 net.cpp:157] Top shape: 10 4096 (40960)
I0419 20:53:55.914726  1314 net.cpp:165] Memory required for data: 68273720
I0419 20:53:55.914750  1314 layer_factory.hpp:77] Creating layer relu7
I0419 20:53:55.914770  1314 net.cpp:100] Creating Layer relu7
I0419 20:53:55.914790  1314 net.cpp:434] relu7 <- fc7
I0419 20:53:55.914830  1314 net.cpp:395] relu7 -> fc7 (in-place)
I0419 20:53:55.915235  1314 net.cpp:150] Setting up relu7
I0419 20:53:55.915256  1314 net.cpp:157] Top shape: 10 4096 (40960)
I0419 20:53:55.915268  1314 net.cpp:165] Memory required for data: 68437560
I0419 20:53:55.915279  1314 layer_factory.hpp:77] Creating layer drop7
I0419 20:53:55.915304  1314 net.cpp:100] Creating Layer drop7
I0419 20:53:55.915318  1314 net.cpp:434] drop7 <- fc7
I0419 20:53:55.915331  1314 net.cpp:395] drop7 -> fc7 (in-place)
I0419 20:53:55.915386  1314 net.cpp:150] Setting up drop7
I0419 20:53:55.915410  1314 net.cpp:157] Top shape: 10 4096 (40960)
I0419 20:53:55.915423  1314 net.cpp:165] Memory required for data: 68601400
I0419 20:53:55.915436  1314 layer_factory.hpp:77] Creating layer fc8_finalproject
I0419 20:53:55.915457  1314 net.cpp:100] Creating Layer fc8_finalproject
I0419 20:53:55.915468  1314 net.cpp:434] fc8_finalproject <- fc7
I0419 20:53:55.915487  1314 net.cpp:408] fc8_finalproject -> fc8_finalproject
I0419 20:53:55.916604  1314 net.cpp:150] Setting up fc8_finalproject
I0419 20:53:55.916621  1314 net.cpp:157] Top shape: 10 11 (110)
I0419 20:53:55.916640  1314 net.cpp:165] Memory required for data: 68601840
I0419 20:53:55.916659  1314 net.cpp:228] fc8_finalproject does not need backward computation.
I0419 20:53:55.916671  1314 net.cpp:228] drop7 does not need backward computation.
I0419 20:53:55.916687  1314 net.cpp:228] relu7 does not need backward computation.
I0419 20:53:55.916703  1314 net.cpp:228] fc7 does not need backward computation.
…
