…
W0424 02:58:32.394896 23938 _caffe.cpp:122] DEPRECATION WARNING - deprecated use of Python interface
W0424 02:58:32.394942 23938 _caffe.cpp:123] Use this instead (with the named "weights" parameter):
W0424 02:58:32.394953 23938 _caffe.cpp:125] Net('models/finalproject/deploy.prototxt', 1, weights='models/finalproject/finalproject_iter_90000.caffemodel')
I0424 02:58:32.418381 23938 net.cpp:58] Initializing net from parameters: 
name: "finalprojectCaffeNet"
state {
  phase: TEST
  level: 0
}
layer {
  name: "data"
  type: "Input"
  top: "data"
  input_param {
    shape {
      dim: 10
      dim: 3
      dim: 227
      dim: 227
    }
  }
}
layer {
  name: "conv1"
  type: "Convolution"
  bottom: "data"
  top: "conv1"
  param {
    lr_mult: 1
    decay_mult: 1
  }
  param {
    lr_mult: 2
    decay_mult: 0
  }
  convolution_param {
    num_output: 96
    kernel_size: 11
    stride: 4
    weight_filler {
      type: "gaussian"
      std: 0.01
    }
    bias_filler {
      type: "constant"
      value: 0
    }
  }
}
layer {
  name: "relu1"
  type: "ReLU"
  bottom: "conv1"
  top: "conv1"
}
layer {
  name: "pool1"
  type: "Pooling"
  bottom: "conv1"
  top: "pool1"
  pooling_param {
    pool: MAX
    kernel_size: 3
    stride: 2
  }
}
layer {
  name: "norm1"
  type: "LRN"
  bottom: "pool1"
  top: "norm1"
  lrn_param {
    local_size: 5
    alpha: 0.0001
    beta: 0.75
  }
}
layer {
  name: "conv2"
  type: "Convolution"
  bottom: "norm1"
  top: "conv2"
  param {
    lr_mult: 1
    decay_mult: 1
  }
  param {
    lr_mult: 2
    decay_mult: 0
  }
  convolution_param {
    num_output: 256
    pad: 2
    kernel_size: 5
    group: 2
    weight_filler {
      type: "gaussian"
      std: 0.01
    }
    bias_filler {
      type: "constant"
      value: 1
    }
  }
}
layer {
  name: "relu2"
  type: "ReLU"
  bottom: "conv2"
  top: "conv2"
}
layer {
  name: "pool2"
  type: "Pooling"
  bottom: "conv2"
  top: "pool2"
  pooling_param {
    pool: MAX
    kernel_size: 3
    stride: 2
  }
}
layer {
  name: "norm2"
  type: "LRN"
  bottom: "pool2"
  top: "norm2"
  lrn_param {
    local_size: 5
    alpha: 0.0001
    beta: 0.75
  }
}
layer {
  name: "conv3"
  type: "Convolution"
  bottom: "norm2"
  top: "conv3"
  param {
    lr_mult: 1
    decay_mult: 1
  }
  param {
    lr_mult: 2
    decay_mult: 0
  }
  convolution_param {
    num_output: 384
    pad: 1
    kernel_size: 3
    weight_filler {
      type: "gaussian"
      std: 0.01
    }
    bias_filler {
      type: "constant"
      value: 0
    }
  }
}
layer {
  name: "relu3"
  type: "ReLU"
  bottom: "conv3"
  top: "conv3"
}
layer {
  name: "conv4"
  type: "Convolution"
  bottom: "conv3"
  top: "conv4"
  param {
    lr_mult: 1
    decay_mult: 1
  }
  param {
    lr_mult: 2
    decay_mult: 0
  }
  convolution_param {
    num_output: 384
    pad: 1
    kernel_size: 3
    group: 2
    weight_filler {
      type: "gaussian"
      std: 0.01
    }
    bias_filler {
      type: "constant"
      value: 1
    }
  }
}
layer {
  name: "relu4"
  type: "ReLU"
  bottom: "conv4"
  top: "conv4"
}
layer {
  name: "conv5"
  type: "Convolution"
  bottom: "conv4"
  top: "conv5"
  param {
    lr_mult: 1
    decay_mult: 1
  }
  param {
    lr_mult: 2
    decay_mult: 0
  }
  convolution_param {
    num_output: 256
    pad: 1
    kernel_size: 3
    group: 2
    weight_filler {
      type: "gaussian"
      std: 0.01
    }
    bias_filler {
      type: "constant"
      value: 1
    }
  }
}
layer {
  name: "relu5"
  type: "ReLU"
  bottom: "conv5"
  top: "conv5"
}
layer {
  name: "pool5"
  type: "Pooling"
  bottom: "conv5"
  top: "pool5"
  pooling_param {
    pool: MAX
    kernel_size: 3
    stride: 2
  }
}
layer {
  name: "fc6"
  type: "InnerProduct"
  bottom: "pool5"
  top: "fc6"
  param {
    lr_mult: 1
    decay_mult: 1
  }
  param {
    lr_mult: 2
    decay_mult: 0
  }
  inner_product_param {
    num_output: 4096
    weight_filler {
      type: "gaussian"
      std: 0.005
    }
    bias_filler {
      type: "constant"
      value: 1
    }
  }
}
layer {
  name: "relu6"
  type: "ReLU"
  bottom: "fc6"
  top: "fc6"
}
layer {
  name: "drop6"
  type: "Dropout"
  bottom: "fc6"
  top: "fc6"
  dropout_param {
    dropout_ratio: 0.5
  }
}
layer {
  name: "fc7"
  type: "InnerProduct"
  bottom: "fc6"
  top: "fc7"
  param {
    lr_mult: 1
    decay_mult: 1
  }
  param {
    lr_mult: 2
    decay_mult: 0
  }
  inner_product_param {
    num_output: 4096
    weight_filler {
      type: "gaussian"
      std: 0.005
    }
    bias_filler {
      type: "constant"
      value: 1
    }
  }
}
layer {
  name: "relu7"
  type: "ReLU"
  bottom: "fc7"
  top: "fc7"
}
layer {
  name: "drop7"
  type: "Dropout"
  bottom: "fc7"
  top: "fc7"
  dropout_param {
    dropout_ratio: 0.5
  }
}
layer {
  name: "fc8_finalproject"
  type: "InnerProduct"
  bottom: "fc7"
  top: "fc8_finalproject"
  param {
    lr_mult: 10
    decay_mult: 1
  }
  param {
    lr_mult: 20
    decay_mult: 0
  }
  inner_product_param {
    num_output: 11
    weight_filler {
      type: "gaussian"
      std: 0.01
    }
    bias_filler {
      type: "constant"
      value: 0
    }
  }
}
I0424 02:58:32.418560 23938 layer_factory.hpp:77] Creating layer data
I0424 02:58:32.418617 23938 net.cpp:100] Creating Layer data
I0424 02:58:32.418639 23938 net.cpp:408] data -> data
I0424 02:58:32.438640 23938 net.cpp:150] Setting up data
I0424 02:58:32.438783 23938 net.cpp:157] Top shape: 10 3 227 227 (1545870)
I0424 02:58:32.438801 23938 net.cpp:165] Memory required for data: 6183480
I0424 02:58:32.438817 23938 layer_factory.hpp:77] Creating layer conv1
I0424 02:58:32.438851 23938 net.cpp:100] Creating Layer conv1
I0424 02:58:32.438868 23938 net.cpp:434] conv1 <- data
I0424 02:58:32.438897 23938 net.cpp:408] conv1 -> conv1
I0424 02:58:32.903421 23938 net.cpp:150] Setting up conv1
I0424 02:58:32.903470 23938 net.cpp:157] Top shape: 10 96 55 55 (2904000)
I0424 02:58:32.903494 23938 net.cpp:165] Memory required for data: 17799480
I0424 02:58:32.903529 23938 layer_factory.hpp:77] Creating layer relu1
I0424 02:58:32.903563 23938 net.cpp:100] Creating Layer relu1
I0424 02:58:32.903576 23938 net.cpp:434] relu1 <- conv1
I0424 02:58:32.903611 23938 net.cpp:395] relu1 -> conv1 (in-place)
I0424 02:58:32.903949 23938 net.cpp:150] Setting up relu1
I0424 02:58:32.903967 23938 net.cpp:157] Top shape: 10 96 55 55 (2904000)
I0424 02:58:32.903980 23938 net.cpp:165] Memory required for data: 29415480
I0424 02:58:32.903991 23938 layer_factory.hpp:77] Creating layer pool1
I0424 02:58:32.904016 23938 net.cpp:100] Creating Layer pool1
I0424 02:58:32.904029 23938 net.cpp:434] pool1 <- conv1
I0424 02:58:32.904044 23938 net.cpp:408] pool1 -> pool1
I0424 02:58:32.904134 23938 net.cpp:150] Setting up pool1
I0424 02:58:32.904151 23938 net.cpp:157] Top shape: 10 96 27 27 (699840)
I0424 02:58:32.904162 23938 net.cpp:165] Memory required for data: 32214840
I0424 02:58:32.904175 23938 layer_factory.hpp:77] Creating layer norm1
I0424 02:58:32.904206 23938 net.cpp:100] Creating Layer norm1
I0424 02:58:32.904218 23938 net.cpp:434] norm1 <- pool1
I0424 02:58:32.904232 23938 net.cpp:408] norm1 -> norm1
I0424 02:58:32.904759 23938 net.cpp:150] Setting up norm1
I0424 02:58:32.904781 23938 net.cpp:157] Top shape: 10 96 27 27 (699840)
I0424 02:58:32.904798 23938 net.cpp:165] Memory required for data: 35014200
I0424 02:58:32.904810 23938 layer_factory.hpp:77] Creating layer conv2
I0424 02:58:32.904846 23938 net.cpp:100] Creating Layer conv2
I0424 02:58:32.904860 23938 net.cpp:434] conv2 <- norm1
I0424 02:58:32.904875 23938 net.cpp:408] conv2 -> conv2
I0424 02:58:32.915678 23938 net.cpp:150] Setting up conv2
I0424 02:58:32.915709 23938 net.cpp:157] Top shape: 10 256 27 27 (1866240)
I0424 02:58:32.915729 23938 net.cpp:165] Memory required for data: 42479160
I0424 02:58:32.915756 23938 layer_factory.hpp:77] Creating layer relu2
I0424 02:58:32.915778 23938 net.cpp:100] Creating Layer relu2
I0424 02:58:32.915802 23938 net.cpp:434] relu2 <- conv2
I0424 02:58:32.915818 23938 net.cpp:395] relu2 -> conv2 (in-place)
I0424 02:58:32.916175 23938 net.cpp:150] Setting up relu2
I0424 02:58:32.916194 23938 net.cpp:157] Top shape: 10 256 27 27 (1866240)
I0424 02:58:32.916206 23938 net.cpp:165] Memory required for data: 49944120
I0424 02:58:32.916218 23938 layer_factory.hpp:77] Creating layer pool2
I0424 02:58:32.916245 23938 net.cpp:100] Creating Layer pool2
I0424 02:58:32.916257 23938 net.cpp:434] pool2 <- conv2
I0424 02:58:32.916272 23938 net.cpp:408] pool2 -> pool2
I0424 02:58:32.916368 23938 net.cpp:150] Setting up pool2
I0424 02:58:32.916384 23938 net.cpp:157] Top shape: 10 256 13 13 (432640)
I0424 02:58:32.916395 23938 net.cpp:165] Memory required for data: 51674680
I0424 02:58:32.916406 23938 layer_factory.hpp:77] Creating layer norm2
I0424 02:58:32.916436 23938 net.cpp:100] Creating Layer norm2
I0424 02:58:32.916450 23938 net.cpp:434] norm2 <- pool2
I0424 02:58:32.916463 23938 net.cpp:408] norm2 -> norm2
I0424 02:58:32.917042 23938 net.cpp:150] Setting up norm2
I0424 02:58:32.917068 23938 net.cpp:157] Top shape: 10 256 13 13 (432640)
I0424 02:58:32.917079 23938 net.cpp:165] Memory required for data: 53405240
I0424 02:58:32.917095 23938 layer_factory.hpp:77] Creating layer conv3
I0424 02:58:32.917124 23938 net.cpp:100] Creating Layer conv3
I0424 02:58:32.917136 23938 net.cpp:434] conv3 <- norm2
I0424 02:58:32.917155 23938 net.cpp:408] conv3 -> conv3
I0424 02:58:32.938844 23938 net.cpp:150] Setting up conv3
I0424 02:58:32.938879 23938 net.cpp:157] Top shape: 10 384 13 13 (648960)
I0424 02:58:32.938899 23938 net.cpp:165] Memory required for data: 56001080
I0424 02:58:32.938925 23938 layer_factory.hpp:77] Creating layer relu3
I0424 02:58:32.938946 23938 net.cpp:100] Creating Layer relu3
I0424 02:58:32.938958 23938 net.cpp:434] relu3 <- conv3
I0424 02:58:32.938976 23938 net.cpp:395] relu3 -> conv3 (in-place)
I0424 02:58:32.939496 23938 net.cpp:150] Setting up relu3
I0424 02:58:32.939518 23938 net.cpp:157] Top shape: 10 384 13 13 (648960)
I0424 02:58:32.939530 23938 net.cpp:165] Memory required for data: 58596920
I0424 02:58:32.939541 23938 layer_factory.hpp:77] Creating layer conv4
I0424 02:58:32.939577 23938 net.cpp:100] Creating Layer conv4
I0424 02:58:32.939590 23938 net.cpp:434] conv4 <- conv3
I0424 02:58:32.939610 23938 net.cpp:408] conv4 -> conv4
I0424 02:58:32.957828 23938 net.cpp:150] Setting up conv4
I0424 02:58:32.957865 23938 net.cpp:157] Top shape: 10 384 13 13 (648960)
I0424 02:58:32.957878 23938 net.cpp:165] Memory required for data: 61192760
I0424 02:58:32.957897 23938 layer_factory.hpp:77] Creating layer relu4
I0424 02:58:32.957919 23938 net.cpp:100] Creating Layer relu4
I0424 02:58:32.957931 23938 net.cpp:434] relu4 <- conv4
I0424 02:58:32.957959 23938 net.cpp:395] relu4 -> conv4 (in-place)
I0424 02:58:32.958298 23938 net.cpp:150] Setting up relu4
I0424 02:58:32.958317 23938 net.cpp:157] Top shape: 10 384 13 13 (648960)
I0424 02:58:32.958329 23938 net.cpp:165] Memory required for data: 63788600
I0424 02:58:32.958340 23938 layer_factory.hpp:77] Creating layer conv5
I0424 02:58:32.958374 23938 net.cpp:100] Creating Layer conv5
I0424 02:58:32.958387 23938 net.cpp:434] conv5 <- conv4
I0424 02:58:32.958406 23938 net.cpp:408] conv5 -> conv5
I0424 02:58:32.971608 23938 net.cpp:150] Setting up conv5
I0424 02:58:32.971638 23938 net.cpp:157] Top shape: 10 256 13 13 (432640)
I0424 02:58:32.971659 23938 net.cpp:165] Memory required for data: 65519160
I0424 02:58:32.971684 23938 layer_factory.hpp:77] Creating layer relu5
I0424 02:58:32.971709 23938 net.cpp:100] Creating Layer relu5
I0424 02:58:32.971734 23938 net.cpp:434] relu5 <- conv5
I0424 02:58:32.971748 23938 net.cpp:395] relu5 -> conv5 (in-place)
I0424 02:58:32.972088 23938 net.cpp:150] Setting up relu5
I0424 02:58:32.972110 23938 net.cpp:157] Top shape: 10 256 13 13 (432640)
I0424 02:58:32.972122 23938 net.cpp:165] Memory required for data: 67249720
I0424 02:58:32.972136 23938 layer_factory.hpp:77] Creating layer pool5
I0424 02:58:32.972158 23938 net.cpp:100] Creating Layer pool5
I0424 02:58:32.972170 23938 net.cpp:434] pool5 <- conv5
I0424 02:58:32.972189 23938 net.cpp:408] pool5 -> pool5
I0424 02:58:32.972266 23938 net.cpp:150] Setting up pool5
I0424 02:58:32.972297 23938 net.cpp:157] Top shape: 10 256 6 6 (92160)
I0424 02:58:32.972312 23938 net.cpp:165] Memory required for data: 67618360
I0424 02:58:32.972323 23938 layer_factory.hpp:77] Creating layer fc6
I0424 02:58:32.972345 23938 net.cpp:100] Creating Layer fc6
I0424 02:58:32.972357 23938 net.cpp:434] fc6 <- pool5
I0424 02:58:32.972381 23938 net.cpp:408] fc6 -> fc6
I0424 02:58:33.796573 23938 net.cpp:150] Setting up fc6
I0424 02:58:33.796622 23938 net.cpp:157] Top shape: 10 4096 (40960)
I0424 02:58:33.796644 23938 net.cpp:165] Memory required for data: 67782200
I0424 02:58:33.796669 23938 layer_factory.hpp:77] Creating layer relu6
I0424 02:58:33.796689 23938 net.cpp:100] Creating Layer relu6
I0424 02:58:33.796702 23938 net.cpp:434] relu6 <- fc6
I0424 02:58:33.796725 23938 net.cpp:395] relu6 -> fc6 (in-place)
I0424 02:58:33.797441 23938 net.cpp:150] Setting up relu6
I0424 02:58:33.797466 23938 net.cpp:157] Top shape: 10 4096 (40960)
I0424 02:58:33.797484 23938 net.cpp:165] Memory required for data: 67946040
I0424 02:58:33.797497 23938 layer_factory.hpp:77] Creating layer drop6
I0424 02:58:33.797518 23938 net.cpp:100] Creating Layer drop6
I0424 02:58:33.797533 23938 net.cpp:434] drop6 <- fc6
I0424 02:58:33.797555 23938 net.cpp:395] drop6 -> fc6 (in-place)
I0424 02:58:33.797605 23938 net.cpp:150] Setting up drop6
I0424 02:58:33.797627 23938 net.cpp:157] Top shape: 10 4096 (40960)
I0424 02:58:33.797639 23938 net.cpp:165] Memory required for data: 68109880
I0424 02:58:33.797652 23938 layer_factory.hpp:77] Creating layer fc7
I0424 02:58:33.797672 23938 net.cpp:100] Creating Layer fc7
I0424 02:58:33.797684 23938 net.cpp:434] fc7 <- fc6
I0424 02:58:33.797703 23938 net.cpp:408] fc7 -> fc7
I0424 02:58:34.164322 23938 net.cpp:150] Setting up fc7
I0424 02:58:34.164369 23938 net.cpp:157] Top shape: 10 4096 (40960)
I0424 02:58:34.164383 23938 net.cpp:165] Memory required for data: 68273720
I0424 02:58:34.164407 23938 layer_factory.hpp:77] Creating layer relu7
I0424 02:58:34.164427 23938 net.cpp:100] Creating Layer relu7
I0424 02:58:34.164440 23938 net.cpp:434] relu7 <- fc7
I0424 02:58:34.164486 23938 net.cpp:395] relu7 -> fc7 (in-place)
I0424 02:58:34.164893 23938 net.cpp:150] Setting up relu7
I0424 02:58:34.164916 23938 net.cpp:157] Top shape: 10 4096 (40960)
I0424 02:58:34.164928 23938 net.cpp:165] Memory required for data: 68437560
I0424 02:58:34.164939 23938 layer_factory.hpp:77] Creating layer drop7
I0424 02:58:34.164964 23938 net.cpp:100] Creating Layer drop7
I0424 02:58:34.164978 23938 net.cpp:434] drop7 <- fc7
I0424 02:58:34.164991 23938 net.cpp:395] drop7 -> fc7 (in-place)
I0424 02:58:34.165046 23938 net.cpp:150] Setting up drop7
I0424 02:58:34.165071 23938 net.cpp:157] Top shape: 10 4096 (40960)
I0424 02:58:34.165083 23938 net.cpp:165] Memory required for data: 68601400
I0424 02:58:34.165094 23938 layer_factory.hpp:77] Creating layer fc8_finalproject
I0424 02:58:34.165115 23938 net.cpp:100] Creating Layer fc8_finalproject
I0424 02:58:34.165127 23938 net.cpp:434] fc8_finalproject <- fc7
I0424 02:58:34.165145 23938 net.cpp:408] fc8_finalproject -> fc8_finalproject
I0424 02:58:34.166249 23938 net.cpp:150] Setting up fc8_finalproject
I0424 02:58:34.166266 23938 net.cpp:157] Top shape: 10 11 (110)
I0424 02:58:34.166278 23938 net.cpp:165] Memory required for data: 68601840
I0424 02:58:34.166296 23938 net.cpp:228] fc8_finalproject does not need backward computation.
I0424 02:58:34.166311 23938 net.cpp:228] drop7 does not need backward computation.
I0424 02:58:34.166328 23938 net.cpp:228] relu7 does not need backward computation.
I0424 02:58:34.166340 23938 net.cpp:228] fc7 does not need backward computation.
…
