…
W0424 02:25:42.680485 31020 _caffe.cpp:122] DEPRECATION WARNING - deprecated use of Python interface
W0424 02:25:42.680531 31020 _caffe.cpp:123] Use this instead (with the named "weights" parameter):
W0424 02:25:42.680541 31020 _caffe.cpp:125] Net('models/finalproject/deploy.prototxt', 1, weights='models/finalproject/finalproject_iter_90000.caffemodel')
I0424 02:25:42.704521 31020 net.cpp:58] Initializing net from parameters: 
name: "finalprojectCaffeNet"
state {
  phase: TEST
  level: 0
}
layer {
  name: "data"
  type: "Input"
  top: "data"
  input_param {
    shape {
      dim: 10
      dim: 3
      dim: 227
      dim: 227
    }
  }
}
layer {
  name: "conv1"
  type: "Convolution"
  bottom: "data"
  top: "conv1"
  param {
    lr_mult: 1
    decay_mult: 1
  }
  param {
    lr_mult: 2
    decay_mult: 0
  }
  convolution_param {
    num_output: 96
    kernel_size: 11
    stride: 4
    weight_filler {
      type: "gaussian"
      std: 0.01
    }
    bias_filler {
      type: "constant"
      value: 0
    }
  }
}
layer {
  name: "relu1"
  type: "ReLU"
  bottom: "conv1"
  top: "conv1"
}
layer {
  name: "pool1"
  type: "Pooling"
  bottom: "conv1"
  top: "pool1"
  pooling_param {
    pool: MAX
    kernel_size: 3
    stride: 2
  }
}
layer {
  name: "norm1"
  type: "LRN"
  bottom: "pool1"
  top: "norm1"
  lrn_param {
    local_size: 5
    alpha: 0.0001
    beta: 0.75
  }
}
layer {
  name: "conv2"
  type: "Convolution"
  bottom: "norm1"
  top: "conv2"
  param {
    lr_mult: 1
    decay_mult: 1
  }
  param {
    lr_mult: 2
    decay_mult: 0
  }
  convolution_param {
    num_output: 256
    pad: 2
    kernel_size: 5
    group: 2
    weight_filler {
      type: "gaussian"
      std: 0.01
    }
    bias_filler {
      type: "constant"
      value: 1
    }
  }
}
layer {
  name: "relu2"
  type: "ReLU"
  bottom: "conv2"
  top: "conv2"
}
layer {
  name: "pool2"
  type: "Pooling"
  bottom: "conv2"
  top: "pool2"
  pooling_param {
    pool: MAX
    kernel_size: 3
    stride: 2
  }
}
layer {
  name: "norm2"
  type: "LRN"
  bottom: "pool2"
  top: "norm2"
  lrn_param {
    local_size: 5
    alpha: 0.0001
    beta: 0.75
  }
}
layer {
  name: "conv3"
  type: "Convolution"
  bottom: "norm2"
  top: "conv3"
  param {
    lr_mult: 1
    decay_mult: 1
  }
  param {
    lr_mult: 2
    decay_mult: 0
  }
  convolution_param {
    num_output: 384
    pad: 1
    kernel_size: 3
    weight_filler {
      type: "gaussian"
      std: 0.01
    }
    bias_filler {
      type: "constant"
      value: 0
    }
  }
}
layer {
  name: "relu3"
  type: "ReLU"
  bottom: "conv3"
  top: "conv3"
}
layer {
  name: "conv4"
  type: "Convolution"
  bottom: "conv3"
  top: "conv4"
  param {
    lr_mult: 1
    decay_mult: 1
  }
  param {
    lr_mult: 2
    decay_mult: 0
  }
  convolution_param {
    num_output: 384
    pad: 1
    kernel_size: 3
    group: 2
    weight_filler {
      type: "gaussian"
      std: 0.01
    }
    bias_filler {
      type: "constant"
      value: 1
    }
  }
}
layer {
  name: "relu4"
  type: "ReLU"
  bottom: "conv4"
  top: "conv4"
}
layer {
  name: "conv5"
  type: "Convolution"
  bottom: "conv4"
  top: "conv5"
  param {
    lr_mult: 1
    decay_mult: 1
  }
  param {
    lr_mult: 2
    decay_mult: 0
  }
  convolution_param {
    num_output: 256
    pad: 1
    kernel_size: 3
    group: 2
    weight_filler {
      type: "gaussian"
      std: 0.01
    }
    bias_filler {
      type: "constant"
      value: 1
    }
  }
}
layer {
  name: "relu5"
  type: "ReLU"
  bottom: "conv5"
  top: "conv5"
}
layer {
  name: "pool5"
  type: "Pooling"
  bottom: "conv5"
  top: "pool5"
  pooling_param {
    pool: MAX
    kernel_size: 3
    stride: 2
  }
}
layer {
  name: "fc6"
  type: "InnerProduct"
  bottom: "pool5"
  top: "fc6"
  param {
    lr_mult: 1
    decay_mult: 1
  }
  param {
    lr_mult: 2
    decay_mult: 0
  }
  inner_product_param {
    num_output: 4096
    weight_filler {
      type: "gaussian"
      std: 0.005
    }
    bias_filler {
      type: "constant"
      value: 1
    }
  }
}
layer {
  name: "relu6"
  type: "ReLU"
  bottom: "fc6"
  top: "fc6"
}
layer {
  name: "drop6"
  type: "Dropout"
  bottom: "fc6"
  top: "fc6"
  dropout_param {
    dropout_ratio: 0.5
  }
}
layer {
  name: "fc7"
  type: "InnerProduct"
  bottom: "fc6"
  top: "fc7"
  param {
    lr_mult: 1
    decay_mult: 1
  }
  param {
    lr_mult: 2
    decay_mult: 0
  }
  inner_product_param {
    num_output: 4096
    weight_filler {
      type: "gaussian"
      std: 0.005
    }
    bias_filler {
      type: "constant"
      value: 1
    }
  }
}
layer {
  name: "relu7"
  type: "ReLU"
  bottom: "fc7"
  top: "fc7"
}
layer {
  name: "drop7"
  type: "Dropout"
  bottom: "fc7"
  top: "fc7"
  dropout_param {
    dropout_ratio: 0.5
  }
}
layer {
  name: "fc8_finalproject"
  type: "InnerProduct"
  bottom: "fc7"
  top: "fc8_finalproject"
  param {
    lr_mult: 10
    decay_mult: 1
  }
  param {
    lr_mult: 20
    decay_mult: 0
  }
  inner_product_param {
    num_output: 11
    weight_filler {
      type: "gaussian"
      std: 0.01
    }
    bias_filler {
      type: "constant"
      value: 0
    }
  }
}
I0424 02:25:42.704700 31020 layer_factory.hpp:77] Creating layer data
I0424 02:25:42.704762 31020 net.cpp:100] Creating Layer data
I0424 02:25:42.704785 31020 net.cpp:408] data -> data
I0424 02:25:42.724794 31020 net.cpp:150] Setting up data
I0424 02:25:42.724939 31020 net.cpp:157] Top shape: 10 3 227 227 (1545870)
I0424 02:25:42.724956 31020 net.cpp:165] Memory required for data: 6183480
I0424 02:25:42.724972 31020 layer_factory.hpp:77] Creating layer conv1
I0424 02:25:42.725018 31020 net.cpp:100] Creating Layer conv1
I0424 02:25:42.725034 31020 net.cpp:434] conv1 <- data
I0424 02:25:42.725064 31020 net.cpp:408] conv1 -> conv1
I0424 02:25:43.829303 31020 net.cpp:150] Setting up conv1
I0424 02:25:43.829352 31020 net.cpp:157] Top shape: 10 96 55 55 (2904000)
I0424 02:25:43.829375 31020 net.cpp:165] Memory required for data: 17799480
I0424 02:25:43.829411 31020 layer_factory.hpp:77] Creating layer relu1
I0424 02:25:43.829444 31020 net.cpp:100] Creating Layer relu1
I0424 02:25:43.829458 31020 net.cpp:434] relu1 <- conv1
I0424 02:25:43.829493 31020 net.cpp:395] relu1 -> conv1 (in-place)
I0424 02:25:43.829830 31020 net.cpp:150] Setting up relu1
I0424 02:25:43.829849 31020 net.cpp:157] Top shape: 10 96 55 55 (2904000)
I0424 02:25:43.829861 31020 net.cpp:165] Memory required for data: 29415480
I0424 02:25:43.829872 31020 layer_factory.hpp:77] Creating layer pool1
I0424 02:25:43.829897 31020 net.cpp:100] Creating Layer pool1
I0424 02:25:43.829910 31020 net.cpp:434] pool1 <- conv1
I0424 02:25:43.829924 31020 net.cpp:408] pool1 -> pool1
I0424 02:25:43.830024 31020 net.cpp:150] Setting up pool1
I0424 02:25:43.830041 31020 net.cpp:157] Top shape: 10 96 27 27 (699840)
I0424 02:25:43.830054 31020 net.cpp:165] Memory required for data: 32214840
I0424 02:25:43.830072 31020 layer_factory.hpp:77] Creating layer norm1
I0424 02:25:43.830096 31020 net.cpp:100] Creating Layer norm1
I0424 02:25:43.830109 31020 net.cpp:434] norm1 <- pool1
I0424 02:25:43.830130 31020 net.cpp:408] norm1 -> norm1
I0424 02:25:43.830658 31020 net.cpp:150] Setting up norm1
I0424 02:25:43.830679 31020 net.cpp:157] Top shape: 10 96 27 27 (699840)
I0424 02:25:43.830691 31020 net.cpp:165] Memory required for data: 35014200
I0424 02:25:43.830703 31020 layer_factory.hpp:77] Creating layer conv2
I0424 02:25:43.830739 31020 net.cpp:100] Creating Layer conv2
I0424 02:25:43.830751 31020 net.cpp:434] conv2 <- norm1
I0424 02:25:43.830767 31020 net.cpp:408] conv2 -> conv2
I0424 02:25:43.841584 31020 net.cpp:150] Setting up conv2
I0424 02:25:43.841620 31020 net.cpp:157] Top shape: 10 256 27 27 (1866240)
I0424 02:25:43.841634 31020 net.cpp:165] Memory required for data: 42479160
I0424 02:25:43.841665 31020 layer_factory.hpp:77] Creating layer relu2
I0424 02:25:43.841693 31020 net.cpp:100] Creating Layer relu2
I0424 02:25:43.841706 31020 net.cpp:434] relu2 <- conv2
I0424 02:25:43.841722 31020 net.cpp:395] relu2 -> conv2 (in-place)
I0424 02:25:43.842097 31020 net.cpp:150] Setting up relu2
I0424 02:25:43.842116 31020 net.cpp:157] Top shape: 10 256 27 27 (1866240)
I0424 02:25:43.842128 31020 net.cpp:165] Memory required for data: 49944120
I0424 02:25:43.842139 31020 layer_factory.hpp:77] Creating layer pool2
I0424 02:25:43.842167 31020 net.cpp:100] Creating Layer pool2
I0424 02:25:43.842180 31020 net.cpp:434] pool2 <- conv2
I0424 02:25:43.842195 31020 net.cpp:408] pool2 -> pool2
I0424 02:25:43.842284 31020 net.cpp:150] Setting up pool2
I0424 02:25:43.842299 31020 net.cpp:157] Top shape: 10 256 13 13 (432640)
I0424 02:25:43.842311 31020 net.cpp:165] Memory required for data: 51674680
I0424 02:25:43.842322 31020 layer_factory.hpp:77] Creating layer norm2
I0424 02:25:43.842351 31020 net.cpp:100] Creating Layer norm2
I0424 02:25:43.842363 31020 net.cpp:434] norm2 <- pool2
I0424 02:25:43.842378 31020 net.cpp:408] norm2 -> norm2
I0424 02:25:43.842988 31020 net.cpp:150] Setting up norm2
I0424 02:25:43.843011 31020 net.cpp:157] Top shape: 10 256 13 13 (432640)
I0424 02:25:43.843030 31020 net.cpp:165] Memory required for data: 53405240
I0424 02:25:43.843042 31020 layer_factory.hpp:77] Creating layer conv3
I0424 02:25:43.843066 31020 net.cpp:100] Creating Layer conv3
I0424 02:25:43.843086 31020 net.cpp:434] conv3 <- norm2
I0424 02:25:43.843108 31020 net.cpp:408] conv3 -> conv3
I0424 02:25:43.864730 31020 net.cpp:150] Setting up conv3
I0424 02:25:43.864763 31020 net.cpp:157] Top shape: 10 384 13 13 (648960)
I0424 02:25:43.864778 31020 net.cpp:165] Memory required for data: 56001080
I0424 02:25:43.864802 31020 layer_factory.hpp:77] Creating layer relu3
I0424 02:25:43.864823 31020 net.cpp:100] Creating Layer relu3
I0424 02:25:43.864836 31020 net.cpp:434] relu3 <- conv3
I0424 02:25:43.864866 31020 net.cpp:395] relu3 -> conv3 (in-place)
I0424 02:25:43.865381 31020 net.cpp:150] Setting up relu3
I0424 02:25:43.865401 31020 net.cpp:157] Top shape: 10 384 13 13 (648960)
I0424 02:25:43.865413 31020 net.cpp:165] Memory required for data: 58596920
I0424 02:25:43.865424 31020 layer_factory.hpp:77] Creating layer conv4
I0424 02:25:43.865460 31020 net.cpp:100] Creating Layer conv4
I0424 02:25:43.865473 31020 net.cpp:434] conv4 <- conv3
I0424 02:25:43.865494 31020 net.cpp:408] conv4 -> conv4
I0424 02:25:43.883731 31020 net.cpp:150] Setting up conv4
I0424 02:25:43.883766 31020 net.cpp:157] Top shape: 10 384 13 13 (648960)
I0424 02:25:43.883780 31020 net.cpp:165] Memory required for data: 61192760
I0424 02:25:43.883800 31020 layer_factory.hpp:77] Creating layer relu4
I0424 02:25:43.883821 31020 net.cpp:100] Creating Layer relu4
I0424 02:25:43.883832 31020 net.cpp:434] relu4 <- conv4
I0424 02:25:43.883860 31020 net.cpp:395] relu4 -> conv4 (in-place)
I0424 02:25:43.884197 31020 net.cpp:150] Setting up relu4
I0424 02:25:43.884215 31020 net.cpp:157] Top shape: 10 384 13 13 (648960)
I0424 02:25:43.884227 31020 net.cpp:165] Memory required for data: 63788600
I0424 02:25:43.884238 31020 layer_factory.hpp:77] Creating layer conv5
I0424 02:25:43.884271 31020 net.cpp:100] Creating Layer conv5
I0424 02:25:43.884284 31020 net.cpp:434] conv5 <- conv4
I0424 02:25:43.884304 31020 net.cpp:408] conv5 -> conv5
I0424 02:25:43.897536 31020 net.cpp:150] Setting up conv5
I0424 02:25:43.897572 31020 net.cpp:157] Top shape: 10 256 13 13 (432640)
I0424 02:25:43.897584 31020 net.cpp:165] Memory required for data: 65519160
I0424 02:25:43.897615 31020 layer_factory.hpp:77] Creating layer relu5
I0424 02:25:43.897635 31020 net.cpp:100] Creating Layer relu5
I0424 02:25:43.897660 31020 net.cpp:434] relu5 <- conv5
I0424 02:25:43.897676 31020 net.cpp:395] relu5 -> conv5 (in-place)
I0424 02:25:43.898036 31020 net.cpp:150] Setting up relu5
I0424 02:25:43.898058 31020 net.cpp:157] Top shape: 10 256 13 13 (432640)
I0424 02:25:43.898071 31020 net.cpp:165] Memory required for data: 67249720
I0424 02:25:43.898084 31020 layer_factory.hpp:77] Creating layer pool5
I0424 02:25:43.898106 31020 net.cpp:100] Creating Layer pool5
I0424 02:25:43.898118 31020 net.cpp:434] pool5 <- conv5
I0424 02:25:43.898136 31020 net.cpp:408] pool5 -> pool5
I0424 02:25:43.898213 31020 net.cpp:150] Setting up pool5
I0424 02:25:43.898231 31020 net.cpp:157] Top shape: 10 256 6 6 (92160)
I0424 02:25:43.898249 31020 net.cpp:165] Memory required for data: 67618360
I0424 02:25:43.898263 31020 layer_factory.hpp:77] Creating layer fc6
I0424 02:25:43.898285 31020 net.cpp:100] Creating Layer fc6
I0424 02:25:43.898298 31020 net.cpp:434] fc6 <- pool5
I0424 02:25:43.898316 31020 net.cpp:408] fc6 -> fc6
I0424 02:25:44.724617 31020 net.cpp:150] Setting up fc6
I0424 02:25:44.724669 31020 net.cpp:157] Top shape: 10 4096 (40960)
I0424 02:25:44.724691 31020 net.cpp:165] Memory required for data: 67782200
I0424 02:25:44.724715 31020 layer_factory.hpp:77] Creating layer relu6
I0424 02:25:44.724735 31020 net.cpp:100] Creating Layer relu6
I0424 02:25:44.724747 31020 net.cpp:434] relu6 <- fc6
I0424 02:25:44.724771 31020 net.cpp:395] relu6 -> fc6 (in-place)
I0424 02:25:44.725495 31020 net.cpp:150] Setting up relu6
I0424 02:25:44.725520 31020 net.cpp:157] Top shape: 10 4096 (40960)
I0424 02:25:44.725538 31020 net.cpp:165] Memory required for data: 67946040
I0424 02:25:44.725549 31020 layer_factory.hpp:77] Creating layer drop6
I0424 02:25:44.725574 31020 net.cpp:100] Creating Layer drop6
I0424 02:25:44.725586 31020 net.cpp:434] drop6 <- fc6
I0424 02:25:44.725608 31020 net.cpp:395] drop6 -> fc6 (in-place)
I0424 02:25:44.725657 31020 net.cpp:150] Setting up drop6
I0424 02:25:44.725682 31020 net.cpp:157] Top shape: 10 4096 (40960)
I0424 02:25:44.725692 31020 net.cpp:165] Memory required for data: 68109880
I0424 02:25:44.725703 31020 layer_factory.hpp:77] Creating layer fc7
I0424 02:25:44.725725 31020 net.cpp:100] Creating Layer fc7
I0424 02:25:44.725738 31020 net.cpp:434] fc7 <- fc6
I0424 02:25:44.725752 31020 net.cpp:408] fc7 -> fc7
I0424 02:25:45.094171 31020 net.cpp:150] Setting up fc7
I0424 02:25:45.094218 31020 net.cpp:157] Top shape: 10 4096 (40960)
I0424 02:25:45.094240 31020 net.cpp:165] Memory required for data: 68273720
I0424 02:25:45.094264 31020 layer_factory.hpp:77] Creating layer relu7
I0424 02:25:45.094285 31020 net.cpp:100] Creating Layer relu7
I0424 02:25:45.094297 31020 net.cpp:434] relu7 <- fc7
I0424 02:25:45.094344 31020 net.cpp:395] relu7 -> fc7 (in-place)
I0424 02:25:45.094749 31020 net.cpp:150] Setting up relu7
I0424 02:25:45.094771 31020 net.cpp:157] Top shape: 10 4096 (40960)
I0424 02:25:45.094784 31020 net.cpp:165] Memory required for data: 68437560
I0424 02:25:45.094794 31020 layer_factory.hpp:77] Creating layer drop7
I0424 02:25:45.094820 31020 net.cpp:100] Creating Layer drop7
I0424 02:25:45.094831 31020 net.cpp:434] drop7 <- fc7
I0424 02:25:45.094846 31020 net.cpp:395] drop7 -> fc7 (in-place)
I0424 02:25:45.094899 31020 net.cpp:150] Setting up drop7
I0424 02:25:45.094918 31020 net.cpp:157] Top shape: 10 4096 (40960)
I0424 02:25:45.094934 31020 net.cpp:165] Memory required for data: 68601400
I0424 02:25:45.094946 31020 layer_factory.hpp:77] Creating layer fc8_finalproject
I0424 02:25:45.094969 31020 net.cpp:100] Creating Layer fc8_finalproject
I0424 02:25:45.094980 31020 net.cpp:434] fc8_finalproject <- fc7
I0424 02:25:45.094995 31020 net.cpp:408] fc8_finalproject -> fc8_finalproject
I0424 02:25:45.096093 31020 net.cpp:150] Setting up fc8_finalproject
I0424 02:25:45.096109 31020 net.cpp:157] Top shape: 10 11 (110)
I0424 02:25:45.096128 31020 net.cpp:165] Memory required for data: 68601840
I0424 02:25:45.096148 31020 net.cpp:228] fc8_finalproject does not need backward computation.
I0424 02:25:45.096158 31020 net.cpp:228] drop7 does not need backward computation.
I0424 02:25:45.096174 31020 net.cpp:228] relu7 does not need backward computation.
I0424 02:25:45.096185 31020 net.cpp:228] fc7 does not need backward computation.
…
