…
W0417 17:05:03.643875 11258 _caffe.cpp:122] DEPRECATION WARNING - deprecated use of Python interface
W0417 17:05:03.643921 11258 _caffe.cpp:123] Use this instead (with the named "weights" parameter):
W0417 17:05:03.643934 11258 _caffe.cpp:125] Net('models/finalproject/deploy.prototxt', 1, weights='models/finalproject/finalproject_iter_90000.caffemodel')
I0417 17:05:03.681043 11258 net.cpp:58] Initializing net from parameters: 
name: "finalprojectCaffeNet"
state {
  phase: TEST
  level: 0
}
layer {
  name: "data"
  type: "Input"
  top: "data"
  input_param {
    shape {
      dim: 10
      dim: 3
      dim: 227
      dim: 227
    }
  }
}
layer {
  name: "conv1"
  type: "Convolution"
  bottom: "data"
  top: "conv1"
  param {
    lr_mult: 1
    decay_mult: 1
  }
  param {
    lr_mult: 2
    decay_mult: 0
  }
  convolution_param {
    num_output: 96
    kernel_size: 11
    stride: 4
    weight_filler {
      type: "gaussian"
      std: 0.01
    }
    bias_filler {
      type: "constant"
      value: 0
    }
  }
}
layer {
  name: "relu1"
  type: "ReLU"
  bottom: "conv1"
  top: "conv1"
}
layer {
  name: "pool1"
  type: "Pooling"
  bottom: "conv1"
  top: "pool1"
  pooling_param {
    pool: MAX
    kernel_size: 3
    stride: 2
  }
}
layer {
  name: "norm1"
  type: "LRN"
  bottom: "pool1"
  top: "norm1"
  lrn_param {
    local_size: 5
    alpha: 0.0001
    beta: 0.75
  }
}
layer {
  name: "conv2"
  type: "Convolution"
  bottom: "norm1"
  top: "conv2"
  param {
    lr_mult: 1
    decay_mult: 1
  }
  param {
    lr_mult: 2
    decay_mult: 0
  }
  convolution_param {
    num_output: 256
    pad: 2
    kernel_size: 5
    group: 2
    weight_filler {
      type: "gaussian"
      std: 0.01
    }
    bias_filler {
      type: "constant"
      value: 1
    }
  }
}
layer {
  name: "relu2"
  type: "ReLU"
  bottom: "conv2"
  top: "conv2"
}
layer {
  name: "pool2"
  type: "Pooling"
  bottom: "conv2"
  top: "pool2"
  pooling_param {
    pool: MAX
    kernel_size: 3
    stride: 2
  }
}
layer {
  name: "norm2"
  type: "LRN"
  bottom: "pool2"
  top: "norm2"
  lrn_param {
    local_size: 5
    alpha: 0.0001
    beta: 0.75
  }
}
layer {
  name: "conv3"
  type: "Convolution"
  bottom: "norm2"
  top: "conv3"
  param {
    lr_mult: 1
    decay_mult: 1
  }
  param {
    lr_mult: 2
    decay_mult: 0
  }
  convolution_param {
    num_output: 384
    pad: 1
    kernel_size: 3
    weight_filler {
      type: "gaussian"
      std: 0.01
    }
    bias_filler {
      type: "constant"
      value: 0
    }
  }
}
layer {
  name: "relu3"
  type: "ReLU"
  bottom: "conv3"
  top: "conv3"
}
layer {
  name: "conv4"
  type: "Convolution"
  bottom: "conv3"
  top: "conv4"
  param {
    lr_mult: 1
    decay_mult: 1
  }
  param {
    lr_mult: 2
    decay_mult: 0
  }
  convolution_param {
    num_output: 384
    pad: 1
    kernel_size: 3
    group: 2
    weight_filler {
      type: "gaussian"
      std: 0.01
    }
    bias_filler {
      type: "constant"
      value: 1
    }
  }
}
layer {
  name: "relu4"
  type: "ReLU"
  bottom: "conv4"
  top: "conv4"
}
layer {
  name: "conv5"
  type: "Convolution"
  bottom: "conv4"
  top: "conv5"
  param {
    lr_mult: 1
    decay_mult: 1
  }
  param {
    lr_mult: 2
    decay_mult: 0
  }
  convolution_param {
    num_output: 256
    pad: 1
    kernel_size: 3
    group: 2
    weight_filler {
      type: "gaussian"
      std: 0.01
    }
    bias_filler {
      type: "constant"
      value: 1
    }
  }
}
layer {
  name: "relu5"
  type: "ReLU"
  bottom: "conv5"
  top: "conv5"
}
layer {
  name: "pool5"
  type: "Pooling"
  bottom: "conv5"
  top: "pool5"
  pooling_param {
    pool: MAX
    kernel_size: 3
    stride: 2
  }
}
layer {
  name: "fc6"
  type: "InnerProduct"
  bottom: "pool5"
  top: "fc6"
  param {
    lr_mult: 1
    decay_mult: 1
  }
  param {
    lr_mult: 2
    decay_mult: 0
  }
  inner_product_param {
    num_output: 4096
    weight_filler {
      type: "gaussian"
      std: 0.005
    }
    bias_filler {
      type: "constant"
      value: 1
    }
  }
}
layer {
  name: "relu6"
  type: "ReLU"
  bottom: "fc6"
  top: "fc6"
}
layer {
  name: "drop6"
  type: "Dropout"
  bottom: "fc6"
  top: "fc6"
  dropout_param {
    dropout_ratio: 0.5
  }
}
layer {
  name: "fc7"
  type: "InnerProduct"
  bottom: "fc6"
  top: "fc7"
  param {
    lr_mult: 1
    decay_mult: 1
  }
  param {
    lr_mult: 2
    decay_mult: 0
  }
  inner_product_param {
    num_output: 4096
    weight_filler {
      type: "gaussian"
      std: 0.005
    }
    bias_filler {
      type: "constant"
      value: 1
    }
  }
}
layer {
  name: "relu7"
  type: "ReLU"
  bottom: "fc7"
  top: "fc7"
}
layer {
  name: "drop7"
  type: "Dropout"
  bottom: "fc7"
  top: "fc7"
  dropout_param {
    dropout_ratio: 0.5
  }
}
layer {
  name: "fc8_finalproject"
  type: "InnerProduct"
  bottom: "fc7"
  top: "fc8_finalproject"
  param {
    lr_mult: 10
    decay_mult: 1
  }
  param {
    lr_mult: 20
    decay_mult: 0
  }
  inner_product_param {
    num_output: 11
    weight_filler {
      type: "gaussian"
      std: 0.01
    }
    bias_filler {
      type: "constant"
      value: 0
    }
  }
}
I0417 17:05:03.681258 11258 layer_factory.hpp:77] Creating layer data
I0417 17:05:03.681332 11258 net.cpp:100] Creating Layer data
I0417 17:05:03.681365 11258 net.cpp:408] data -> data
I0417 17:05:03.701248 11258 net.cpp:150] Setting up data
I0417 17:05:03.701370 11258 net.cpp:157] Top shape: 10 3 227 227 (1545870)
I0417 17:05:03.701400 11258 net.cpp:165] Memory required for data: 6183480
I0417 17:05:03.701417 11258 layer_factory.hpp:77] Creating layer conv1
I0417 17:05:03.701452 11258 net.cpp:100] Creating Layer conv1
I0417 17:05:03.701467 11258 net.cpp:434] conv1 <- data
I0417 17:05:03.701501 11258 net.cpp:408] conv1 -> conv1
I0417 17:05:04.706373 11258 net.cpp:150] Setting up conv1
I0417 17:05:04.706421 11258 net.cpp:157] Top shape: 10 96 55 55 (2904000)
I0417 17:05:04.706445 11258 net.cpp:165] Memory required for data: 17799480
I0417 17:05:04.706481 11258 layer_factory.hpp:77] Creating layer relu1
I0417 17:05:04.706514 11258 net.cpp:100] Creating Layer relu1
I0417 17:05:04.706548 11258 net.cpp:434] relu1 <- conv1
I0417 17:05:04.706564 11258 net.cpp:395] relu1 -> conv1 (in-place)
I0417 17:05:04.706902 11258 net.cpp:150] Setting up relu1
I0417 17:05:04.706920 11258 net.cpp:157] Top shape: 10 96 55 55 (2904000)
I0417 17:05:04.706933 11258 net.cpp:165] Memory required for data: 29415480
I0417 17:05:04.706944 11258 layer_factory.hpp:77] Creating layer pool1
I0417 17:05:04.706970 11258 net.cpp:100] Creating Layer pool1
I0417 17:05:04.706984 11258 net.cpp:434] pool1 <- conv1
I0417 17:05:04.706998 11258 net.cpp:408] pool1 -> pool1
I0417 17:05:04.707087 11258 net.cpp:150] Setting up pool1
I0417 17:05:04.707104 11258 net.cpp:157] Top shape: 10 96 27 27 (699840)
I0417 17:05:04.707121 11258 net.cpp:165] Memory required for data: 32214840
I0417 17:05:04.707134 11258 layer_factory.hpp:77] Creating layer norm1
I0417 17:05:04.707165 11258 net.cpp:100] Creating Layer norm1
I0417 17:05:04.707176 11258 net.cpp:434] norm1 <- pool1
I0417 17:05:04.707191 11258 net.cpp:408] norm1 -> norm1
I0417 17:05:04.707718 11258 net.cpp:150] Setting up norm1
I0417 17:05:04.707739 11258 net.cpp:157] Top shape: 10 96 27 27 (699840)
I0417 17:05:04.707756 11258 net.cpp:165] Memory required for data: 35014200
I0417 17:05:04.707769 11258 layer_factory.hpp:77] Creating layer conv2
I0417 17:05:04.707804 11258 net.cpp:100] Creating Layer conv2
I0417 17:05:04.707816 11258 net.cpp:434] conv2 <- norm1
I0417 17:05:04.707834 11258 net.cpp:408] conv2 -> conv2
I0417 17:05:04.718590 11258 net.cpp:150] Setting up conv2
I0417 17:05:04.718623 11258 net.cpp:157] Top shape: 10 256 27 27 (1866240)
I0417 17:05:04.718643 11258 net.cpp:165] Memory required for data: 42479160
I0417 17:05:04.718670 11258 layer_factory.hpp:77] Creating layer relu2
I0417 17:05:04.718693 11258 net.cpp:100] Creating Layer relu2
I0417 17:05:04.718716 11258 net.cpp:434] relu2 <- conv2
I0417 17:05:04.718732 11258 net.cpp:395] relu2 -> conv2 (in-place)
I0417 17:05:04.719090 11258 net.cpp:150] Setting up relu2
I0417 17:05:04.719110 11258 net.cpp:157] Top shape: 10 256 27 27 (1866240)
I0417 17:05:04.719120 11258 net.cpp:165] Memory required for data: 49944120
I0417 17:05:04.719131 11258 layer_factory.hpp:77] Creating layer pool2
I0417 17:05:04.719159 11258 net.cpp:100] Creating Layer pool2
I0417 17:05:04.719172 11258 net.cpp:434] pool2 <- conv2
I0417 17:05:04.719187 11258 net.cpp:408] pool2 -> pool2
I0417 17:05:04.719280 11258 net.cpp:150] Setting up pool2
I0417 17:05:04.719296 11258 net.cpp:157] Top shape: 10 256 13 13 (432640)
I0417 17:05:04.719307 11258 net.cpp:165] Memory required for data: 51674680
I0417 17:05:04.719321 11258 layer_factory.hpp:77] Creating layer norm2
I0417 17:05:04.719348 11258 net.cpp:100] Creating Layer norm2
I0417 17:05:04.719362 11258 net.cpp:434] norm2 <- pool2
I0417 17:05:04.719375 11258 net.cpp:408] norm2 -> norm2
I0417 17:05:04.719954 11258 net.cpp:150] Setting up norm2
I0417 17:05:04.719980 11258 net.cpp:157] Top shape: 10 256 13 13 (432640)
I0417 17:05:04.719991 11258 net.cpp:165] Memory required for data: 53405240
I0417 17:05:04.720006 11258 layer_factory.hpp:77] Creating layer conv3
I0417 17:05:04.720034 11258 net.cpp:100] Creating Layer conv3
I0417 17:05:04.720047 11258 net.cpp:434] conv3 <- norm2
I0417 17:05:04.720067 11258 net.cpp:408] conv3 -> conv3
I0417 17:05:04.741667 11258 net.cpp:150] Setting up conv3
I0417 17:05:04.741699 11258 net.cpp:157] Top shape: 10 384 13 13 (648960)
I0417 17:05:04.741713 11258 net.cpp:165] Memory required for data: 56001080
I0417 17:05:04.741736 11258 layer_factory.hpp:77] Creating layer relu3
I0417 17:05:04.741758 11258 net.cpp:100] Creating Layer relu3
I0417 17:05:04.741770 11258 net.cpp:434] relu3 <- conv3
I0417 17:05:04.741801 11258 net.cpp:395] relu3 -> conv3 (in-place)
I0417 17:05:04.742308 11258 net.cpp:150] Setting up relu3
I0417 17:05:04.742329 11258 net.cpp:157] Top shape: 10 384 13 13 (648960)
I0417 17:05:04.742341 11258 net.cpp:165] Memory required for data: 58596920
I0417 17:05:04.742353 11258 layer_factory.hpp:77] Creating layer conv4
I0417 17:05:04.742390 11258 net.cpp:100] Creating Layer conv4
I0417 17:05:04.742403 11258 net.cpp:434] conv4 <- conv3
I0417 17:05:04.742432 11258 net.cpp:408] conv4 -> conv4
I0417 17:05:04.760618 11258 net.cpp:150] Setting up conv4
I0417 17:05:04.760653 11258 net.cpp:157] Top shape: 10 384 13 13 (648960)
I0417 17:05:04.760666 11258 net.cpp:165] Memory required for data: 61192760
I0417 17:05:04.760686 11258 layer_factory.hpp:77] Creating layer relu4
I0417 17:05:04.760707 11258 net.cpp:100] Creating Layer relu4
I0417 17:05:04.760720 11258 net.cpp:434] relu4 <- conv4
I0417 17:05:04.760747 11258 net.cpp:395] relu4 -> conv4 (in-place)
I0417 17:05:04.761096 11258 net.cpp:150] Setting up relu4
I0417 17:05:04.761116 11258 net.cpp:157] Top shape: 10 384 13 13 (648960)
I0417 17:05:04.761126 11258 net.cpp:165] Memory required for data: 63788600
I0417 17:05:04.761138 11258 layer_factory.hpp:77] Creating layer conv5
I0417 17:05:04.761173 11258 net.cpp:100] Creating Layer conv5
I0417 17:05:04.761185 11258 net.cpp:434] conv5 <- conv4
I0417 17:05:04.761204 11258 net.cpp:408] conv5 -> conv5
I0417 17:05:04.774418 11258 net.cpp:150] Setting up conv5
I0417 17:05:04.774449 11258 net.cpp:157] Top shape: 10 256 13 13 (432640)
I0417 17:05:04.774469 11258 net.cpp:165] Memory required for data: 65519160
I0417 17:05:04.774495 11258 layer_factory.hpp:77] Creating layer relu5
I0417 17:05:04.774519 11258 net.cpp:100] Creating Layer relu5
I0417 17:05:04.774531 11258 net.cpp:434] relu5 <- conv5
I0417 17:05:04.774559 11258 net.cpp:395] relu5 -> conv5 (in-place)
I0417 17:05:04.774901 11258 net.cpp:150] Setting up relu5
I0417 17:05:04.774924 11258 net.cpp:157] Top shape: 10 256 13 13 (432640)
I0417 17:05:04.774940 11258 net.cpp:165] Memory required for data: 67249720
I0417 17:05:04.774955 11258 layer_factory.hpp:77] Creating layer pool5
I0417 17:05:04.774976 11258 net.cpp:100] Creating Layer pool5
I0417 17:05:04.774988 11258 net.cpp:434] pool5 <- conv5
I0417 17:05:04.775007 11258 net.cpp:408] pool5 -> pool5
I0417 17:05:04.775084 11258 net.cpp:150] Setting up pool5
I0417 17:05:04.775102 11258 net.cpp:157] Top shape: 10 256 6 6 (92160)
I0417 17:05:04.775120 11258 net.cpp:165] Memory required for data: 67618360
I0417 17:05:04.775132 11258 layer_factory.hpp:77] Creating layer fc6
I0417 17:05:04.775154 11258 net.cpp:100] Creating Layer fc6
I0417 17:05:04.775166 11258 net.cpp:434] fc6 <- pool5
I0417 17:05:04.775192 11258 net.cpp:408] fc6 -> fc6
I0417 17:05:05.598260 11258 net.cpp:150] Setting up fc6
I0417 17:05:05.598312 11258 net.cpp:157] Top shape: 10 4096 (40960)
I0417 17:05:05.598336 11258 net.cpp:165] Memory required for data: 67782200
I0417 17:05:05.598361 11258 layer_factory.hpp:77] Creating layer relu6
I0417 17:05:05.598381 11258 net.cpp:100] Creating Layer relu6
I0417 17:05:05.598400 11258 net.cpp:434] relu6 <- fc6
I0417 17:05:05.598438 11258 net.cpp:395] relu6 -> fc6 (in-place)
I0417 17:05:05.599148 11258 net.cpp:150] Setting up relu6
I0417 17:05:05.599172 11258 net.cpp:157] Top shape: 10 4096 (40960)
I0417 17:05:05.599190 11258 net.cpp:165] Memory required for data: 67946040
I0417 17:05:05.599202 11258 layer_factory.hpp:77] Creating layer drop6
I0417 17:05:05.599227 11258 net.cpp:100] Creating Layer drop6
I0417 17:05:05.599247 11258 net.cpp:434] drop6 <- fc6
I0417 17:05:05.599264 11258 net.cpp:395] drop6 -> fc6 (in-place)
I0417 17:05:05.599313 11258 net.cpp:150] Setting up drop6
I0417 17:05:05.599336 11258 net.cpp:157] Top shape: 10 4096 (40960)
I0417 17:05:05.599349 11258 net.cpp:165] Memory required for data: 68109880
I0417 17:05:05.599360 11258 layer_factory.hpp:77] Creating layer fc7
I0417 17:05:05.599381 11258 net.cpp:100] Creating Layer fc7
I0417 17:05:05.599393 11258 net.cpp:434] fc7 <- fc6
I0417 17:05:05.599411 11258 net.cpp:408] fc7 -> fc7
I0417 17:05:05.966146 11258 net.cpp:150] Setting up fc7
I0417 17:05:05.966192 11258 net.cpp:157] Top shape: 10 4096 (40960)
I0417 17:05:05.966205 11258 net.cpp:165] Memory required for data: 68273720
I0417 17:05:05.966229 11258 layer_factory.hpp:77] Creating layer relu7
I0417 17:05:05.966249 11258 net.cpp:100] Creating Layer relu7
I0417 17:05:05.966262 11258 net.cpp:434] relu7 <- fc7
I0417 17:05:05.966310 11258 net.cpp:395] relu7 -> fc7 (in-place)
I0417 17:05:05.966711 11258 net.cpp:150] Setting up relu7
I0417 17:05:05.966733 11258 net.cpp:157] Top shape: 10 4096 (40960)
I0417 17:05:05.966744 11258 net.cpp:165] Memory required for data: 68437560
I0417 17:05:05.966756 11258 layer_factory.hpp:77] Creating layer drop7
I0417 17:05:05.966781 11258 net.cpp:100] Creating Layer drop7
I0417 17:05:05.966794 11258 net.cpp:434] drop7 <- fc7
I0417 17:05:05.966809 11258 net.cpp:395] drop7 -> fc7 (in-place)
I0417 17:05:05.966861 11258 net.cpp:150] Setting up drop7
I0417 17:05:05.966886 11258 net.cpp:157] Top shape: 10 4096 (40960)
I0417 17:05:05.966899 11258 net.cpp:165] Memory required for data: 68601400
I0417 17:05:05.966910 11258 layer_factory.hpp:77] Creating layer fc8_finalproject
I0417 17:05:05.966931 11258 net.cpp:100] Creating Layer fc8_finalproject
I0417 17:05:05.966944 11258 net.cpp:434] fc8_finalproject <- fc7
I0417 17:05:05.966969 11258 net.cpp:408] fc8_finalproject -> fc8_finalproject
I0417 17:05:05.968070 11258 net.cpp:150] Setting up fc8_finalproject
I0417 17:05:05.968087 11258 net.cpp:157] Top shape: 10 11 (110)
I0417 17:05:05.968106 11258 net.cpp:165] Memory required for data: 68601840
I0417 17:05:05.968125 11258 net.cpp:228] fc8_finalproject does not need backward computation.
I0417 17:05:05.968138 11258 net.cpp:228] drop7 does not need backward computation.
I0417 17:05:05.968153 11258 net.cpp:228] relu7 does not need backward computation.
I0417 17:05:05.968171 11258 net.cpp:228] fc7 does not need backward computation.
…
