…
W0501 02:46:49.322530 30432 _caffe.cpp:122] DEPRECATION WARNING - deprecated use of Python interface
W0501 02:46:49.322576 30432 _caffe.cpp:123] Use this instead (with the named "weights" parameter):
W0501 02:46:49.322588 30432 _caffe.cpp:125] Net('models/finalproject/deploy.prototxt', 1, weights='models/finalproject/finalproject_iter_90000.caffemodel')
I0501 02:46:49.348809 30432 net.cpp:58] Initializing net from parameters: 
name: "finalprojectCaffeNet"
state {
  phase: TEST
  level: 0
}
layer {
  name: "data"
  type: "Input"
  top: "data"
  input_param {
    shape {
      dim: 10
      dim: 3
      dim: 227
      dim: 227
    }
  }
}
layer {
  name: "conv1"
  type: "Convolution"
  bottom: "data"
  top: "conv1"
  param {
    lr_mult: 1
    decay_mult: 1
  }
  param {
    lr_mult: 2
    decay_mult: 0
  }
  convolution_param {
    num_output: 96
    kernel_size: 11
    stride: 4
    weight_filler {
      type: "gaussian"
      std: 0.01
    }
    bias_filler {
      type: "constant"
      value: 0
    }
  }
}
layer {
  name: "relu1"
  type: "ReLU"
  bottom: "conv1"
  top: "conv1"
}
layer {
  name: "pool1"
  type: "Pooling"
  bottom: "conv1"
  top: "pool1"
  pooling_param {
    pool: MAX
    kernel_size: 3
    stride: 2
  }
}
layer {
  name: "norm1"
  type: "LRN"
  bottom: "pool1"
  top: "norm1"
  lrn_param {
    local_size: 5
    alpha: 0.0001
    beta: 0.75
  }
}
layer {
  name: "conv2"
  type: "Convolution"
  bottom: "norm1"
  top: "conv2"
  param {
    lr_mult: 1
    decay_mult: 1
  }
  param {
    lr_mult: 2
    decay_mult: 0
  }
  convolution_param {
    num_output: 256
    pad: 2
    kernel_size: 5
    group: 2
    weight_filler {
      type: "gaussian"
      std: 0.01
    }
    bias_filler {
      type: "constant"
      value: 1
    }
  }
}
layer {
  name: "relu2"
  type: "ReLU"
  bottom: "conv2"
  top: "conv2"
}
layer {
  name: "pool2"
  type: "Pooling"
  bottom: "conv2"
  top: "pool2"
  pooling_param {
    pool: MAX
    kernel_size: 3
    stride: 2
  }
}
layer {
  name: "norm2"
  type: "LRN"
  bottom: "pool2"
  top: "norm2"
  lrn_param {
    local_size: 5
    alpha: 0.0001
    beta: 0.75
  }
}
layer {
  name: "conv3"
  type: "Convolution"
  bottom: "norm2"
  top: "conv3"
  param {
    lr_mult: 1
    decay_mult: 1
  }
  param {
    lr_mult: 2
    decay_mult: 0
  }
  convolution_param {
    num_output: 384
    pad: 1
    kernel_size: 3
    weight_filler {
      type: "gaussian"
      std: 0.01
    }
    bias_filler {
      type: "constant"
      value: 0
    }
  }
}
layer {
  name: "relu3"
  type: "ReLU"
  bottom: "conv3"
  top: "conv3"
}
layer {
  name: "conv4"
  type: "Convolution"
  bottom: "conv3"
  top: "conv4"
  param {
    lr_mult: 1
    decay_mult: 1
  }
  param {
    lr_mult: 2
    decay_mult: 0
  }
  convolution_param {
    num_output: 384
    pad: 1
    kernel_size: 3
    group: 2
    weight_filler {
      type: "gaussian"
      std: 0.01
    }
    bias_filler {
      type: "constant"
      value: 1
    }
  }
}
layer {
  name: "relu4"
  type: "ReLU"
  bottom: "conv4"
  top: "conv4"
}
layer {
  name: "conv5"
  type: "Convolution"
  bottom: "conv4"
  top: "conv5"
  param {
    lr_mult: 1
    decay_mult: 1
  }
  param {
    lr_mult: 2
    decay_mult: 0
  }
  convolution_param {
    num_output: 256
    pad: 1
    kernel_size: 3
    group: 2
    weight_filler {
      type: "gaussian"
      std: 0.01
    }
    bias_filler {
      type: "constant"
      value: 1
    }
  }
}
layer {
  name: "relu5"
  type: "ReLU"
  bottom: "conv5"
  top: "conv5"
}
layer {
  name: "pool5"
  type: "Pooling"
  bottom: "conv5"
  top: "pool5"
  pooling_param {
    pool: MAX
    kernel_size: 3
    stride: 2
  }
}
layer {
  name: "fc6"
  type: "InnerProduct"
  bottom: "pool5"
  top: "fc6"
  param {
    lr_mult: 1
    decay_mult: 1
  }
  param {
    lr_mult: 2
    decay_mult: 0
  }
  inner_product_param {
    num_output: 4096
    weight_filler {
      type: "gaussian"
      std: 0.005
    }
    bias_filler {
      type: "constant"
      value: 1
    }
  }
}
layer {
  name: "relu6"
  type: "ReLU"
  bottom: "fc6"
  top: "fc6"
}
layer {
  name: "drop6"
  type: "Dropout"
  bottom: "fc6"
  top: "fc6"
  dropout_param {
    dropout_ratio: 0.5
  }
}
layer {
  name: "fc7"
  type: "InnerProduct"
  bottom: "fc6"
  top: "fc7"
  param {
    lr_mult: 1
    decay_mult: 1
  }
  param {
    lr_mult: 2
    decay_mult: 0
  }
  inner_product_param {
    num_output: 4096
    weight_filler {
      type: "gaussian"
      std: 0.005
    }
    bias_filler {
      type: "constant"
      value: 1
    }
  }
}
layer {
  name: "relu7"
  type: "ReLU"
  bottom: "fc7"
  top: "fc7"
}
layer {
  name: "drop7"
  type: "Dropout"
  bottom: "fc7"
  top: "fc7"
  dropout_param {
    dropout_ratio: 0.5
  }
}
layer {
  name: "fc8_finalproject"
  type: "InnerProduct"
  bottom: "fc7"
  top: "fc8_finalproject"
  param {
    lr_mult: 10
    decay_mult: 1
  }
  param {
    lr_mult: 20
    decay_mult: 0
  }
  inner_product_param {
    num_output: 11
    weight_filler {
      type: "gaussian"
      std: 0.01
    }
    bias_filler {
      type: "constant"
      value: 0
    }
  }
}
I0501 02:46:49.348990 30432 layer_factory.hpp:77] Creating layer data
I0501 02:46:49.349054 30432 net.cpp:100] Creating Layer data
I0501 02:46:49.349074 30432 net.cpp:408] data -> data
I0501 02:46:49.369052 30432 net.cpp:150] Setting up data
I0501 02:46:49.369112 30432 net.cpp:157] Top shape: 10 3 227 227 (1545870)
I0501 02:46:49.369124 30432 net.cpp:165] Memory required for data: 6183480
I0501 02:46:49.369139 30432 layer_factory.hpp:77] Creating layer conv1
I0501 02:46:49.369194 30432 net.cpp:100] Creating Layer conv1
I0501 02:46:49.369205 30432 net.cpp:434] conv1 <- data
I0501 02:46:49.369225 30432 net.cpp:408] conv1 -> conv1
I0501 02:46:49.953024 30432 net.cpp:150] Setting up conv1
I0501 02:46:49.953073 30432 net.cpp:157] Top shape: 10 96 55 55 (2904000)
I0501 02:46:49.953089 30432 net.cpp:165] Memory required for data: 17799480
I0501 02:46:49.953124 30432 layer_factory.hpp:77] Creating layer relu1
I0501 02:46:49.953151 30432 net.cpp:100] Creating Layer relu1
I0501 02:46:49.953191 30432 net.cpp:434] relu1 <- conv1
I0501 02:46:49.953207 30432 net.cpp:395] relu1 -> conv1 (in-place)
I0501 02:46:49.953543 30432 net.cpp:150] Setting up relu1
I0501 02:46:49.953563 30432 net.cpp:157] Top shape: 10 96 55 55 (2904000)
I0501 02:46:49.953575 30432 net.cpp:165] Memory required for data: 29415480
I0501 02:46:49.953586 30432 layer_factory.hpp:77] Creating layer pool1
I0501 02:46:49.953613 30432 net.cpp:100] Creating Layer pool1
I0501 02:46:49.953625 30432 net.cpp:434] pool1 <- conv1
I0501 02:46:49.953640 30432 net.cpp:408] pool1 -> pool1
I0501 02:46:49.953729 30432 net.cpp:150] Setting up pool1
I0501 02:46:49.953747 30432 net.cpp:157] Top shape: 10 96 27 27 (699840)
I0501 02:46:49.953758 30432 net.cpp:165] Memory required for data: 32214840
I0501 02:46:49.953771 30432 layer_factory.hpp:77] Creating layer norm1
I0501 02:46:49.953802 30432 net.cpp:100] Creating Layer norm1
I0501 02:46:49.953821 30432 net.cpp:434] norm1 <- pool1
I0501 02:46:49.953835 30432 net.cpp:408] norm1 -> norm1
I0501 02:46:49.954371 30432 net.cpp:150] Setting up norm1
I0501 02:46:49.954393 30432 net.cpp:157] Top shape: 10 96 27 27 (699840)
I0501 02:46:49.954406 30432 net.cpp:165] Memory required for data: 35014200
I0501 02:46:49.954417 30432 layer_factory.hpp:77] Creating layer conv2
I0501 02:46:49.954452 30432 net.cpp:100] Creating Layer conv2
I0501 02:46:49.954464 30432 net.cpp:434] conv2 <- norm1
I0501 02:46:49.954480 30432 net.cpp:408] conv2 -> conv2
I0501 02:46:49.965315 30432 net.cpp:150] Setting up conv2
I0501 02:46:49.965351 30432 net.cpp:157] Top shape: 10 256 27 27 (1866240)
I0501 02:46:49.965363 30432 net.cpp:165] Memory required for data: 42479160
I0501 02:46:49.965385 30432 layer_factory.hpp:77] Creating layer relu2
I0501 02:46:49.965420 30432 net.cpp:100] Creating Layer relu2
I0501 02:46:49.965432 30432 net.cpp:434] relu2 <- conv2
I0501 02:46:49.965447 30432 net.cpp:395] relu2 -> conv2 (in-place)
I0501 02:46:49.965811 30432 net.cpp:150] Setting up relu2
I0501 02:46:49.965828 30432 net.cpp:157] Top shape: 10 256 27 27 (1866240)
I0501 02:46:49.965840 30432 net.cpp:165] Memory required for data: 49944120
I0501 02:46:49.965852 30432 layer_factory.hpp:77] Creating layer pool2
I0501 02:46:49.965880 30432 net.cpp:100] Creating Layer pool2
I0501 02:46:49.965893 30432 net.cpp:434] pool2 <- conv2
I0501 02:46:49.965908 30432 net.cpp:408] pool2 -> pool2
I0501 02:46:49.966002 30432 net.cpp:150] Setting up pool2
I0501 02:46:49.966018 30432 net.cpp:157] Top shape: 10 256 13 13 (432640)
I0501 02:46:49.966032 30432 net.cpp:165] Memory required for data: 51674680
I0501 02:46:49.966042 30432 layer_factory.hpp:77] Creating layer norm2
I0501 02:46:49.966073 30432 net.cpp:100] Creating Layer norm2
I0501 02:46:49.966084 30432 net.cpp:434] norm2 <- pool2
I0501 02:46:49.966099 30432 net.cpp:408] norm2 -> norm2
I0501 02:46:49.966676 30432 net.cpp:150] Setting up norm2
I0501 02:46:49.966699 30432 net.cpp:157] Top shape: 10 256 13 13 (432640)
I0501 02:46:49.966717 30432 net.cpp:165] Memory required for data: 53405240
I0501 02:46:49.966730 30432 layer_factory.hpp:77] Creating layer conv3
I0501 02:46:49.966758 30432 net.cpp:100] Creating Layer conv3
I0501 02:46:49.966778 30432 net.cpp:434] conv3 <- norm2
I0501 02:46:49.966797 30432 net.cpp:408] conv3 -> conv3
I0501 02:46:49.988354 30432 net.cpp:150] Setting up conv3
I0501 02:46:49.988392 30432 net.cpp:157] Top shape: 10 384 13 13 (648960)
I0501 02:46:49.988404 30432 net.cpp:165] Memory required for data: 56001080
I0501 02:46:49.988428 30432 layer_factory.hpp:77] Creating layer relu3
I0501 02:46:49.988463 30432 net.cpp:100] Creating Layer relu3
I0501 02:46:49.988476 30432 net.cpp:434] relu3 <- conv3
I0501 02:46:49.988495 30432 net.cpp:395] relu3 -> conv3 (in-place)
I0501 02:46:49.989002 30432 net.cpp:150] Setting up relu3
I0501 02:46:49.989024 30432 net.cpp:157] Top shape: 10 384 13 13 (648960)
I0501 02:46:49.989035 30432 net.cpp:165] Memory required for data: 58596920
I0501 02:46:49.989048 30432 layer_factory.hpp:77] Creating layer conv4
I0501 02:46:49.989082 30432 net.cpp:100] Creating Layer conv4
I0501 02:46:49.989095 30432 net.cpp:434] conv4 <- conv3
I0501 02:46:49.989114 30432 net.cpp:408] conv4 -> conv4
I0501 02:46:50.007336 30432 net.cpp:150] Setting up conv4
I0501 02:46:50.007371 30432 net.cpp:157] Top shape: 10 384 13 13 (648960)
I0501 02:46:50.007385 30432 net.cpp:165] Memory required for data: 61192760
I0501 02:46:50.007403 30432 layer_factory.hpp:77] Creating layer relu4
I0501 02:46:50.007426 30432 net.cpp:100] Creating Layer relu4
I0501 02:46:50.007449 30432 net.cpp:434] relu4 <- conv4
I0501 02:46:50.007465 30432 net.cpp:395] relu4 -> conv4 (in-place)
I0501 02:46:50.007802 30432 net.cpp:150] Setting up relu4
I0501 02:46:50.007822 30432 net.cpp:157] Top shape: 10 384 13 13 (648960)
I0501 02:46:50.007833 30432 net.cpp:165] Memory required for data: 63788600
I0501 02:46:50.007844 30432 layer_factory.hpp:77] Creating layer conv5
I0501 02:46:50.007869 30432 net.cpp:100] Creating Layer conv5
I0501 02:46:50.007889 30432 net.cpp:434] conv5 <- conv4
I0501 02:46:50.007908 30432 net.cpp:408] conv5 -> conv5
I0501 02:46:50.021131 30432 net.cpp:150] Setting up conv5
I0501 02:46:50.021162 30432 net.cpp:157] Top shape: 10 256 13 13 (432640)
I0501 02:46:50.021181 30432 net.cpp:165] Memory required for data: 65519160
I0501 02:46:50.021210 30432 layer_factory.hpp:77] Creating layer relu5
I0501 02:46:50.021231 30432 net.cpp:100] Creating Layer relu5
I0501 02:46:50.021244 30432 net.cpp:434] relu5 <- conv5
I0501 02:46:50.021258 30432 net.cpp:395] relu5 -> conv5 (in-place)
I0501 02:46:50.021611 30432 net.cpp:150] Setting up relu5
I0501 02:46:50.021634 30432 net.cpp:157] Top shape: 10 256 13 13 (432640)
I0501 02:46:50.021646 30432 net.cpp:165] Memory required for data: 67249720
I0501 02:46:50.021661 30432 layer_factory.hpp:77] Creating layer pool5
I0501 02:46:50.021675 30432 net.cpp:100] Creating Layer pool5
I0501 02:46:50.021695 30432 net.cpp:434] pool5 <- conv5
I0501 02:46:50.021713 30432 net.cpp:408] pool5 -> pool5
I0501 02:46:50.021800 30432 net.cpp:150] Setting up pool5
I0501 02:46:50.021817 30432 net.cpp:157] Top shape: 10 256 6 6 (92160)
I0501 02:46:50.021845 30432 net.cpp:165] Memory required for data: 67618360
I0501 02:46:50.021857 30432 layer_factory.hpp:77] Creating layer fc6
I0501 02:46:50.021880 30432 net.cpp:100] Creating Layer fc6
I0501 02:46:50.021893 30432 net.cpp:434] fc6 <- pool5
I0501 02:46:50.021910 30432 net.cpp:408] fc6 -> fc6
I0501 02:46:50.851372 30432 net.cpp:150] Setting up fc6
I0501 02:46:50.851431 30432 net.cpp:157] Top shape: 10 4096 (40960)
I0501 02:46:50.851446 30432 net.cpp:165] Memory required for data: 67782200
I0501 02:46:50.851469 30432 layer_factory.hpp:77] Creating layer relu6
I0501 02:46:50.851488 30432 net.cpp:100] Creating Layer relu6
I0501 02:46:50.851501 30432 net.cpp:434] relu6 <- fc6
I0501 02:46:50.851524 30432 net.cpp:395] relu6 -> fc6 (in-place)
I0501 02:46:50.852262 30432 net.cpp:150] Setting up relu6
I0501 02:46:50.852286 30432 net.cpp:157] Top shape: 10 4096 (40960)
I0501 02:46:50.852306 30432 net.cpp:165] Memory required for data: 67946040
I0501 02:46:50.852319 30432 layer_factory.hpp:77] Creating layer drop6
I0501 02:46:50.852340 30432 net.cpp:100] Creating Layer drop6
I0501 02:46:50.852363 30432 net.cpp:434] drop6 <- fc6
I0501 02:46:50.852377 30432 net.cpp:395] drop6 -> fc6 (in-place)
I0501 02:46:50.852427 30432 net.cpp:150] Setting up drop6
I0501 02:46:50.852440 30432 net.cpp:157] Top shape: 10 4096 (40960)
I0501 02:46:50.852454 30432 net.cpp:165] Memory required for data: 68109880
I0501 02:46:50.852473 30432 layer_factory.hpp:77] Creating layer fc7
I0501 02:46:50.852495 30432 net.cpp:100] Creating Layer fc7
I0501 02:46:50.852512 30432 net.cpp:434] fc7 <- fc6
I0501 02:46:50.852529 30432 net.cpp:408] fc7 -> fc7
I0501 02:46:51.221721 30432 net.cpp:150] Setting up fc7
I0501 02:46:51.221767 30432 net.cpp:157] Top shape: 10 4096 (40960)
I0501 02:46:51.221781 30432 net.cpp:165] Memory required for data: 68273720
I0501 02:46:51.221809 30432 layer_factory.hpp:77] Creating layer relu7
I0501 02:46:51.221833 30432 net.cpp:100] Creating Layer relu7
I0501 02:46:51.221853 30432 net.cpp:434] relu7 <- fc7
I0501 02:46:51.221891 30432 net.cpp:395] relu7 -> fc7 (in-place)
I0501 02:46:51.222293 30432 net.cpp:150] Setting up relu7
I0501 02:46:51.222312 30432 net.cpp:157] Top shape: 10 4096 (40960)
I0501 02:46:51.222324 30432 net.cpp:165] Memory required for data: 68437560
I0501 02:46:51.222335 30432 layer_factory.hpp:77] Creating layer drop7
I0501 02:46:51.222360 30432 net.cpp:100] Creating Layer drop7
I0501 02:46:51.222373 30432 net.cpp:434] drop7 <- fc7
I0501 02:46:51.222388 30432 net.cpp:395] drop7 -> fc7 (in-place)
I0501 02:46:51.222435 30432 net.cpp:150] Setting up drop7
I0501 02:46:51.222452 30432 net.cpp:157] Top shape: 10 4096 (40960)
I0501 02:46:51.222470 30432 net.cpp:165] Memory required for data: 68601400
I0501 02:46:51.222482 30432 layer_factory.hpp:77] Creating layer fc8_finalproject
I0501 02:46:51.222503 30432 net.cpp:100] Creating Layer fc8_finalproject
I0501 02:46:51.222515 30432 net.cpp:434] fc8_finalproject <- fc7
I0501 02:46:51.222530 30432 net.cpp:408] fc8_finalproject -> fc8_finalproject
I0501 02:46:51.223633 30432 net.cpp:150] Setting up fc8_finalproject
I0501 02:46:51.223649 30432 net.cpp:157] Top shape: 10 11 (110)
I0501 02:46:51.223668 30432 net.cpp:165] Memory required for data: 68601840
I0501 02:46:51.223688 30432 net.cpp:228] fc8_finalproject does not need backward computation.
I0501 02:46:51.223701 30432 net.cpp:228] drop7 does not need backward computation.
I0501 02:46:51.223714 30432 net.cpp:228] relu7 does not need backward computation.
I0501 02:46:51.223732 30432 net.cpp:228] fc7 does not need backward computation.
…
