…
W0424 01:37:23.774441 18182 _caffe.cpp:122] DEPRECATION WARNING - deprecated use of Python interface
W0424 01:37:23.774487 18182 _caffe.cpp:123] Use this instead (with the named "weights" parameter):
W0424 01:37:23.774499 18182 _caffe.cpp:125] Net('models/finalproject/deploy.prototxt', 1, weights='models/finalproject/finalproject_iter_90000.caffemodel')
I0424 01:37:23.801445 18182 net.cpp:58] Initializing net from parameters: 
name: "finalprojectCaffeNet"
state {
  phase: TEST
  level: 0
}
layer {
  name: "data"
  type: "Input"
  top: "data"
  input_param {
    shape {
      dim: 10
      dim: 3
      dim: 227
      dim: 227
    }
  }
}
layer {
  name: "conv1"
  type: "Convolution"
  bottom: "data"
  top: "conv1"
  param {
    lr_mult: 1
    decay_mult: 1
  }
  param {
    lr_mult: 2
    decay_mult: 0
  }
  convolution_param {
    num_output: 96
    kernel_size: 11
    stride: 4
    weight_filler {
      type: "gaussian"
      std: 0.01
    }
    bias_filler {
      type: "constant"
      value: 0
    }
  }
}
layer {
  name: "relu1"
  type: "ReLU"
  bottom: "conv1"
  top: "conv1"
}
layer {
  name: "pool1"
  type: "Pooling"
  bottom: "conv1"
  top: "pool1"
  pooling_param {
    pool: MAX
    kernel_size: 3
    stride: 2
  }
}
layer {
  name: "norm1"
  type: "LRN"
  bottom: "pool1"
  top: "norm1"
  lrn_param {
    local_size: 5
    alpha: 0.0001
    beta: 0.75
  }
}
layer {
  name: "conv2"
  type: "Convolution"
  bottom: "norm1"
  top: "conv2"
  param {
    lr_mult: 1
    decay_mult: 1
  }
  param {
    lr_mult: 2
    decay_mult: 0
  }
  convolution_param {
    num_output: 256
    pad: 2
    kernel_size: 5
    group: 2
    weight_filler {
      type: "gaussian"
      std: 0.01
    }
    bias_filler {
      type: "constant"
      value: 1
    }
  }
}
layer {
  name: "relu2"
  type: "ReLU"
  bottom: "conv2"
  top: "conv2"
}
layer {
  name: "pool2"
  type: "Pooling"
  bottom: "conv2"
  top: "pool2"
  pooling_param {
    pool: MAX
    kernel_size: 3
    stride: 2
  }
}
layer {
  name: "norm2"
  type: "LRN"
  bottom: "pool2"
  top: "norm2"
  lrn_param {
    local_size: 5
    alpha: 0.0001
    beta: 0.75
  }
}
layer {
  name: "conv3"
  type: "Convolution"
  bottom: "norm2"
  top: "conv3"
  param {
    lr_mult: 1
    decay_mult: 1
  }
  param {
    lr_mult: 2
    decay_mult: 0
  }
  convolution_param {
    num_output: 384
    pad: 1
    kernel_size: 3
    weight_filler {
      type: "gaussian"
      std: 0.01
    }
    bias_filler {
      type: "constant"
      value: 0
    }
  }
}
layer {
  name: "relu3"
  type: "ReLU"
  bottom: "conv3"
  top: "conv3"
}
layer {
  name: "conv4"
  type: "Convolution"
  bottom: "conv3"
  top: "conv4"
  param {
    lr_mult: 1
    decay_mult: 1
  }
  param {
    lr_mult: 2
    decay_mult: 0
  }
  convolution_param {
    num_output: 384
    pad: 1
    kernel_size: 3
    group: 2
    weight_filler {
      type: "gaussian"
      std: 0.01
    }
    bias_filler {
      type: "constant"
      value: 1
    }
  }
}
layer {
  name: "relu4"
  type: "ReLU"
  bottom: "conv4"
  top: "conv4"
}
layer {
  name: "conv5"
  type: "Convolution"
  bottom: "conv4"
  top: "conv5"
  param {
    lr_mult: 1
    decay_mult: 1
  }
  param {
    lr_mult: 2
    decay_mult: 0
  }
  convolution_param {
    num_output: 256
    pad: 1
    kernel_size: 3
    group: 2
    weight_filler {
      type: "gaussian"
      std: 0.01
    }
    bias_filler {
      type: "constant"
      value: 1
    }
  }
}
layer {
  name: "relu5"
  type: "ReLU"
  bottom: "conv5"
  top: "conv5"
}
layer {
  name: "pool5"
  type: "Pooling"
  bottom: "conv5"
  top: "pool5"
  pooling_param {
    pool: MAX
    kernel_size: 3
    stride: 2
  }
}
layer {
  name: "fc6"
  type: "InnerProduct"
  bottom: "pool5"
  top: "fc6"
  param {
    lr_mult: 1
    decay_mult: 1
  }
  param {
    lr_mult: 2
    decay_mult: 0
  }
  inner_product_param {
    num_output: 4096
    weight_filler {
      type: "gaussian"
      std: 0.005
    }
    bias_filler {
      type: "constant"
      value: 1
    }
  }
}
layer {
  name: "relu6"
  type: "ReLU"
  bottom: "fc6"
  top: "fc6"
}
layer {
  name: "drop6"
  type: "Dropout"
  bottom: "fc6"
  top: "fc6"
  dropout_param {
    dropout_ratio: 0.5
  }
}
layer {
  name: "fc7"
  type: "InnerProduct"
  bottom: "fc6"
  top: "fc7"
  param {
    lr_mult: 1
    decay_mult: 1
  }
  param {
    lr_mult: 2
    decay_mult: 0
  }
  inner_product_param {
    num_output: 4096
    weight_filler {
      type: "gaussian"
      std: 0.005
    }
    bias_filler {
      type: "constant"
      value: 1
    }
  }
}
layer {
  name: "relu7"
  type: "ReLU"
  bottom: "fc7"
  top: "fc7"
}
layer {
  name: "drop7"
  type: "Dropout"
  bottom: "fc7"
  top: "fc7"
  dropout_param {
    dropout_ratio: 0.5
  }
}
layer {
  name: "fc8_finalproject"
  type: "InnerProduct"
  bottom: "fc7"
  top: "fc8_finalproject"
  param {
    lr_mult: 10
    decay_mult: 1
  }
  param {
    lr_mult: 20
    decay_mult: 0
  }
  inner_product_param {
    num_output: 11
    weight_filler {
      type: "gaussian"
      std: 0.01
    }
    bias_filler {
      type: "constant"
      value: 0
    }
  }
}
I0424 01:37:23.801625 18182 layer_factory.hpp:77] Creating layer data
I0424 01:37:23.801681 18182 net.cpp:100] Creating Layer data
I0424 01:37:23.801702 18182 net.cpp:408] data -> data
I0424 01:37:23.821697 18182 net.cpp:150] Setting up data
I0424 01:37:23.821832 18182 net.cpp:157] Top shape: 10 3 227 227 (1545870)
I0424 01:37:23.821847 18182 net.cpp:165] Memory required for data: 6183480
I0424 01:37:23.821864 18182 layer_factory.hpp:77] Creating layer conv1
I0424 01:37:23.821899 18182 net.cpp:100] Creating Layer conv1
I0424 01:37:23.821923 18182 net.cpp:434] conv1 <- data
I0424 01:37:23.821945 18182 net.cpp:408] conv1 -> conv1
I0424 01:37:24.408979 18182 net.cpp:150] Setting up conv1
I0424 01:37:24.409029 18182 net.cpp:157] Top shape: 10 96 55 55 (2904000)
I0424 01:37:24.409052 18182 net.cpp:165] Memory required for data: 17799480
I0424 01:37:24.409087 18182 layer_factory.hpp:77] Creating layer relu1
I0424 01:37:24.409122 18182 net.cpp:100] Creating Layer relu1
I0424 01:37:24.409157 18182 net.cpp:434] relu1 <- conv1
I0424 01:37:24.409173 18182 net.cpp:395] relu1 -> conv1 (in-place)
I0424 01:37:24.409515 18182 net.cpp:150] Setting up relu1
I0424 01:37:24.409534 18182 net.cpp:157] Top shape: 10 96 55 55 (2904000)
I0424 01:37:24.409546 18182 net.cpp:165] Memory required for data: 29415480
I0424 01:37:24.409559 18182 layer_factory.hpp:77] Creating layer pool1
I0424 01:37:24.409584 18182 net.cpp:100] Creating Layer pool1
I0424 01:37:24.409596 18182 net.cpp:434] pool1 <- conv1
I0424 01:37:24.409611 18182 net.cpp:408] pool1 -> pool1
I0424 01:37:24.409699 18182 net.cpp:150] Setting up pool1
I0424 01:37:24.409715 18182 net.cpp:157] Top shape: 10 96 27 27 (699840)
I0424 01:37:24.409728 18182 net.cpp:165] Memory required for data: 32214840
I0424 01:37:24.409739 18182 layer_factory.hpp:77] Creating layer norm1
I0424 01:37:24.409770 18182 net.cpp:100] Creating Layer norm1
I0424 01:37:24.409782 18182 net.cpp:434] norm1 <- pool1
I0424 01:37:24.409797 18182 net.cpp:408] norm1 -> norm1
I0424 01:37:24.410344 18182 net.cpp:150] Setting up norm1
I0424 01:37:24.410365 18182 net.cpp:157] Top shape: 10 96 27 27 (699840)
I0424 01:37:24.410377 18182 net.cpp:165] Memory required for data: 35014200
I0424 01:37:24.410389 18182 layer_factory.hpp:77] Creating layer conv2
I0424 01:37:24.410425 18182 net.cpp:100] Creating Layer conv2
I0424 01:37:24.410439 18182 net.cpp:434] conv2 <- norm1
I0424 01:37:24.410464 18182 net.cpp:408] conv2 -> conv2
I0424 01:37:24.421306 18182 net.cpp:150] Setting up conv2
I0424 01:37:24.421341 18182 net.cpp:157] Top shape: 10 256 27 27 (1866240)
I0424 01:37:24.421355 18182 net.cpp:165] Memory required for data: 42479160
I0424 01:37:24.421388 18182 layer_factory.hpp:77] Creating layer relu2
I0424 01:37:24.421417 18182 net.cpp:100] Creating Layer relu2
I0424 01:37:24.421430 18182 net.cpp:434] relu2 <- conv2
I0424 01:37:24.421445 18182 net.cpp:395] relu2 -> conv2 (in-place)
I0424 01:37:24.421815 18182 net.cpp:150] Setting up relu2
I0424 01:37:24.421834 18182 net.cpp:157] Top shape: 10 256 27 27 (1866240)
I0424 01:37:24.421846 18182 net.cpp:165] Memory required for data: 49944120
I0424 01:37:24.421860 18182 layer_factory.hpp:77] Creating layer pool2
I0424 01:37:24.421885 18182 net.cpp:100] Creating Layer pool2
I0424 01:37:24.421897 18182 net.cpp:434] pool2 <- conv2
I0424 01:37:24.421912 18182 net.cpp:408] pool2 -> pool2
I0424 01:37:24.422003 18182 net.cpp:150] Setting up pool2
I0424 01:37:24.422018 18182 net.cpp:157] Top shape: 10 256 13 13 (432640)
I0424 01:37:24.422036 18182 net.cpp:165] Memory required for data: 51674680
I0424 01:37:24.422049 18182 layer_factory.hpp:77] Creating layer norm2
I0424 01:37:24.422070 18182 net.cpp:100] Creating Layer norm2
I0424 01:37:24.422091 18182 net.cpp:434] norm2 <- pool2
I0424 01:37:24.422106 18182 net.cpp:408] norm2 -> norm2
I0424 01:37:24.422682 18182 net.cpp:150] Setting up norm2
I0424 01:37:24.422706 18182 net.cpp:157] Top shape: 10 256 13 13 (432640)
I0424 01:37:24.422719 18182 net.cpp:165] Memory required for data: 53405240
I0424 01:37:24.422730 18182 layer_factory.hpp:77] Creating layer conv3
I0424 01:37:24.422761 18182 net.cpp:100] Creating Layer conv3
I0424 01:37:24.422775 18182 net.cpp:434] conv3 <- norm2
I0424 01:37:24.422794 18182 net.cpp:408] conv3 -> conv3
I0424 01:37:24.444483 18182 net.cpp:150] Setting up conv3
I0424 01:37:24.444515 18182 net.cpp:157] Top shape: 10 384 13 13 (648960)
I0424 01:37:24.444536 18182 net.cpp:165] Memory required for data: 56001080
I0424 01:37:24.444561 18182 layer_factory.hpp:77] Creating layer relu3
I0424 01:37:24.444583 18182 net.cpp:100] Creating Layer relu3
I0424 01:37:24.444595 18182 net.cpp:434] relu3 <- conv3
I0424 01:37:24.444628 18182 net.cpp:395] relu3 -> conv3 (in-place)
I0424 01:37:24.445142 18182 net.cpp:150] Setting up relu3
I0424 01:37:24.445163 18182 net.cpp:157] Top shape: 10 384 13 13 (648960)
I0424 01:37:24.445174 18182 net.cpp:165] Memory required for data: 58596920
I0424 01:37:24.445186 18182 layer_factory.hpp:77] Creating layer conv4
I0424 01:37:24.445221 18182 net.cpp:100] Creating Layer conv4
I0424 01:37:24.445235 18182 net.cpp:434] conv4 <- conv3
I0424 01:37:24.445255 18182 net.cpp:408] conv4 -> conv4
I0424 01:37:24.463568 18182 net.cpp:150] Setting up conv4
I0424 01:37:24.463604 18182 net.cpp:157] Top shape: 10 384 13 13 (648960)
I0424 01:37:24.463618 18182 net.cpp:165] Memory required for data: 61192760
I0424 01:37:24.463641 18182 layer_factory.hpp:77] Creating layer relu4
I0424 01:37:24.463660 18182 net.cpp:100] Creating Layer relu4
I0424 01:37:24.463685 18182 net.cpp:434] relu4 <- conv4
I0424 01:37:24.463701 18182 net.cpp:395] relu4 -> conv4 (in-place)
I0424 01:37:24.464051 18182 net.cpp:150] Setting up relu4
I0424 01:37:24.464069 18182 net.cpp:157] Top shape: 10 384 13 13 (648960)
I0424 01:37:24.464082 18182 net.cpp:165] Memory required for data: 63788600
I0424 01:37:24.464092 18182 layer_factory.hpp:77] Creating layer conv5
I0424 01:37:24.464126 18182 net.cpp:100] Creating Layer conv5
I0424 01:37:24.464139 18182 net.cpp:434] conv5 <- conv4
I0424 01:37:24.464159 18182 net.cpp:408] conv5 -> conv5
I0424 01:37:24.477475 18182 net.cpp:150] Setting up conv5
I0424 01:37:24.477504 18182 net.cpp:157] Top shape: 10 256 13 13 (432640)
I0424 01:37:24.477524 18182 net.cpp:165] Memory required for data: 65519160
I0424 01:37:24.477550 18182 layer_factory.hpp:77] Creating layer relu5
I0424 01:37:24.477574 18182 net.cpp:100] Creating Layer relu5
I0424 01:37:24.477587 18182 net.cpp:434] relu5 <- conv5
I0424 01:37:24.477615 18182 net.cpp:395] relu5 -> conv5 (in-place)
I0424 01:37:24.477959 18182 net.cpp:150] Setting up relu5
I0424 01:37:24.477982 18182 net.cpp:157] Top shape: 10 256 13 13 (432640)
I0424 01:37:24.477993 18182 net.cpp:165] Memory required for data: 67249720
I0424 01:37:24.478008 18182 layer_factory.hpp:77] Creating layer pool5
I0424 01:37:24.478029 18182 net.cpp:100] Creating Layer pool5
I0424 01:37:24.478041 18182 net.cpp:434] pool5 <- conv5
I0424 01:37:24.478060 18182 net.cpp:408] pool5 -> pool5
I0424 01:37:24.478135 18182 net.cpp:150] Setting up pool5
I0424 01:37:24.478166 18182 net.cpp:157] Top shape: 10 256 6 6 (92160)
I0424 01:37:24.478178 18182 net.cpp:165] Memory required for data: 67618360
I0424 01:37:24.478193 18182 layer_factory.hpp:77] Creating layer fc6
I0424 01:37:24.478214 18182 net.cpp:100] Creating Layer fc6
I0424 01:37:24.478227 18182 net.cpp:434] fc6 <- pool5
I0424 01:37:24.478247 18182 net.cpp:408] fc6 -> fc6
I0424 01:37:25.304610 18182 net.cpp:150] Setting up fc6
I0424 01:37:25.304659 18182 net.cpp:157] Top shape: 10 4096 (40960)
I0424 01:37:25.304680 18182 net.cpp:165] Memory required for data: 67782200
I0424 01:37:25.304705 18182 layer_factory.hpp:77] Creating layer relu6
I0424 01:37:25.304724 18182 net.cpp:100] Creating Layer relu6
I0424 01:37:25.304744 18182 net.cpp:434] relu6 <- fc6
I0424 01:37:25.304780 18182 net.cpp:395] relu6 -> fc6 (in-place)
I0424 01:37:25.305491 18182 net.cpp:150] Setting up relu6
I0424 01:37:25.305516 18182 net.cpp:157] Top shape: 10 4096 (40960)
I0424 01:37:25.305533 18182 net.cpp:165] Memory required for data: 67946040
I0424 01:37:25.305546 18182 layer_factory.hpp:77] Creating layer drop6
I0424 01:37:25.305570 18182 net.cpp:100] Creating Layer drop6
I0424 01:37:25.305583 18182 net.cpp:434] drop6 <- fc6
I0424 01:37:25.305605 18182 net.cpp:395] drop6 -> fc6 (in-place)
I0424 01:37:25.305655 18182 net.cpp:150] Setting up drop6
I0424 01:37:25.305680 18182 net.cpp:157] Top shape: 10 4096 (40960)
I0424 01:37:25.305691 18182 net.cpp:165] Memory required for data: 68109880
I0424 01:37:25.305702 18182 layer_factory.hpp:77] Creating layer fc7
I0424 01:37:25.305724 18182 net.cpp:100] Creating Layer fc7
I0424 01:37:25.305737 18182 net.cpp:434] fc7 <- fc6
I0424 01:37:25.305754 18182 net.cpp:408] fc7 -> fc7
I0424 01:37:25.673499 18182 net.cpp:150] Setting up fc7
I0424 01:37:25.673547 18182 net.cpp:157] Top shape: 10 4096 (40960)
I0424 01:37:25.673563 18182 net.cpp:165] Memory required for data: 68273720
I0424 01:37:25.673585 18182 layer_factory.hpp:77] Creating layer relu7
I0424 01:37:25.673606 18182 net.cpp:100] Creating Layer relu7
I0424 01:37:25.673625 18182 net.cpp:434] relu7 <- fc7
I0424 01:37:25.673666 18182 net.cpp:395] relu7 -> fc7 (in-place)
I0424 01:37:25.674067 18182 net.cpp:150] Setting up relu7
I0424 01:37:25.674090 18182 net.cpp:157] Top shape: 10 4096 (40960)
I0424 01:37:25.674101 18182 net.cpp:165] Memory required for data: 68437560
I0424 01:37:25.674113 18182 layer_factory.hpp:77] Creating layer drop7
I0424 01:37:25.674139 18182 net.cpp:100] Creating Layer drop7
I0424 01:37:25.674150 18182 net.cpp:434] drop7 <- fc7
I0424 01:37:25.674165 18182 net.cpp:395] drop7 -> fc7 (in-place)
I0424 01:37:25.674230 18182 net.cpp:150] Setting up drop7
I0424 01:37:25.674244 18182 net.cpp:157] Top shape: 10 4096 (40960)
I0424 01:37:25.674257 18182 net.cpp:165] Memory required for data: 68601400
I0424 01:37:25.674268 18182 layer_factory.hpp:77] Creating layer fc8_finalproject
I0424 01:37:25.674295 18182 net.cpp:100] Creating Layer fc8_finalproject
I0424 01:37:25.674307 18182 net.cpp:434] fc8_finalproject <- fc7
I0424 01:37:25.674331 18182 net.cpp:408] fc8_finalproject -> fc8_finalproject
I0424 01:37:25.675525 18182 net.cpp:150] Setting up fc8_finalproject
I0424 01:37:25.675544 18182 net.cpp:157] Top shape: 10 11 (110)
I0424 01:37:25.675556 18182 net.cpp:165] Memory required for data: 68601840
I0424 01:37:25.675573 18182 net.cpp:228] fc8_finalproject does not need backward computation.
I0424 01:37:25.675590 18182 net.cpp:228] drop7 does not need backward computation.
I0424 01:37:25.675608 18182 net.cpp:228] relu7 does not need backward computation.
I0424 01:37:25.675621 18182 net.cpp:228] fc7 does not need backward computation.
…
