…
W0423 20:51:07.251452 25301 _caffe.cpp:122] DEPRECATION WARNING - deprecated use of Python interface
W0423 20:51:07.251513 25301 _caffe.cpp:123] Use this instead (with the named "weights" parameter):
W0423 20:51:07.251524 25301 _caffe.cpp:125] Net('models/finalproject/deploy.prototxt', 1, weights='models/finalproject/finalproject_iter_90000.caffemodel')
I0423 20:51:07.272037 25301 net.cpp:58] Initializing net from parameters: 
name: "finalprojectCaffeNet"
state {
  phase: TEST
  level: 0
}
layer {
  name: "data"
  type: "Input"
  top: "data"
  input_param {
    shape {
      dim: 10
      dim: 3
      dim: 227
      dim: 227
    }
  }
}
layer {
  name: "conv1"
  type: "Convolution"
  bottom: "data"
  top: "conv1"
  param {
    lr_mult: 1
    decay_mult: 1
  }
  param {
    lr_mult: 2
    decay_mult: 0
  }
  convolution_param {
    num_output: 96
    kernel_size: 11
    stride: 4
    weight_filler {
      type: "gaussian"
      std: 0.01
    }
    bias_filler {
      type: "constant"
      value: 0
    }
  }
}
layer {
  name: "relu1"
  type: "ReLU"
  bottom: "conv1"
  top: "conv1"
}
layer {
  name: "pool1"
  type: "Pooling"
  bottom: "conv1"
  top: "pool1"
  pooling_param {
    pool: MAX
    kernel_size: 3
    stride: 2
  }
}
layer {
  name: "norm1"
  type: "LRN"
  bottom: "pool1"
  top: "norm1"
  lrn_param {
    local_size: 5
    alpha: 0.0001
    beta: 0.75
  }
}
layer {
  name: "conv2"
  type: "Convolution"
  bottom: "norm1"
  top: "conv2"
  param {
    lr_mult: 1
    decay_mult: 1
  }
  param {
    lr_mult: 2
    decay_mult: 0
  }
  convolution_param {
    num_output: 256
    pad: 2
    kernel_size: 5
    group: 2
    weight_filler {
      type: "gaussian"
      std: 0.01
    }
    bias_filler {
      type: "constant"
      value: 1
    }
  }
}
layer {
  name: "relu2"
  type: "ReLU"
  bottom: "conv2"
  top: "conv2"
}
layer {
  name: "pool2"
  type: "Pooling"
  bottom: "conv2"
  top: "pool2"
  pooling_param {
    pool: MAX
    kernel_size: 3
    stride: 2
  }
}
layer {
  name: "norm2"
  type: "LRN"
  bottom: "pool2"
  top: "norm2"
  lrn_param {
    local_size: 5
    alpha: 0.0001
    beta: 0.75
  }
}
layer {
  name: "conv3"
  type: "Convolution"
  bottom: "norm2"
  top: "conv3"
  param {
    lr_mult: 1
    decay_mult: 1
  }
  param {
    lr_mult: 2
    decay_mult: 0
  }
  convolution_param {
    num_output: 384
    pad: 1
    kernel_size: 3
    weight_filler {
      type: "gaussian"
      std: 0.01
    }
    bias_filler {
      type: "constant"
      value: 0
    }
  }
}
layer {
  name: "relu3"
  type: "ReLU"
  bottom: "conv3"
  top: "conv3"
}
layer {
  name: "conv4"
  type: "Convolution"
  bottom: "conv3"
  top: "conv4"
  param {
    lr_mult: 1
    decay_mult: 1
  }
  param {
    lr_mult: 2
    decay_mult: 0
  }
  convolution_param {
    num_output: 384
    pad: 1
    kernel_size: 3
    group: 2
    weight_filler {
      type: "gaussian"
      std: 0.01
    }
    bias_filler {
      type: "constant"
      value: 1
    }
  }
}
layer {
  name: "relu4"
  type: "ReLU"
  bottom: "conv4"
  top: "conv4"
}
layer {
  name: "conv5"
  type: "Convolution"
  bottom: "conv4"
  top: "conv5"
  param {
    lr_mult: 1
    decay_mult: 1
  }
  param {
    lr_mult: 2
    decay_mult: 0
  }
  convolution_param {
    num_output: 256
    pad: 1
    kernel_size: 3
    group: 2
    weight_filler {
      type: "gaussian"
      std: 0.01
    }
    bias_filler {
      type: "constant"
      value: 1
    }
  }
}
layer {
  name: "relu5"
  type: "ReLU"
  bottom: "conv5"
  top: "conv5"
}
layer {
  name: "pool5"
  type: "Pooling"
  bottom: "conv5"
  top: "pool5"
  pooling_param {
    pool: MAX
    kernel_size: 3
    stride: 2
  }
}
layer {
  name: "fc6"
  type: "InnerProduct"
  bottom: "pool5"
  top: "fc6"
  param {
    lr_mult: 1
    decay_mult: 1
  }
  param {
    lr_mult: 2
    decay_mult: 0
  }
  inner_product_param {
    num_output: 4096
    weight_filler {
      type: "gaussian"
      std: 0.005
    }
    bias_filler {
      type: "constant"
      value: 1
    }
  }
}
layer {
  name: "relu6"
  type: "ReLU"
  bottom: "fc6"
  top: "fc6"
}
layer {
  name: "drop6"
  type: "Dropout"
  bottom: "fc6"
  top: "fc6"
  dropout_param {
    dropout_ratio: 0.5
  }
}
layer {
  name: "fc7"
  type: "InnerProduct"
  bottom: "fc6"
  top: "fc7"
  param {
    lr_mult: 1
    decay_mult: 1
  }
  param {
    lr_mult: 2
    decay_mult: 0
  }
  inner_product_param {
    num_output: 4096
    weight_filler {
      type: "gaussian"
      std: 0.005
    }
    bias_filler {
      type: "constant"
      value: 1
    }
  }
}
layer {
  name: "relu7"
  type: "ReLU"
  bottom: "fc7"
  top: "fc7"
}
layer {
  name: "drop7"
  type: "Dropout"
  bottom: "fc7"
  top: "fc7"
  dropout_param {
    dropout_ratio: 0.5
  }
}
layer {
  name: "fc8_finalproject"
  type: "InnerProduct"
  bottom: "fc7"
  top: "fc8_finalproject"
  param {
    lr_mult: 10
    decay_mult: 1
  }
  param {
    lr_mult: 20
    decay_mult: 0
  }
  inner_product_param {
    num_output: 11
    weight_filler {
      type: "gaussian"
      std: 0.01
    }
    bias_filler {
      type: "constant"
      value: 0
    }
  }
}
I0423 20:51:07.272212 25301 layer_factory.hpp:77] Creating layer data
I0423 20:51:07.272269 25301 net.cpp:100] Creating Layer data
I0423 20:51:07.272290 25301 net.cpp:408] data -> data
I0423 20:51:07.292273 25301 net.cpp:150] Setting up data
I0423 20:51:07.292418 25301 net.cpp:157] Top shape: 10 3 227 227 (1545870)
I0423 20:51:07.292434 25301 net.cpp:165] Memory required for data: 6183480
I0423 20:51:07.292450 25301 layer_factory.hpp:77] Creating layer conv1
I0423 20:51:07.292490 25301 net.cpp:100] Creating Layer conv1
I0423 20:51:07.292510 25301 net.cpp:434] conv1 <- data
I0423 20:51:07.292532 25301 net.cpp:408] conv1 -> conv1
I0423 20:51:07.933851 25301 net.cpp:150] Setting up conv1
I0423 20:51:07.933902 25301 net.cpp:157] Top shape: 10 96 55 55 (2904000)
I0423 20:51:07.933925 25301 net.cpp:165] Memory required for data: 17799480
I0423 20:51:07.933961 25301 layer_factory.hpp:77] Creating layer relu1
I0423 20:51:07.933995 25301 net.cpp:100] Creating Layer relu1
I0423 20:51:07.934029 25301 net.cpp:434] relu1 <- conv1
I0423 20:51:07.934044 25301 net.cpp:395] relu1 -> conv1 (in-place)
I0423 20:51:07.934382 25301 net.cpp:150] Setting up relu1
I0423 20:51:07.934401 25301 net.cpp:157] Top shape: 10 96 55 55 (2904000)
I0423 20:51:07.934412 25301 net.cpp:165] Memory required for data: 29415480
I0423 20:51:07.934424 25301 layer_factory.hpp:77] Creating layer pool1
I0423 20:51:07.934449 25301 net.cpp:100] Creating Layer pool1
I0423 20:51:07.934461 25301 net.cpp:434] pool1 <- conv1
I0423 20:51:07.934476 25301 net.cpp:408] pool1 -> pool1
I0423 20:51:07.934564 25301 net.cpp:150] Setting up pool1
I0423 20:51:07.934581 25301 net.cpp:157] Top shape: 10 96 27 27 (699840)
I0423 20:51:07.934592 25301 net.cpp:165] Memory required for data: 32214840
I0423 20:51:07.934604 25301 layer_factory.hpp:77] Creating layer norm1
I0423 20:51:07.934635 25301 net.cpp:100] Creating Layer norm1
I0423 20:51:07.934648 25301 net.cpp:434] norm1 <- pool1
I0423 20:51:07.934662 25301 net.cpp:408] norm1 -> norm1
I0423 20:51:07.935199 25301 net.cpp:150] Setting up norm1
I0423 20:51:07.935220 25301 net.cpp:157] Top shape: 10 96 27 27 (699840)
I0423 20:51:07.935232 25301 net.cpp:165] Memory required for data: 35014200
I0423 20:51:07.935245 25301 layer_factory.hpp:77] Creating layer conv2
I0423 20:51:07.935281 25301 net.cpp:100] Creating Layer conv2
I0423 20:51:07.935294 25301 net.cpp:434] conv2 <- norm1
I0423 20:51:07.935318 25301 net.cpp:408] conv2 -> conv2
I0423 20:51:07.946096 25301 net.cpp:150] Setting up conv2
I0423 20:51:07.946128 25301 net.cpp:157] Top shape: 10 256 27 27 (1866240)
I0423 20:51:07.946148 25301 net.cpp:165] Memory required for data: 42479160
I0423 20:51:07.946175 25301 layer_factory.hpp:77] Creating layer relu2
I0423 20:51:07.946198 25301 net.cpp:100] Creating Layer relu2
I0423 20:51:07.946223 25301 net.cpp:434] relu2 <- conv2
I0423 20:51:07.946239 25301 net.cpp:395] relu2 -> conv2 (in-place)
I0423 20:51:07.946600 25301 net.cpp:150] Setting up relu2
I0423 20:51:07.946619 25301 net.cpp:157] Top shape: 10 256 27 27 (1866240)
I0423 20:51:07.946630 25301 net.cpp:165] Memory required for data: 49944120
I0423 20:51:07.946641 25301 layer_factory.hpp:77] Creating layer pool2
I0423 20:51:07.946669 25301 net.cpp:100] Creating Layer pool2
I0423 20:51:07.946682 25301 net.cpp:434] pool2 <- conv2
I0423 20:51:07.946696 25301 net.cpp:408] pool2 -> pool2
I0423 20:51:07.946801 25301 net.cpp:150] Setting up pool2
I0423 20:51:07.946822 25301 net.cpp:157] Top shape: 10 256 13 13 (432640)
I0423 20:51:07.946835 25301 net.cpp:165] Memory required for data: 51674680
I0423 20:51:07.946846 25301 layer_factory.hpp:77] Creating layer norm2
I0423 20:51:07.946876 25301 net.cpp:100] Creating Layer norm2
I0423 20:51:07.946888 25301 net.cpp:434] norm2 <- pool2
I0423 20:51:07.946902 25301 net.cpp:408] norm2 -> norm2
I0423 20:51:07.947477 25301 net.cpp:150] Setting up norm2
I0423 20:51:07.947504 25301 net.cpp:157] Top shape: 10 256 13 13 (432640)
I0423 20:51:07.947515 25301 net.cpp:165] Memory required for data: 53405240
I0423 20:51:07.947530 25301 layer_factory.hpp:77] Creating layer conv3
I0423 20:51:07.947557 25301 net.cpp:100] Creating Layer conv3
I0423 20:51:07.947571 25301 net.cpp:434] conv3 <- norm2
I0423 20:51:07.947589 25301 net.cpp:408] conv3 -> conv3
I0423 20:51:07.969190 25301 net.cpp:150] Setting up conv3
I0423 20:51:07.969223 25301 net.cpp:157] Top shape: 10 384 13 13 (648960)
I0423 20:51:07.969244 25301 net.cpp:165] Memory required for data: 56001080
I0423 20:51:07.969270 25301 layer_factory.hpp:77] Creating layer relu3
I0423 20:51:07.969292 25301 net.cpp:100] Creating Layer relu3
I0423 20:51:07.969305 25301 net.cpp:434] relu3 <- conv3
I0423 20:51:07.969337 25301 net.cpp:395] relu3 -> conv3 (in-place)
I0423 20:51:07.969849 25301 net.cpp:150] Setting up relu3
I0423 20:51:07.969871 25301 net.cpp:157] Top shape: 10 384 13 13 (648960)
I0423 20:51:07.969883 25301 net.cpp:165] Memory required for data: 58596920
I0423 20:51:07.969895 25301 layer_factory.hpp:77] Creating layer conv4
I0423 20:51:07.969930 25301 net.cpp:100] Creating Layer conv4
I0423 20:51:07.969944 25301 net.cpp:434] conv4 <- conv3
I0423 20:51:07.969964 25301 net.cpp:408] conv4 -> conv4
I0423 20:51:07.988193 25301 net.cpp:150] Setting up conv4
I0423 20:51:07.988230 25301 net.cpp:157] Top shape: 10 384 13 13 (648960)
I0423 20:51:07.988243 25301 net.cpp:165] Memory required for data: 61192760
I0423 20:51:07.988262 25301 layer_factory.hpp:77] Creating layer relu4
I0423 20:51:07.988286 25301 net.cpp:100] Creating Layer relu4
I0423 20:51:07.988297 25301 net.cpp:434] relu4 <- conv4
I0423 20:51:07.988327 25301 net.cpp:395] relu4 -> conv4 (in-place)
I0423 20:51:07.988674 25301 net.cpp:150] Setting up relu4
I0423 20:51:07.988693 25301 net.cpp:157] Top shape: 10 384 13 13 (648960)
I0423 20:51:07.988704 25301 net.cpp:165] Memory required for data: 63788600
I0423 20:51:07.988715 25301 layer_factory.hpp:77] Creating layer conv5
I0423 20:51:07.988750 25301 net.cpp:100] Creating Layer conv5
I0423 20:51:07.988762 25301 net.cpp:434] conv5 <- conv4
I0423 20:51:07.988782 25301 net.cpp:408] conv5 -> conv5
I0423 20:51:08.002041 25301 net.cpp:150] Setting up conv5
I0423 20:51:08.002071 25301 net.cpp:157] Top shape: 10 256 13 13 (432640)
I0423 20:51:08.002090 25301 net.cpp:165] Memory required for data: 65519160
I0423 20:51:08.002117 25301 layer_factory.hpp:77] Creating layer relu5
I0423 20:51:08.002142 25301 net.cpp:100] Creating Layer relu5
I0423 20:51:08.002154 25301 net.cpp:434] relu5 <- conv5
I0423 20:51:08.002182 25301 net.cpp:395] relu5 -> conv5 (in-place)
I0423 20:51:08.002524 25301 net.cpp:150] Setting up relu5
I0423 20:51:08.002547 25301 net.cpp:157] Top shape: 10 256 13 13 (432640)
I0423 20:51:08.002558 25301 net.cpp:165] Memory required for data: 67249720
I0423 20:51:08.002573 25301 layer_factory.hpp:77] Creating layer pool5
I0423 20:51:08.002594 25301 net.cpp:100] Creating Layer pool5
I0423 20:51:08.002606 25301 net.cpp:434] pool5 <- conv5
I0423 20:51:08.002627 25301 net.cpp:408] pool5 -> pool5
I0423 20:51:08.002703 25301 net.cpp:150] Setting up pool5
I0423 20:51:08.002734 25301 net.cpp:157] Top shape: 10 256 6 6 (92160)
I0423 20:51:08.002749 25301 net.cpp:165] Memory required for data: 67618360
I0423 20:51:08.002760 25301 layer_factory.hpp:77] Creating layer fc6
I0423 20:51:08.002789 25301 net.cpp:100] Creating Layer fc6
I0423 20:51:08.002801 25301 net.cpp:434] fc6 <- pool5
I0423 20:51:08.002820 25301 net.cpp:408] fc6 -> fc6
I0423 20:51:08.827497 25301 net.cpp:150] Setting up fc6
I0423 20:51:08.827548 25301 net.cpp:157] Top shape: 10 4096 (40960)
I0423 20:51:08.827560 25301 net.cpp:165] Memory required for data: 67782200
I0423 20:51:08.827585 25301 layer_factory.hpp:77] Creating layer relu6
I0423 20:51:08.827605 25301 net.cpp:100] Creating Layer relu6
I0423 20:51:08.827618 25301 net.cpp:434] relu6 <- fc6
I0423 20:51:08.827641 25301 net.cpp:395] relu6 -> fc6 (in-place)
I0423 20:51:08.828358 25301 net.cpp:150] Setting up relu6
I0423 20:51:08.828382 25301 net.cpp:157] Top shape: 10 4096 (40960)
I0423 20:51:08.828402 25301 net.cpp:165] Memory required for data: 67946040
I0423 20:51:08.828414 25301 layer_factory.hpp:77] Creating layer drop6
I0423 20:51:08.828438 25301 net.cpp:100] Creating Layer drop6
I0423 20:51:08.828459 25301 net.cpp:434] drop6 <- fc6
I0423 20:51:08.828474 25301 net.cpp:395] drop6 -> fc6 (in-place)
I0423 20:51:08.828522 25301 net.cpp:150] Setting up drop6
I0423 20:51:08.828547 25301 net.cpp:157] Top shape: 10 4096 (40960)
I0423 20:51:08.828559 25301 net.cpp:165] Memory required for data: 68109880
I0423 20:51:08.828572 25301 layer_factory.hpp:77] Creating layer fc7
I0423 20:51:08.828593 25301 net.cpp:100] Creating Layer fc7
I0423 20:51:08.828605 25301 net.cpp:434] fc7 <- fc6
I0423 20:51:08.828629 25301 net.cpp:408] fc7 -> fc7
I0423 20:51:09.195613 25301 net.cpp:150] Setting up fc7
I0423 20:51:09.195655 25301 net.cpp:157] Top shape: 10 4096 (40960)
I0423 20:51:09.195668 25301 net.cpp:165] Memory required for data: 68273720
I0423 20:51:09.195693 25301 layer_factory.hpp:77] Creating layer relu7
I0423 20:51:09.195713 25301 net.cpp:100] Creating Layer relu7
I0423 20:51:09.195731 25301 net.cpp:434] relu7 <- fc7
I0423 20:51:09.195770 25301 net.cpp:395] relu7 -> fc7 (in-place)
I0423 20:51:09.196171 25301 net.cpp:150] Setting up relu7
I0423 20:51:09.196193 25301 net.cpp:157] Top shape: 10 4096 (40960)
I0423 20:51:09.196205 25301 net.cpp:165] Memory required for data: 68437560
I0423 20:51:09.196218 25301 layer_factory.hpp:77] Creating layer drop7
I0423 20:51:09.196243 25301 net.cpp:100] Creating Layer drop7
I0423 20:51:09.196255 25301 net.cpp:434] drop7 <- fc7
I0423 20:51:09.196269 25301 net.cpp:395] drop7 -> fc7 (in-place)
I0423 20:51:09.196316 25301 net.cpp:150] Setting up drop7
I0423 20:51:09.196341 25301 net.cpp:157] Top shape: 10 4096 (40960)
I0423 20:51:09.196352 25301 net.cpp:165] Memory required for data: 68601400
I0423 20:51:09.196364 25301 layer_factory.hpp:77] Creating layer fc8_finalproject
I0423 20:51:09.196385 25301 net.cpp:100] Creating Layer fc8_finalproject
I0423 20:51:09.196398 25301 net.cpp:434] fc8_finalproject <- fc7
I0423 20:51:09.196420 25301 net.cpp:408] fc8_finalproject -> fc8_finalproject
I0423 20:51:09.197523 25301 net.cpp:150] Setting up fc8_finalproject
I0423 20:51:09.197542 25301 net.cpp:157] Top shape: 10 11 (110)
I0423 20:51:09.197563 25301 net.cpp:165] Memory required for data: 68601840
I0423 20:51:09.197580 25301 net.cpp:228] fc8_finalproject does not need backward computation.
I0423 20:51:09.197592 25301 net.cpp:228] drop7 does not need backward computation.
I0423 20:51:09.197607 25301 net.cpp:228] relu7 does not need backward computation.
I0423 20:51:09.197618 25301 net.cpp:228] fc7 does not need backward computation.
…
