…
W0425 18:53:19.105316 10620 _caffe.cpp:122] DEPRECATION WARNING - deprecated use of Python interface
W0425 18:53:19.105361 10620 _caffe.cpp:123] Use this instead (with the named "weights" parameter):
W0425 18:53:19.105373 10620 _caffe.cpp:125] Net('models/finalproject/deploy.prototxt', 1, weights='models/finalproject/finalproject_iter_90000.caffemodel')
I0425 18:53:19.150002 10620 net.cpp:58] Initializing net from parameters: 
name: "finalprojectCaffeNet"
state {
  phase: TEST
  level: 0
}
layer {
  name: "data"
  type: "Input"
  top: "data"
  input_param {
    shape {
      dim: 10
      dim: 3
      dim: 227
      dim: 227
    }
  }
}
layer {
  name: "conv1"
  type: "Convolution"
  bottom: "data"
  top: "conv1"
  param {
    lr_mult: 1
    decay_mult: 1
  }
  param {
    lr_mult: 2
    decay_mult: 0
  }
  convolution_param {
    num_output: 96
    kernel_size: 11
    stride: 4
    weight_filler {
      type: "gaussian"
      std: 0.01
    }
    bias_filler {
      type: "constant"
      value: 0
    }
  }
}
layer {
  name: "relu1"
  type: "ReLU"
  bottom: "conv1"
  top: "conv1"
}
layer {
  name: "pool1"
  type: "Pooling"
  bottom: "conv1"
  top: "pool1"
  pooling_param {
    pool: MAX
    kernel_size: 3
    stride: 2
  }
}
layer {
  name: "norm1"
  type: "LRN"
  bottom: "pool1"
  top: "norm1"
  lrn_param {
    local_size: 5
    alpha: 0.0001
    beta: 0.75
  }
}
layer {
  name: "conv2"
  type: "Convolution"
  bottom: "norm1"
  top: "conv2"
  param {
    lr_mult: 1
    decay_mult: 1
  }
  param {
    lr_mult: 2
    decay_mult: 0
  }
  convolution_param {
    num_output: 256
    pad: 2
    kernel_size: 5
    group: 2
    weight_filler {
      type: "gaussian"
      std: 0.01
    }
    bias_filler {
      type: "constant"
      value: 1
    }
  }
}
layer {
  name: "relu2"
  type: "ReLU"
  bottom: "conv2"
  top: "conv2"
}
layer {
  name: "pool2"
  type: "Pooling"
  bottom: "conv2"
  top: "pool2"
  pooling_param {
    pool: MAX
    kernel_size: 3
    stride: 2
  }
}
layer {
  name: "norm2"
  type: "LRN"
  bottom: "pool2"
  top: "norm2"
  lrn_param {
    local_size: 5
    alpha: 0.0001
    beta: 0.75
  }
}
layer {
  name: "conv3"
  type: "Convolution"
  bottom: "norm2"
  top: "conv3"
  param {
    lr_mult: 1
    decay_mult: 1
  }
  param {
    lr_mult: 2
    decay_mult: 0
  }
  convolution_param {
    num_output: 384
    pad: 1
    kernel_size: 3
    weight_filler {
      type: "gaussian"
      std: 0.01
    }
    bias_filler {
      type: "constant"
      value: 0
    }
  }
}
layer {
  name: "relu3"
  type: "ReLU"
  bottom: "conv3"
  top: "conv3"
}
layer {
  name: "conv4"
  type: "Convolution"
  bottom: "conv3"
  top: "conv4"
  param {
    lr_mult: 1
    decay_mult: 1
  }
  param {
    lr_mult: 2
    decay_mult: 0
  }
  convolution_param {
    num_output: 384
    pad: 1
    kernel_size: 3
    group: 2
    weight_filler {
      type: "gaussian"
      std: 0.01
    }
    bias_filler {
      type: "constant"
      value: 1
    }
  }
}
layer {
  name: "relu4"
  type: "ReLU"
  bottom: "conv4"
  top: "conv4"
}
layer {
  name: "conv5"
  type: "Convolution"
  bottom: "conv4"
  top: "conv5"
  param {
    lr_mult: 1
    decay_mult: 1
  }
  param {
    lr_mult: 2
    decay_mult: 0
  }
  convolution_param {
    num_output: 256
    pad: 1
    kernel_size: 3
    group: 2
    weight_filler {
      type: "gaussian"
      std: 0.01
    }
    bias_filler {
      type: "constant"
      value: 1
    }
  }
}
layer {
  name: "relu5"
  type: "ReLU"
  bottom: "conv5"
  top: "conv5"
}
layer {
  name: "pool5"
  type: "Pooling"
  bottom: "conv5"
  top: "pool5"
  pooling_param {
    pool: MAX
    kernel_size: 3
    stride: 2
  }
}
layer {
  name: "fc6"
  type: "InnerProduct"
  bottom: "pool5"
  top: "fc6"
  param {
    lr_mult: 1
    decay_mult: 1
  }
  param {
    lr_mult: 2
    decay_mult: 0
  }
  inner_product_param {
    num_output: 4096
    weight_filler {
      type: "gaussian"
      std: 0.005
    }
    bias_filler {
      type: "constant"
      value: 1
    }
  }
}
layer {
  name: "relu6"
  type: "ReLU"
  bottom: "fc6"
  top: "fc6"
}
layer {
  name: "drop6"
  type: "Dropout"
  bottom: "fc6"
  top: "fc6"
  dropout_param {
    dropout_ratio: 0.5
  }
}
layer {
  name: "fc7"
  type: "InnerProduct"
  bottom: "fc6"
  top: "fc7"
  param {
    lr_mult: 1
    decay_mult: 1
  }
  param {
    lr_mult: 2
    decay_mult: 0
  }
  inner_product_param {
    num_output: 4096
    weight_filler {
      type: "gaussian"
      std: 0.005
    }
    bias_filler {
      type: "constant"
      value: 1
    }
  }
}
layer {
  name: "relu7"
  type: "ReLU"
  bottom: "fc7"
  top: "fc7"
}
layer {
  name: "drop7"
  type: "Dropout"
  bottom: "fc7"
  top: "fc7"
  dropout_param {
    dropout_ratio: 0.5
  }
}
layer {
  name: "fc8_finalproject"
  type: "InnerProduct"
  bottom: "fc7"
  top: "fc8_finalproject"
  param {
    lr_mult: 10
    decay_mult: 1
  }
  param {
    lr_mult: 20
    decay_mult: 0
  }
  inner_product_param {
    num_output: 11
    weight_filler {
      type: "gaussian"
      std: 0.01
    }
    bias_filler {
      type: "constant"
      value: 0
    }
  }
}
I0425 18:53:19.150195 10620 layer_factory.hpp:77] Creating layer data
I0425 18:53:19.150262 10620 net.cpp:100] Creating Layer data
I0425 18:53:19.150285 10620 net.cpp:408] data -> data
I0425 18:53:19.170256 10620 net.cpp:150] Setting up data
I0425 18:53:19.170390 10620 net.cpp:157] Top shape: 10 3 227 227 (1545870)
I0425 18:53:19.170408 10620 net.cpp:165] Memory required for data: 6183480
I0425 18:53:19.170424 10620 layer_factory.hpp:77] Creating layer conv1
I0425 18:53:19.170471 10620 net.cpp:100] Creating Layer conv1
I0425 18:53:19.170487 10620 net.cpp:434] conv1 <- data
I0425 18:53:19.170518 10620 net.cpp:408] conv1 -> conv1
I0425 18:53:19.498977 10620 net.cpp:150] Setting up conv1
I0425 18:53:19.499025 10620 net.cpp:157] Top shape: 10 96 55 55 (2904000)
I0425 18:53:19.499049 10620 net.cpp:165] Memory required for data: 17799480
I0425 18:53:19.499084 10620 layer_factory.hpp:77] Creating layer relu1
I0425 18:53:19.499138 10620 net.cpp:100] Creating Layer relu1
I0425 18:53:19.499152 10620 net.cpp:434] relu1 <- conv1
I0425 18:53:19.499168 10620 net.cpp:395] relu1 -> conv1 (in-place)
I0425 18:53:19.499510 10620 net.cpp:150] Setting up relu1
I0425 18:53:19.499528 10620 net.cpp:157] Top shape: 10 96 55 55 (2904000)
I0425 18:53:19.499541 10620 net.cpp:165] Memory required for data: 29415480
I0425 18:53:19.499552 10620 layer_factory.hpp:77] Creating layer pool1
I0425 18:53:19.499577 10620 net.cpp:100] Creating Layer pool1
I0425 18:53:19.499589 10620 net.cpp:434] pool1 <- conv1
I0425 18:53:19.499604 10620 net.cpp:408] pool1 -> pool1
I0425 18:53:19.499693 10620 net.cpp:150] Setting up pool1
I0425 18:53:19.499709 10620 net.cpp:157] Top shape: 10 96 27 27 (699840)
I0425 18:53:19.499721 10620 net.cpp:165] Memory required for data: 32214840
I0425 18:53:19.499734 10620 layer_factory.hpp:77] Creating layer norm1
I0425 18:53:19.499763 10620 net.cpp:100] Creating Layer norm1
I0425 18:53:19.499775 10620 net.cpp:434] norm1 <- pool1
I0425 18:53:19.499789 10620 net.cpp:408] norm1 -> norm1
I0425 18:53:19.500325 10620 net.cpp:150] Setting up norm1
I0425 18:53:19.500347 10620 net.cpp:157] Top shape: 10 96 27 27 (699840)
I0425 18:53:19.500360 10620 net.cpp:165] Memory required for data: 35014200
I0425 18:53:19.500371 10620 layer_factory.hpp:77] Creating layer conv2
I0425 18:53:19.500406 10620 net.cpp:100] Creating Layer conv2
I0425 18:53:19.500421 10620 net.cpp:434] conv2 <- norm1
I0425 18:53:19.500443 10620 net.cpp:408] conv2 -> conv2
I0425 18:53:19.511174 10620 net.cpp:150] Setting up conv2
I0425 18:53:19.511205 10620 net.cpp:157] Top shape: 10 256 27 27 (1866240)
I0425 18:53:19.511219 10620 net.cpp:165] Memory required for data: 42479160
I0425 18:53:19.511250 10620 layer_factory.hpp:77] Creating layer relu2
I0425 18:53:19.511278 10620 net.cpp:100] Creating Layer relu2
I0425 18:53:19.511291 10620 net.cpp:434] relu2 <- conv2
I0425 18:53:19.511307 10620 net.cpp:395] relu2 -> conv2 (in-place)
I0425 18:53:19.511677 10620 net.cpp:150] Setting up relu2
I0425 18:53:19.511694 10620 net.cpp:157] Top shape: 10 256 27 27 (1866240)
I0425 18:53:19.511706 10620 net.cpp:165] Memory required for data: 49944120
I0425 18:53:19.511718 10620 layer_factory.hpp:77] Creating layer pool2
I0425 18:53:19.511745 10620 net.cpp:100] Creating Layer pool2
I0425 18:53:19.511757 10620 net.cpp:434] pool2 <- conv2
I0425 18:53:19.511772 10620 net.cpp:408] pool2 -> pool2
I0425 18:53:19.511868 10620 net.cpp:150] Setting up pool2
I0425 18:53:19.511890 10620 net.cpp:157] Top shape: 10 256 13 13 (432640)
I0425 18:53:19.511901 10620 net.cpp:165] Memory required for data: 51674680
I0425 18:53:19.511912 10620 layer_factory.hpp:77] Creating layer norm2
I0425 18:53:19.511941 10620 net.cpp:100] Creating Layer norm2
I0425 18:53:19.511955 10620 net.cpp:434] norm2 <- pool2
I0425 18:53:19.511970 10620 net.cpp:408] norm2 -> norm2
I0425 18:53:19.512543 10620 net.cpp:150] Setting up norm2
I0425 18:53:19.512569 10620 net.cpp:157] Top shape: 10 256 13 13 (432640)
I0425 18:53:19.512581 10620 net.cpp:165] Memory required for data: 53405240
I0425 18:53:19.512596 10620 layer_factory.hpp:77] Creating layer conv3
I0425 18:53:19.512624 10620 net.cpp:100] Creating Layer conv3
I0425 18:53:19.512639 10620 net.cpp:434] conv3 <- norm2
I0425 18:53:19.512658 10620 net.cpp:408] conv3 -> conv3
I0425 18:53:19.534241 10620 net.cpp:150] Setting up conv3
I0425 18:53:19.534279 10620 net.cpp:157] Top shape: 10 384 13 13 (648960)
I0425 18:53:19.534292 10620 net.cpp:165] Memory required for data: 56001080
I0425 18:53:19.534317 10620 layer_factory.hpp:77] Creating layer relu3
I0425 18:53:19.534340 10620 net.cpp:100] Creating Layer relu3
I0425 18:53:19.534353 10620 net.cpp:434] relu3 <- conv3
I0425 18:53:19.534387 10620 net.cpp:395] relu3 -> conv3 (in-place)
I0425 18:53:19.534910 10620 net.cpp:150] Setting up relu3
I0425 18:53:19.534931 10620 net.cpp:157] Top shape: 10 384 13 13 (648960)
I0425 18:53:19.534945 10620 net.cpp:165] Memory required for data: 58596920
I0425 18:53:19.534956 10620 layer_factory.hpp:77] Creating layer conv4
I0425 18:53:19.534983 10620 net.cpp:100] Creating Layer conv4
I0425 18:53:19.535004 10620 net.cpp:434] conv4 <- conv3
I0425 18:53:19.535024 10620 net.cpp:408] conv4 -> conv4
I0425 18:53:19.553225 10620 net.cpp:150] Setting up conv4
I0425 18:53:19.553259 10620 net.cpp:157] Top shape: 10 384 13 13 (648960)
I0425 18:53:19.553272 10620 net.cpp:165] Memory required for data: 61192760
I0425 18:53:19.553292 10620 layer_factory.hpp:77] Creating layer relu4
I0425 18:53:19.553313 10620 net.cpp:100] Creating Layer relu4
I0425 18:53:19.553338 10620 net.cpp:434] relu4 <- conv4
I0425 18:53:19.553354 10620 net.cpp:395] relu4 -> conv4 (in-place)
I0425 18:53:19.553692 10620 net.cpp:150] Setting up relu4
I0425 18:53:19.553711 10620 net.cpp:157] Top shape: 10 384 13 13 (648960)
I0425 18:53:19.553722 10620 net.cpp:165] Memory required for data: 63788600
I0425 18:53:19.553733 10620 layer_factory.hpp:77] Creating layer conv5
I0425 18:53:19.553767 10620 net.cpp:100] Creating Layer conv5
I0425 18:53:19.553781 10620 net.cpp:434] conv5 <- conv4
I0425 18:53:19.553799 10620 net.cpp:408] conv5 -> conv5
I0425 18:53:19.567055 10620 net.cpp:150] Setting up conv5
I0425 18:53:19.567085 10620 net.cpp:157] Top shape: 10 256 13 13 (432640)
I0425 18:53:19.567098 10620 net.cpp:165] Memory required for data: 65519160
I0425 18:53:19.567127 10620 layer_factory.hpp:77] Creating layer relu5
I0425 18:53:19.567148 10620 net.cpp:100] Creating Layer relu5
I0425 18:53:19.567174 10620 net.cpp:434] relu5 <- conv5
I0425 18:53:19.567199 10620 net.cpp:395] relu5 -> conv5 (in-place)
I0425 18:53:19.567554 10620 net.cpp:150] Setting up relu5
I0425 18:53:19.567576 10620 net.cpp:157] Top shape: 10 256 13 13 (432640)
I0425 18:53:19.567589 10620 net.cpp:165] Memory required for data: 67249720
I0425 18:53:19.567602 10620 layer_factory.hpp:77] Creating layer pool5
I0425 18:53:19.567701 10620 net.cpp:100] Creating Layer pool5
I0425 18:53:19.567715 10620 net.cpp:434] pool5 <- conv5
I0425 18:53:19.567734 10620 net.cpp:408] pool5 -> pool5
I0425 18:53:19.567821 10620 net.cpp:150] Setting up pool5
I0425 18:53:19.567842 10620 net.cpp:157] Top shape: 10 256 6 6 (92160)
I0425 18:53:19.567853 10620 net.cpp:165] Memory required for data: 67618360
I0425 18:53:19.567864 10620 layer_factory.hpp:77] Creating layer fc6
I0425 18:53:19.567888 10620 net.cpp:100] Creating Layer fc6
I0425 18:53:19.567911 10620 net.cpp:434] fc6 <- pool5
I0425 18:53:19.567930 10620 net.cpp:408] fc6 -> fc6
I0425 18:53:20.389402 10620 net.cpp:150] Setting up fc6
I0425 18:53:20.389451 10620 net.cpp:157] Top shape: 10 4096 (40960)
I0425 18:53:20.389466 10620 net.cpp:165] Memory required for data: 67782200
I0425 18:53:20.389490 10620 layer_factory.hpp:77] Creating layer relu6
I0425 18:53:20.389510 10620 net.cpp:100] Creating Layer relu6
I0425 18:53:20.389529 10620 net.cpp:434] relu6 <- fc6
I0425 18:53:20.389546 10620 net.cpp:395] relu6 -> fc6 (in-place)
I0425 18:53:20.390269 10620 net.cpp:150] Setting up relu6
I0425 18:53:20.390293 10620 net.cpp:157] Top shape: 10 4096 (40960)
I0425 18:53:20.390312 10620 net.cpp:165] Memory required for data: 67946040
I0425 18:53:20.390324 10620 layer_factory.hpp:77] Creating layer drop6
I0425 18:53:20.390349 10620 net.cpp:100] Creating Layer drop6
I0425 18:53:20.390369 10620 net.cpp:434] drop6 <- fc6
I0425 18:53:20.390385 10620 net.cpp:395] drop6 -> fc6 (in-place)
I0425 18:53:20.390434 10620 net.cpp:150] Setting up drop6
I0425 18:53:20.390457 10620 net.cpp:157] Top shape: 10 4096 (40960)
I0425 18:53:20.390470 10620 net.cpp:165] Memory required for data: 68109880
I0425 18:53:20.390480 10620 layer_factory.hpp:77] Creating layer fc7
I0425 18:53:20.390502 10620 net.cpp:100] Creating Layer fc7
I0425 18:53:20.390514 10620 net.cpp:434] fc7 <- fc6
I0425 18:53:20.390532 10620 net.cpp:408] fc7 -> fc7
I0425 18:53:20.756976 10620 net.cpp:150] Setting up fc7
I0425 18:53:20.757021 10620 net.cpp:157] Top shape: 10 4096 (40960)
I0425 18:53:20.757035 10620 net.cpp:165] Memory required for data: 68273720
I0425 18:53:20.757060 10620 layer_factory.hpp:77] Creating layer relu7
I0425 18:53:20.757079 10620 net.cpp:100] Creating Layer relu7
I0425 18:53:20.757098 10620 net.cpp:434] relu7 <- fc7
I0425 18:53:20.757138 10620 net.cpp:395] relu7 -> fc7 (in-place)
I0425 18:53:20.757540 10620 net.cpp:150] Setting up relu7
I0425 18:53:20.757561 10620 net.cpp:157] Top shape: 10 4096 (40960)
I0425 18:53:20.757573 10620 net.cpp:165] Memory required for data: 68437560
I0425 18:53:20.757585 10620 layer_factory.hpp:77] Creating layer drop7
I0425 18:53:20.757609 10620 net.cpp:100] Creating Layer drop7
I0425 18:53:20.757622 10620 net.cpp:434] drop7 <- fc7
I0425 18:53:20.757637 10620 net.cpp:395] drop7 -> fc7 (in-place)
I0425 18:53:20.757694 10620 net.cpp:150] Setting up drop7
I0425 18:53:20.757714 10620 net.cpp:157] Top shape: 10 4096 (40960)
I0425 18:53:20.757726 10620 net.cpp:165] Memory required for data: 68601400
I0425 18:53:20.757738 10620 layer_factory.hpp:77] Creating layer fc8_finalproject
I0425 18:53:20.757760 10620 net.cpp:100] Creating Layer fc8_finalproject
I0425 18:53:20.757771 10620 net.cpp:434] fc8_finalproject <- fc7
I0425 18:53:20.757796 10620 net.cpp:408] fc8_finalproject -> fc8_finalproject
I0425 18:53:20.758903 10620 net.cpp:150] Setting up fc8_finalproject
I0425 18:53:20.758919 10620 net.cpp:157] Top shape: 10 11 (110)
I0425 18:53:20.758937 10620 net.cpp:165] Memory required for data: 68601840
I0425 18:53:20.758956 10620 net.cpp:228] fc8_finalproject does not need backward computation.
I0425 18:53:20.758968 10620 net.cpp:228] drop7 does not need backward computation.
I0425 18:53:20.758980 10620 net.cpp:228] relu7 does not need backward computation.
I0425 18:53:20.758994 10620 net.cpp:228] fc7 does not need backward computation.
…
