…
W0501 01:17:11.077188 23291 _caffe.cpp:122] DEPRECATION WARNING - deprecated use of Python interface
W0501 01:17:11.077234 23291 _caffe.cpp:123] Use this instead (with the named "weights" parameter):
W0501 01:17:11.077246 23291 _caffe.cpp:125] Net('models/finalproject/deploy.prototxt', 1, weights='models/finalproject/finalproject_iter_90000.caffemodel')
I0501 01:17:11.098693 23291 net.cpp:58] Initializing net from parameters: 
name: "finalprojectCaffeNet"
state {
  phase: TEST
  level: 0
}
layer {
  name: "data"
  type: "Input"
  top: "data"
  input_param {
    shape {
      dim: 10
      dim: 3
      dim: 227
      dim: 227
    }
  }
}
layer {
  name: "conv1"
  type: "Convolution"
  bottom: "data"
  top: "conv1"
  param {
    lr_mult: 1
    decay_mult: 1
  }
  param {
    lr_mult: 2
    decay_mult: 0
  }
  convolution_param {
    num_output: 96
    kernel_size: 11
    stride: 4
    weight_filler {
      type: "gaussian"
      std: 0.01
    }
    bias_filler {
      type: "constant"
      value: 0
    }
  }
}
layer {
  name: "relu1"
  type: "ReLU"
  bottom: "conv1"
  top: "conv1"
}
layer {
  name: "pool1"
  type: "Pooling"
  bottom: "conv1"
  top: "pool1"
  pooling_param {
    pool: MAX
    kernel_size: 3
    stride: 2
  }
}
layer {
  name: "norm1"
  type: "LRN"
  bottom: "pool1"
  top: "norm1"
  lrn_param {
    local_size: 5
    alpha: 0.0001
    beta: 0.75
  }
}
layer {
  name: "conv2"
  type: "Convolution"
  bottom: "norm1"
  top: "conv2"
  param {
    lr_mult: 1
    decay_mult: 1
  }
  param {
    lr_mult: 2
    decay_mult: 0
  }
  convolution_param {
    num_output: 256
    pad: 2
    kernel_size: 5
    group: 2
    weight_filler {
      type: "gaussian"
      std: 0.01
    }
    bias_filler {
      type: "constant"
      value: 1
    }
  }
}
layer {
  name: "relu2"
  type: "ReLU"
  bottom: "conv2"
  top: "conv2"
}
layer {
  name: "pool2"
  type: "Pooling"
  bottom: "conv2"
  top: "pool2"
  pooling_param {
    pool: MAX
    kernel_size: 3
    stride: 2
  }
}
layer {
  name: "norm2"
  type: "LRN"
  bottom: "pool2"
  top: "norm2"
  lrn_param {
    local_size: 5
    alpha: 0.0001
    beta: 0.75
  }
}
layer {
  name: "conv3"
  type: "Convolution"
  bottom: "norm2"
  top: "conv3"
  param {
    lr_mult: 1
    decay_mult: 1
  }
  param {
    lr_mult: 2
    decay_mult: 0
  }
  convolution_param {
    num_output: 384
    pad: 1
    kernel_size: 3
    weight_filler {
      type: "gaussian"
      std: 0.01
    }
    bias_filler {
      type: "constant"
      value: 0
    }
  }
}
layer {
  name: "relu3"
  type: "ReLU"
  bottom: "conv3"
  top: "conv3"
}
layer {
  name: "conv4"
  type: "Convolution"
  bottom: "conv3"
  top: "conv4"
  param {
    lr_mult: 1
    decay_mult: 1
  }
  param {
    lr_mult: 2
    decay_mult: 0
  }
  convolution_param {
    num_output: 384
    pad: 1
    kernel_size: 3
    group: 2
    weight_filler {
      type: "gaussian"
      std: 0.01
    }
    bias_filler {
      type: "constant"
      value: 1
    }
  }
}
layer {
  name: "relu4"
  type: "ReLU"
  bottom: "conv4"
  top: "conv4"
}
layer {
  name: "conv5"
  type: "Convolution"
  bottom: "conv4"
  top: "conv5"
  param {
    lr_mult: 1
    decay_mult: 1
  }
  param {
    lr_mult: 2
    decay_mult: 0
  }
  convolution_param {
    num_output: 256
    pad: 1
    kernel_size: 3
    group: 2
    weight_filler {
      type: "gaussian"
      std: 0.01
    }
    bias_filler {
      type: "constant"
      value: 1
    }
  }
}
layer {
  name: "relu5"
  type: "ReLU"
  bottom: "conv5"
  top: "conv5"
}
layer {
  name: "pool5"
  type: "Pooling"
  bottom: "conv5"
  top: "pool5"
  pooling_param {
    pool: MAX
    kernel_size: 3
    stride: 2
  }
}
layer {
  name: "fc6"
  type: "InnerProduct"
  bottom: "pool5"
  top: "fc6"
  param {
    lr_mult: 1
    decay_mult: 1
  }
  param {
    lr_mult: 2
    decay_mult: 0
  }
  inner_product_param {
    num_output: 4096
    weight_filler {
      type: "gaussian"
      std: 0.005
    }
    bias_filler {
      type: "constant"
      value: 1
    }
  }
}
layer {
  name: "relu6"
  type: "ReLU"
  bottom: "fc6"
  top: "fc6"
}
layer {
  name: "drop6"
  type: "Dropout"
  bottom: "fc6"
  top: "fc6"
  dropout_param {
    dropout_ratio: 0.5
  }
}
layer {
  name: "fc7"
  type: "InnerProduct"
  bottom: "fc6"
  top: "fc7"
  param {
    lr_mult: 1
    decay_mult: 1
  }
  param {
    lr_mult: 2
    decay_mult: 0
  }
  inner_product_param {
    num_output: 4096
    weight_filler {
      type: "gaussian"
      std: 0.005
    }
    bias_filler {
      type: "constant"
      value: 1
    }
  }
}
layer {
  name: "relu7"
  type: "ReLU"
  bottom: "fc7"
  top: "fc7"
}
layer {
  name: "drop7"
  type: "Dropout"
  bottom: "fc7"
  top: "fc7"
  dropout_param {
    dropout_ratio: 0.5
  }
}
layer {
  name: "fc8_finalproject"
  type: "InnerProduct"
  bottom: "fc7"
  top: "fc8_finalproject"
  param {
    lr_mult: 10
    decay_mult: 1
  }
  param {
    lr_mult: 20
    decay_mult: 0
  }
  inner_product_param {
    num_output: 11
    weight_filler {
      type: "gaussian"
      std: 0.01
    }
    bias_filler {
      type: "constant"
      value: 0
    }
  }
}
I0501 01:17:11.098871 23291 layer_factory.hpp:77] Creating layer data
I0501 01:17:11.098929 23291 net.cpp:100] Creating Layer data
I0501 01:17:11.098950 23291 net.cpp:408] data -> data
I0501 01:17:11.118934 23291 net.cpp:150] Setting up data
I0501 01:17:11.118993 23291 net.cpp:157] Top shape: 10 3 227 227 (1545870)
I0501 01:17:11.119005 23291 net.cpp:165] Memory required for data: 6183480
I0501 01:17:11.119020 23291 layer_factory.hpp:77] Creating layer conv1
I0501 01:17:11.119068 23291 net.cpp:100] Creating Layer conv1
I0501 01:17:11.119081 23291 net.cpp:434] conv1 <- data
I0501 01:17:11.119099 23291 net.cpp:408] conv1 -> conv1
I0501 01:17:12.088657 23291 net.cpp:150] Setting up conv1
I0501 01:17:12.088706 23291 net.cpp:157] Top shape: 10 96 55 55 (2904000)
I0501 01:17:12.088721 23291 net.cpp:165] Memory required for data: 17799480
I0501 01:17:12.088752 23291 layer_factory.hpp:77] Creating layer relu1
I0501 01:17:12.088806 23291 net.cpp:100] Creating Layer relu1
I0501 01:17:12.088820 23291 net.cpp:434] relu1 <- conv1
I0501 01:17:12.088836 23291 net.cpp:395] relu1 -> conv1 (in-place)
I0501 01:17:12.089174 23291 net.cpp:150] Setting up relu1
I0501 01:17:12.089192 23291 net.cpp:157] Top shape: 10 96 55 55 (2904000)
I0501 01:17:12.089205 23291 net.cpp:165] Memory required for data: 29415480
I0501 01:17:12.089216 23291 layer_factory.hpp:77] Creating layer pool1
I0501 01:17:12.089241 23291 net.cpp:100] Creating Layer pool1
I0501 01:17:12.089253 23291 net.cpp:434] pool1 <- conv1
I0501 01:17:12.089268 23291 net.cpp:408] pool1 -> pool1
I0501 01:17:12.089359 23291 net.cpp:150] Setting up pool1
I0501 01:17:12.089377 23291 net.cpp:157] Top shape: 10 96 27 27 (699840)
I0501 01:17:12.089395 23291 net.cpp:165] Memory required for data: 32214840
I0501 01:17:12.089408 23291 layer_factory.hpp:77] Creating layer norm1
I0501 01:17:12.089433 23291 net.cpp:100] Creating Layer norm1
I0501 01:17:12.089452 23291 net.cpp:434] norm1 <- pool1
I0501 01:17:12.089465 23291 net.cpp:408] norm1 -> norm1
I0501 01:17:12.090003 23291 net.cpp:150] Setting up norm1
I0501 01:17:12.090023 23291 net.cpp:157] Top shape: 10 96 27 27 (699840)
I0501 01:17:12.090041 23291 net.cpp:165] Memory required for data: 35014200
I0501 01:17:12.090054 23291 layer_factory.hpp:77] Creating layer conv2
I0501 01:17:12.090081 23291 net.cpp:100] Creating Layer conv2
I0501 01:17:12.090101 23291 net.cpp:434] conv2 <- norm1
I0501 01:17:12.090117 23291 net.cpp:408] conv2 -> conv2
I0501 01:17:12.100949 23291 net.cpp:150] Setting up conv2
I0501 01:17:12.100983 23291 net.cpp:157] Top shape: 10 256 27 27 (1866240)
I0501 01:17:12.100996 23291 net.cpp:165] Memory required for data: 42479160
I0501 01:17:12.101018 23291 layer_factory.hpp:77] Creating layer relu2
I0501 01:17:12.101040 23291 net.cpp:100] Creating Layer relu2
I0501 01:17:12.101065 23291 net.cpp:434] relu2 <- conv2
I0501 01:17:12.101080 23291 net.cpp:395] relu2 -> conv2 (in-place)
I0501 01:17:12.101433 23291 net.cpp:150] Setting up relu2
I0501 01:17:12.101452 23291 net.cpp:157] Top shape: 10 256 27 27 (1866240)
I0501 01:17:12.101464 23291 net.cpp:165] Memory required for data: 49944120
I0501 01:17:12.101475 23291 layer_factory.hpp:77] Creating layer pool2
I0501 01:17:12.101502 23291 net.cpp:100] Creating Layer pool2
I0501 01:17:12.101516 23291 net.cpp:434] pool2 <- conv2
I0501 01:17:12.101529 23291 net.cpp:408] pool2 -> pool2
I0501 01:17:12.101627 23291 net.cpp:150] Setting up pool2
I0501 01:17:12.101644 23291 net.cpp:157] Top shape: 10 256 13 13 (432640)
I0501 01:17:12.101655 23291 net.cpp:165] Memory required for data: 51674680
I0501 01:17:12.101668 23291 layer_factory.hpp:77] Creating layer norm2
I0501 01:17:12.101698 23291 net.cpp:100] Creating Layer norm2
I0501 01:17:12.101711 23291 net.cpp:434] norm2 <- pool2
I0501 01:17:12.101725 23291 net.cpp:408] norm2 -> norm2
I0501 01:17:12.102303 23291 net.cpp:150] Setting up norm2
I0501 01:17:12.102327 23291 net.cpp:157] Top shape: 10 256 13 13 (432640)
I0501 01:17:12.102339 23291 net.cpp:165] Memory required for data: 53405240
I0501 01:17:12.102350 23291 layer_factory.hpp:77] Creating layer conv3
I0501 01:17:12.102385 23291 net.cpp:100] Creating Layer conv3
I0501 01:17:12.102397 23291 net.cpp:434] conv3 <- norm2
I0501 01:17:12.102412 23291 net.cpp:408] conv3 -> conv3
I0501 01:17:12.124104 23291 net.cpp:150] Setting up conv3
I0501 01:17:12.124143 23291 net.cpp:157] Top shape: 10 384 13 13 (648960)
I0501 01:17:12.124163 23291 net.cpp:165] Memory required for data: 56001080
I0501 01:17:12.124187 23291 layer_factory.hpp:77] Creating layer relu3
I0501 01:17:12.124209 23291 net.cpp:100] Creating Layer relu3
I0501 01:17:12.124222 23291 net.cpp:434] relu3 <- conv3
I0501 01:17:12.124238 23291 net.cpp:395] relu3 -> conv3 (in-place)
I0501 01:17:12.124755 23291 net.cpp:150] Setting up relu3
I0501 01:17:12.124778 23291 net.cpp:157] Top shape: 10 384 13 13 (648960)
I0501 01:17:12.124789 23291 net.cpp:165] Memory required for data: 58596920
I0501 01:17:12.124801 23291 layer_factory.hpp:77] Creating layer conv4
I0501 01:17:12.124840 23291 net.cpp:100] Creating Layer conv4
I0501 01:17:12.124852 23291 net.cpp:434] conv4 <- conv3
I0501 01:17:12.124879 23291 net.cpp:408] conv4 -> conv4
I0501 01:17:12.143126 23291 net.cpp:150] Setting up conv4
I0501 01:17:12.143162 23291 net.cpp:157] Top shape: 10 384 13 13 (648960)
I0501 01:17:12.143174 23291 net.cpp:165] Memory required for data: 61192760
I0501 01:17:12.143193 23291 layer_factory.hpp:77] Creating layer relu4
I0501 01:17:12.143214 23291 net.cpp:100] Creating Layer relu4
I0501 01:17:12.143226 23291 net.cpp:434] relu4 <- conv4
I0501 01:17:12.143254 23291 net.cpp:395] relu4 -> conv4 (in-place)
I0501 01:17:12.143590 23291 net.cpp:150] Setting up relu4
I0501 01:17:12.143609 23291 net.cpp:157] Top shape: 10 384 13 13 (648960)
I0501 01:17:12.143620 23291 net.cpp:165] Memory required for data: 63788600
I0501 01:17:12.143631 23291 layer_factory.hpp:77] Creating layer conv5
I0501 01:17:12.143657 23291 net.cpp:100] Creating Layer conv5
I0501 01:17:12.143677 23291 net.cpp:434] conv5 <- conv4
I0501 01:17:12.143697 23291 net.cpp:408] conv5 -> conv5
I0501 01:17:12.156973 23291 net.cpp:150] Setting up conv5
I0501 01:17:12.157003 23291 net.cpp:157] Top shape: 10 256 13 13 (432640)
I0501 01:17:12.157022 23291 net.cpp:165] Memory required for data: 65519160
I0501 01:17:12.157052 23291 layer_factory.hpp:77] Creating layer relu5
I0501 01:17:12.157073 23291 net.cpp:100] Creating Layer relu5
I0501 01:17:12.157084 23291 net.cpp:434] relu5 <- conv5
I0501 01:17:12.157112 23291 net.cpp:395] relu5 -> conv5 (in-place)
I0501 01:17:12.157452 23291 net.cpp:150] Setting up relu5
I0501 01:17:12.157474 23291 net.cpp:157] Top shape: 10 256 13 13 (432640)
I0501 01:17:12.157486 23291 net.cpp:165] Memory required for data: 67249720
I0501 01:17:12.157501 23291 layer_factory.hpp:77] Creating layer pool5
I0501 01:17:12.157516 23291 net.cpp:100] Creating Layer pool5
I0501 01:17:12.157536 23291 net.cpp:434] pool5 <- conv5
I0501 01:17:12.157553 23291 net.cpp:408] pool5 -> pool5
I0501 01:17:12.157632 23291 net.cpp:150] Setting up pool5
I0501 01:17:12.157656 23291 net.cpp:157] Top shape: 10 256 6 6 (92160)
I0501 01:17:12.157675 23291 net.cpp:165] Memory required for data: 67618360
I0501 01:17:12.157688 23291 layer_factory.hpp:77] Creating layer fc6
I0501 01:17:12.157711 23291 net.cpp:100] Creating Layer fc6
I0501 01:17:12.157724 23291 net.cpp:434] fc6 <- pool5
I0501 01:17:12.157752 23291 net.cpp:408] fc6 -> fc6
I0501 01:17:12.986866 23291 net.cpp:150] Setting up fc6
I0501 01:17:12.986913 23291 net.cpp:157] Top shape: 10 4096 (40960)
I0501 01:17:12.986934 23291 net.cpp:165] Memory required for data: 67782200
I0501 01:17:12.986958 23291 layer_factory.hpp:77] Creating layer relu6
I0501 01:17:12.986979 23291 net.cpp:100] Creating Layer relu6
I0501 01:17:12.986999 23291 net.cpp:434] relu6 <- fc6
I0501 01:17:12.987033 23291 net.cpp:395] relu6 -> fc6 (in-place)
I0501 01:17:12.987732 23291 net.cpp:150] Setting up relu6
I0501 01:17:12.987756 23291 net.cpp:157] Top shape: 10 4096 (40960)
I0501 01:17:12.987774 23291 net.cpp:165] Memory required for data: 67946040
I0501 01:17:12.987787 23291 layer_factory.hpp:77] Creating layer drop6
I0501 01:17:12.987807 23291 net.cpp:100] Creating Layer drop6
I0501 01:17:12.987830 23291 net.cpp:434] drop6 <- fc6
I0501 01:17:12.987844 23291 net.cpp:395] drop6 -> fc6 (in-place)
I0501 01:17:12.987892 23291 net.cpp:150] Setting up drop6
I0501 01:17:12.987910 23291 net.cpp:157] Top shape: 10 4096 (40960)
I0501 01:17:12.987927 23291 net.cpp:165] Memory required for data: 68109880
I0501 01:17:12.987939 23291 layer_factory.hpp:77] Creating layer fc7
I0501 01:17:12.987964 23291 net.cpp:100] Creating Layer fc7
I0501 01:17:12.987977 23291 net.cpp:434] fc7 <- fc6
I0501 01:17:12.987994 23291 net.cpp:408] fc7 -> fc7
I0501 01:17:13.356353 23291 net.cpp:150] Setting up fc7
I0501 01:17:13.356400 23291 net.cpp:157] Top shape: 10 4096 (40960)
I0501 01:17:13.356412 23291 net.cpp:165] Memory required for data: 68273720
I0501 01:17:13.356436 23291 layer_factory.hpp:77] Creating layer relu7
I0501 01:17:13.356459 23291 net.cpp:100] Creating Layer relu7
I0501 01:17:13.356478 23291 net.cpp:434] relu7 <- fc7
I0501 01:17:13.356514 23291 net.cpp:395] relu7 -> fc7 (in-place)
I0501 01:17:13.356917 23291 net.cpp:150] Setting up relu7
I0501 01:17:13.356936 23291 net.cpp:157] Top shape: 10 4096 (40960)
I0501 01:17:13.356948 23291 net.cpp:165] Memory required for data: 68437560
I0501 01:17:13.356959 23291 layer_factory.hpp:77] Creating layer drop7
I0501 01:17:13.356983 23291 net.cpp:100] Creating Layer drop7
I0501 01:17:13.356995 23291 net.cpp:434] drop7 <- fc7
I0501 01:17:13.357009 23291 net.cpp:395] drop7 -> fc7 (in-place)
I0501 01:17:13.357066 23291 net.cpp:150] Setting up drop7
I0501 01:17:13.357091 23291 net.cpp:157] Top shape: 10 4096 (40960)
I0501 01:17:13.357105 23291 net.cpp:165] Memory required for data: 68601400
I0501 01:17:13.357115 23291 layer_factory.hpp:77] Creating layer fc8_finalproject
I0501 01:17:13.357137 23291 net.cpp:100] Creating Layer fc8_finalproject
I0501 01:17:13.357148 23291 net.cpp:434] fc8_finalproject <- fc7
I0501 01:17:13.357167 23291 net.cpp:408] fc8_finalproject -> fc8_finalproject
I0501 01:17:13.358268 23291 net.cpp:150] Setting up fc8_finalproject
I0501 01:17:13.358285 23291 net.cpp:157] Top shape: 10 11 (110)
I0501 01:17:13.358304 23291 net.cpp:165] Memory required for data: 68601840
I0501 01:17:13.358324 23291 net.cpp:228] fc8_finalproject does not need backward computation.
I0501 01:17:13.358335 23291 net.cpp:228] drop7 does not need backward computation.
I0501 01:17:13.358348 23291 net.cpp:228] relu7 does not need backward computation.
I0501 01:17:13.358366 23291 net.cpp:228] fc7 does not need backward computation.
…
