…
W0424 01:26:07.474208  3330 _caffe.cpp:122] DEPRECATION WARNING - deprecated use of Python interface
W0424 01:26:07.474256  3330 _caffe.cpp:123] Use this instead (with the named "weights" parameter):
W0424 01:26:07.474267  3330 _caffe.cpp:125] Net('models/finalproject/deploy.prototxt', 1, weights='models/finalproject/finalproject_iter_90000.caffemodel')
I0424 01:26:07.499397  3330 net.cpp:58] Initializing net from parameters: 
name: "finalprojectCaffeNet"
state {
  phase: TEST
  level: 0
}
layer {
  name: "data"
  type: "Input"
  top: "data"
  input_param {
    shape {
      dim: 10
      dim: 3
      dim: 227
      dim: 227
    }
  }
}
layer {
  name: "conv1"
  type: "Convolution"
  bottom: "data"
  top: "conv1"
  param {
    lr_mult: 1
    decay_mult: 1
  }
  param {
    lr_mult: 2
    decay_mult: 0
  }
  convolution_param {
    num_output: 96
    kernel_size: 11
    stride: 4
    weight_filler {
      type: "gaussian"
      std: 0.01
    }
    bias_filler {
      type: "constant"
      value: 0
    }
  }
}
layer {
  name: "relu1"
  type: "ReLU"
  bottom: "conv1"
  top: "conv1"
}
layer {
  name: "pool1"
  type: "Pooling"
  bottom: "conv1"
  top: "pool1"
  pooling_param {
    pool: MAX
    kernel_size: 3
    stride: 2
  }
}
layer {
  name: "norm1"
  type: "LRN"
  bottom: "pool1"
  top: "norm1"
  lrn_param {
    local_size: 5
    alpha: 0.0001
    beta: 0.75
  }
}
layer {
  name: "conv2"
  type: "Convolution"
  bottom: "norm1"
  top: "conv2"
  param {
    lr_mult: 1
    decay_mult: 1
  }
  param {
    lr_mult: 2
    decay_mult: 0
  }
  convolution_param {
    num_output: 256
    pad: 2
    kernel_size: 5
    group: 2
    weight_filler {
      type: "gaussian"
      std: 0.01
    }
    bias_filler {
      type: "constant"
      value: 1
    }
  }
}
layer {
  name: "relu2"
  type: "ReLU"
  bottom: "conv2"
  top: "conv2"
}
layer {
  name: "pool2"
  type: "Pooling"
  bottom: "conv2"
  top: "pool2"
  pooling_param {
    pool: MAX
    kernel_size: 3
    stride: 2
  }
}
layer {
  name: "norm2"
  type: "LRN"
  bottom: "pool2"
  top: "norm2"
  lrn_param {
    local_size: 5
    alpha: 0.0001
    beta: 0.75
  }
}
layer {
  name: "conv3"
  type: "Convolution"
  bottom: "norm2"
  top: "conv3"
  param {
    lr_mult: 1
    decay_mult: 1
  }
  param {
    lr_mult: 2
    decay_mult: 0
  }
  convolution_param {
    num_output: 384
    pad: 1
    kernel_size: 3
    weight_filler {
      type: "gaussian"
      std: 0.01
    }
    bias_filler {
      type: "constant"
      value: 0
    }
  }
}
layer {
  name: "relu3"
  type: "ReLU"
  bottom: "conv3"
  top: "conv3"
}
layer {
  name: "conv4"
  type: "Convolution"
  bottom: "conv3"
  top: "conv4"
  param {
    lr_mult: 1
    decay_mult: 1
  }
  param {
    lr_mult: 2
    decay_mult: 0
  }
  convolution_param {
    num_output: 384
    pad: 1
    kernel_size: 3
    group: 2
    weight_filler {
      type: "gaussian"
      std: 0.01
    }
    bias_filler {
      type: "constant"
      value: 1
    }
  }
}
layer {
  name: "relu4"
  type: "ReLU"
  bottom: "conv4"
  top: "conv4"
}
layer {
  name: "conv5"
  type: "Convolution"
  bottom: "conv4"
  top: "conv5"
  param {
    lr_mult: 1
    decay_mult: 1
  }
  param {
    lr_mult: 2
    decay_mult: 0
  }
  convolution_param {
    num_output: 256
    pad: 1
    kernel_size: 3
    group: 2
    weight_filler {
      type: "gaussian"
      std: 0.01
    }
    bias_filler {
      type: "constant"
      value: 1
    }
  }
}
layer {
  name: "relu5"
  type: "ReLU"
  bottom: "conv5"
  top: "conv5"
}
layer {
  name: "pool5"
  type: "Pooling"
  bottom: "conv5"
  top: "pool5"
  pooling_param {
    pool: MAX
    kernel_size: 3
    stride: 2
  }
}
layer {
  name: "fc6"
  type: "InnerProduct"
  bottom: "pool5"
  top: "fc6"
  param {
    lr_mult: 1
    decay_mult: 1
  }
  param {
    lr_mult: 2
    decay_mult: 0
  }
  inner_product_param {
    num_output: 4096
    weight_filler {
      type: "gaussian"
      std: 0.005
    }
    bias_filler {
      type: "constant"
      value: 1
    }
  }
}
layer {
  name: "relu6"
  type: "ReLU"
  bottom: "fc6"
  top: "fc6"
}
layer {
  name: "drop6"
  type: "Dropout"
  bottom: "fc6"
  top: "fc6"
  dropout_param {
    dropout_ratio: 0.5
  }
}
layer {
  name: "fc7"
  type: "InnerProduct"
  bottom: "fc6"
  top: "fc7"
  param {
    lr_mult: 1
    decay_mult: 1
  }
  param {
    lr_mult: 2
    decay_mult: 0
  }
  inner_product_param {
    num_output: 4096
    weight_filler {
      type: "gaussian"
      std: 0.005
    }
    bias_filler {
      type: "constant"
      value: 1
    }
  }
}
layer {
  name: "relu7"
  type: "ReLU"
  bottom: "fc7"
  top: "fc7"
}
layer {
  name: "drop7"
  type: "Dropout"
  bottom: "fc7"
  top: "fc7"
  dropout_param {
    dropout_ratio: 0.5
  }
}
layer {
  name: "fc8_finalproject"
  type: "InnerProduct"
  bottom: "fc7"
  top: "fc8_finalproject"
  param {
    lr_mult: 10
    decay_mult: 1
  }
  param {
    lr_mult: 20
    decay_mult: 0
  }
  inner_product_param {
    num_output: 11
    weight_filler {
      type: "gaussian"
      std: 0.01
    }
    bias_filler {
      type: "constant"
      value: 0
    }
  }
}
I0424 01:26:07.499577  3330 layer_factory.hpp:77] Creating layer data
I0424 01:26:07.499634  3330 net.cpp:100] Creating Layer data
I0424 01:26:07.499656  3330 net.cpp:408] data -> data
I0424 01:26:07.519623  3330 net.cpp:150] Setting up data
I0424 01:26:07.519768  3330 net.cpp:157] Top shape: 10 3 227 227 (1545870)
I0424 01:26:07.519783  3330 net.cpp:165] Memory required for data: 6183480
I0424 01:26:07.519801  3330 layer_factory.hpp:77] Creating layer conv1
I0424 01:26:07.519845  3330 net.cpp:100] Creating Layer conv1
I0424 01:26:07.519862  3330 net.cpp:434] conv1 <- data
I0424 01:26:07.519892  3330 net.cpp:408] conv1 -> conv1
I0424 01:26:08.191303  3330 net.cpp:150] Setting up conv1
I0424 01:26:08.191351  3330 net.cpp:157] Top shape: 10 96 55 55 (2904000)
I0424 01:26:08.191375  3330 net.cpp:165] Memory required for data: 17799480
I0424 01:26:08.191411  3330 layer_factory.hpp:77] Creating layer relu1
I0424 01:26:08.191444  3330 net.cpp:100] Creating Layer relu1
I0424 01:26:08.191478  3330 net.cpp:434] relu1 <- conv1
I0424 01:26:08.191493  3330 net.cpp:395] relu1 -> conv1 (in-place)
I0424 01:26:08.191829  3330 net.cpp:150] Setting up relu1
I0424 01:26:08.191848  3330 net.cpp:157] Top shape: 10 96 55 55 (2904000)
I0424 01:26:08.191861  3330 net.cpp:165] Memory required for data: 29415480
I0424 01:26:08.191872  3330 layer_factory.hpp:77] Creating layer pool1
I0424 01:26:08.191891  3330 net.cpp:100] Creating Layer pool1
I0424 01:26:08.191910  3330 net.cpp:434] pool1 <- conv1
I0424 01:26:08.191926  3330 net.cpp:408] pool1 -> pool1
I0424 01:26:08.192015  3330 net.cpp:150] Setting up pool1
I0424 01:26:08.192032  3330 net.cpp:157] Top shape: 10 96 27 27 (699840)
I0424 01:26:08.192050  3330 net.cpp:165] Memory required for data: 32214840
I0424 01:26:08.192062  3330 layer_factory.hpp:77] Creating layer norm1
I0424 01:26:08.192087  3330 net.cpp:100] Creating Layer norm1
I0424 01:26:08.192106  3330 net.cpp:434] norm1 <- pool1
I0424 01:26:08.192121  3330 net.cpp:408] norm1 -> norm1
I0424 01:26:08.192646  3330 net.cpp:150] Setting up norm1
I0424 01:26:08.192667  3330 net.cpp:157] Top shape: 10 96 27 27 (699840)
I0424 01:26:08.192684  3330 net.cpp:165] Memory required for data: 35014200
I0424 01:26:08.192697  3330 layer_factory.hpp:77] Creating layer conv2
I0424 01:26:08.192724  3330 net.cpp:100] Creating Layer conv2
I0424 01:26:08.192745  3330 net.cpp:434] conv2 <- norm1
I0424 01:26:08.192762  3330 net.cpp:408] conv2 -> conv2
I0424 01:26:08.203558  3330 net.cpp:150] Setting up conv2
I0424 01:26:08.203590  3330 net.cpp:157] Top shape: 10 256 27 27 (1866240)
I0424 01:26:08.203610  3330 net.cpp:165] Memory required for data: 42479160
I0424 01:26:08.203637  3330 layer_factory.hpp:77] Creating layer relu2
I0424 01:26:08.203658  3330 net.cpp:100] Creating Layer relu2
I0424 01:26:08.203682  3330 net.cpp:434] relu2 <- conv2
I0424 01:26:08.203698  3330 net.cpp:395] relu2 -> conv2 (in-place)
I0424 01:26:08.204058  3330 net.cpp:150] Setting up relu2
I0424 01:26:08.204077  3330 net.cpp:157] Top shape: 10 256 27 27 (1866240)
I0424 01:26:08.204089  3330 net.cpp:165] Memory required for data: 49944120
I0424 01:26:08.204100  3330 layer_factory.hpp:77] Creating layer pool2
I0424 01:26:08.204128  3330 net.cpp:100] Creating Layer pool2
I0424 01:26:08.204141  3330 net.cpp:434] pool2 <- conv2
I0424 01:26:08.204156  3330 net.cpp:408] pool2 -> pool2
I0424 01:26:08.204253  3330 net.cpp:150] Setting up pool2
I0424 01:26:08.204269  3330 net.cpp:157] Top shape: 10 256 13 13 (432640)
I0424 01:26:08.204280  3330 net.cpp:165] Memory required for data: 51674680
I0424 01:26:08.204291  3330 layer_factory.hpp:77] Creating layer norm2
I0424 01:26:08.204322  3330 net.cpp:100] Creating Layer norm2
I0424 01:26:08.204334  3330 net.cpp:434] norm2 <- pool2
I0424 01:26:08.204349  3330 net.cpp:408] norm2 -> norm2
I0424 01:26:08.204933  3330 net.cpp:150] Setting up norm2
I0424 01:26:08.204958  3330 net.cpp:157] Top shape: 10 256 13 13 (432640)
I0424 01:26:08.204970  3330 net.cpp:165] Memory required for data: 53405240
I0424 01:26:08.204985  3330 layer_factory.hpp:77] Creating layer conv3
I0424 01:26:08.205014  3330 net.cpp:100] Creating Layer conv3
I0424 01:26:08.205027  3330 net.cpp:434] conv3 <- norm2
I0424 01:26:08.205050  3330 net.cpp:408] conv3 -> conv3
I0424 01:26:08.226789  3330 net.cpp:150] Setting up conv3
I0424 01:26:08.226821  3330 net.cpp:157] Top shape: 10 384 13 13 (648960)
I0424 01:26:08.226842  3330 net.cpp:165] Memory required for data: 56001080
I0424 01:26:08.226876  3330 layer_factory.hpp:77] Creating layer relu3
I0424 01:26:08.226897  3330 net.cpp:100] Creating Layer relu3
I0424 01:26:08.226909  3330 net.cpp:434] relu3 <- conv3
I0424 01:26:08.226941  3330 net.cpp:395] relu3 -> conv3 (in-place)
I0424 01:26:08.227452  3330 net.cpp:150] Setting up relu3
I0424 01:26:08.227473  3330 net.cpp:157] Top shape: 10 384 13 13 (648960)
I0424 01:26:08.227485  3330 net.cpp:165] Memory required for data: 58596920
I0424 01:26:08.227496  3330 layer_factory.hpp:77] Creating layer conv4
I0424 01:26:08.227532  3330 net.cpp:100] Creating Layer conv4
I0424 01:26:08.227545  3330 net.cpp:434] conv4 <- conv3
I0424 01:26:08.227566  3330 net.cpp:408] conv4 -> conv4
I0424 01:26:08.245754  3330 net.cpp:150] Setting up conv4
I0424 01:26:08.245790  3330 net.cpp:157] Top shape: 10 384 13 13 (648960)
I0424 01:26:08.245803  3330 net.cpp:165] Memory required for data: 61192760
I0424 01:26:08.245822  3330 layer_factory.hpp:77] Creating layer relu4
I0424 01:26:08.245844  3330 net.cpp:100] Creating Layer relu4
I0424 01:26:08.245857  3330 net.cpp:434] relu4 <- conv4
I0424 01:26:08.245885  3330 net.cpp:395] relu4 -> conv4 (in-place)
I0424 01:26:08.246224  3330 net.cpp:150] Setting up relu4
I0424 01:26:08.246243  3330 net.cpp:157] Top shape: 10 384 13 13 (648960)
I0424 01:26:08.246254  3330 net.cpp:165] Memory required for data: 63788600
I0424 01:26:08.246265  3330 layer_factory.hpp:77] Creating layer conv5
I0424 01:26:08.246292  3330 net.cpp:100] Creating Layer conv5
I0424 01:26:08.246312  3330 net.cpp:434] conv5 <- conv4
I0424 01:26:08.246331  3330 net.cpp:408] conv5 -> conv5
I0424 01:26:08.259621  3330 net.cpp:150] Setting up conv5
I0424 01:26:08.259651  3330 net.cpp:157] Top shape: 10 256 13 13 (432640)
I0424 01:26:08.259671  3330 net.cpp:165] Memory required for data: 65519160
I0424 01:26:08.259697  3330 layer_factory.hpp:77] Creating layer relu5
I0424 01:26:08.259721  3330 net.cpp:100] Creating Layer relu5
I0424 01:26:08.259733  3330 net.cpp:434] relu5 <- conv5
I0424 01:26:08.259762  3330 net.cpp:395] relu5 -> conv5 (in-place)
I0424 01:26:08.260100  3330 net.cpp:150] Setting up relu5
I0424 01:26:08.260121  3330 net.cpp:157] Top shape: 10 256 13 13 (432640)
I0424 01:26:08.260133  3330 net.cpp:165] Memory required for data: 67249720
I0424 01:26:08.260148  3330 layer_factory.hpp:77] Creating layer pool5
I0424 01:26:08.260164  3330 net.cpp:100] Creating Layer pool5
I0424 01:26:08.260184  3330 net.cpp:434] pool5 <- conv5
I0424 01:26:08.260202  3330 net.cpp:408] pool5 -> pool5
I0424 01:26:08.260278  3330 net.cpp:150] Setting up pool5
I0424 01:26:08.260301  3330 net.cpp:157] Top shape: 10 256 6 6 (92160)
I0424 01:26:08.260313  3330 net.cpp:165] Memory required for data: 67618360
I0424 01:26:08.260324  3330 layer_factory.hpp:77] Creating layer fc6
I0424 01:26:08.260347  3330 net.cpp:100] Creating Layer fc6
I0424 01:26:08.260360  3330 net.cpp:434] fc6 <- pool5
I0424 01:26:08.260378  3330 net.cpp:408] fc6 -> fc6
I0424 01:26:09.088237  3330 net.cpp:150] Setting up fc6
I0424 01:26:09.088291  3330 net.cpp:157] Top shape: 10 4096 (40960)
I0424 01:26:09.088304  3330 net.cpp:165] Memory required for data: 67782200
I0424 01:26:09.088328  3330 layer_factory.hpp:77] Creating layer relu6
I0424 01:26:09.088348  3330 net.cpp:100] Creating Layer relu6
I0424 01:26:09.088367  3330 net.cpp:434] relu6 <- fc6
I0424 01:26:09.088404  3330 net.cpp:395] relu6 -> fc6 (in-place)
I0424 01:26:09.089114  3330 net.cpp:150] Setting up relu6
I0424 01:26:09.089138  3330 net.cpp:157] Top shape: 10 4096 (40960)
I0424 01:26:09.089157  3330 net.cpp:165] Memory required for data: 67946040
I0424 01:26:09.089170  3330 layer_factory.hpp:77] Creating layer drop6
I0424 01:26:09.089195  3330 net.cpp:100] Creating Layer drop6
I0424 01:26:09.089206  3330 net.cpp:434] drop6 <- fc6
I0424 01:26:09.089231  3330 net.cpp:395] drop6 -> fc6 (in-place)
I0424 01:26:09.089279  3330 net.cpp:150] Setting up drop6
I0424 01:26:09.089296  3330 net.cpp:157] Top shape: 10 4096 (40960)
I0424 01:26:09.089313  3330 net.cpp:165] Memory required for data: 68109880
I0424 01:26:09.089325  3330 layer_factory.hpp:77] Creating layer fc7
I0424 01:26:09.089347  3330 net.cpp:100] Creating Layer fc7
I0424 01:26:09.089359  3330 net.cpp:434] fc7 <- fc6
I0424 01:26:09.089376  3330 net.cpp:408] fc7 -> fc7
I0424 01:26:09.457387  3330 net.cpp:150] Setting up fc7
I0424 01:26:09.457440  3330 net.cpp:157] Top shape: 10 4096 (40960)
I0424 01:26:09.457455  3330 net.cpp:165] Memory required for data: 68273720
I0424 01:26:09.457479  3330 layer_factory.hpp:77] Creating layer relu7
I0424 01:26:09.457500  3330 net.cpp:100] Creating Layer relu7
I0424 01:26:09.457538  3330 net.cpp:434] relu7 <- fc7
I0424 01:26:09.457559  3330 net.cpp:395] relu7 -> fc7 (in-place)
I0424 01:26:09.457959  3330 net.cpp:150] Setting up relu7
I0424 01:26:09.457983  3330 net.cpp:157] Top shape: 10 4096 (40960)
I0424 01:26:09.457993  3330 net.cpp:165] Memory required for data: 68437560
I0424 01:26:09.458005  3330 layer_factory.hpp:77] Creating layer drop7
I0424 01:26:09.458024  3330 net.cpp:100] Creating Layer drop7
I0424 01:26:09.458043  3330 net.cpp:434] drop7 <- fc7
I0424 01:26:09.458060  3330 net.cpp:395] drop7 -> fc7 (in-place)
I0424 01:26:09.458112  3330 net.cpp:150] Setting up drop7
I0424 01:26:09.458137  3330 net.cpp:157] Top shape: 10 4096 (40960)
I0424 01:26:09.458148  3330 net.cpp:165] Memory required for data: 68601400
I0424 01:26:09.458160  3330 layer_factory.hpp:77] Creating layer fc8_finalproject
I0424 01:26:09.458181  3330 net.cpp:100] Creating Layer fc8_finalproject
I0424 01:26:09.458194  3330 net.cpp:434] fc8_finalproject <- fc7
I0424 01:26:09.458209  3330 net.cpp:408] fc8_finalproject -> fc8_finalproject
I0424 01:26:09.459317  3330 net.cpp:150] Setting up fc8_finalproject
I0424 01:26:09.459334  3330 net.cpp:157] Top shape: 10 11 (110)
I0424 01:26:09.459347  3330 net.cpp:165] Memory required for data: 68601840
I0424 01:26:09.459364  3330 net.cpp:228] fc8_finalproject does not need backward computation.
I0424 01:26:09.459380  3330 net.cpp:228] drop7 does not need backward computation.
I0424 01:26:09.459398  3330 net.cpp:228] relu7 does not need backward computation.
I0424 01:26:09.459411  3330 net.cpp:228] fc7 does not need backward computation.
…
