…
W0424 01:06:07.942335  3222 _caffe.cpp:122] DEPRECATION WARNING - deprecated use of Python interface
W0424 01:06:07.942383  3222 _caffe.cpp:123] Use this instead (with the named "weights" parameter):
W0424 01:06:07.942394  3222 _caffe.cpp:125] Net('models/fp-mini/deploy.prototxt', 1, weights='models/fp-mini/fp-mini_iter_100000.caffemodel')
I0424 01:06:07.961817  3222 net.cpp:58] Initializing net from parameters: 
name: "fp-miniCaffeNet"
state {
  phase: TEST
  level: 0
}
layer {
  name: "data"
  type: "Input"
  top: "data"
  input_param {
    shape {
      dim: 10
      dim: 3
      dim: 227
      dim: 227
    }
  }
}
layer {
  name: "conv1"
  type: "Convolution"
  bottom: "data"
  top: "conv1"
  param {
    lr_mult: 1
    decay_mult: 1
  }
  param {
    lr_mult: 2
    decay_mult: 0
  }
  convolution_param {
    num_output: 96
    kernel_size: 11
    stride: 4
    weight_filler {
      type: "gaussian"
      std: 0.01
    }
    bias_filler {
      type: "constant"
      value: 0
    }
  }
}
layer {
  name: "relu1"
  type: "ReLU"
  bottom: "conv1"
  top: "conv1"
}
layer {
  name: "pool1"
  type: "Pooling"
  bottom: "conv1"
  top: "pool1"
  pooling_param {
    pool: MAX
    kernel_size: 3
    stride: 2
  }
}
layer {
  name: "norm1"
  type: "LRN"
  bottom: "pool1"
  top: "norm1"
  lrn_param {
    local_size: 5
    alpha: 0.0001
    beta: 0.75
  }
}
layer {
  name: "conv2"
  type: "Convolution"
  bottom: "norm1"
  top: "conv2"
  param {
    lr_mult: 1
    decay_mult: 1
  }
  param {
    lr_mult: 2
    decay_mult: 0
  }
  convolution_param {
    num_output: 256
    pad: 2
    kernel_size: 5
    group: 2
    weight_filler {
      type: "gaussian"
      std: 0.01
    }
    bias_filler {
      type: "constant"
      value: 1
    }
  }
}
layer {
  name: "relu2"
  type: "ReLU"
  bottom: "conv2"
  top: "conv2"
}
layer {
  name: "pool2"
  type: "Pooling"
  bottom: "conv2"
  top: "pool2"
  pooling_param {
    pool: MAX
    kernel_size: 3
    stride: 2
  }
}
layer {
  name: "norm2"
  type: "LRN"
  bottom: "pool2"
  top: "norm2"
  lrn_param {
    local_size: 5
    alpha: 0.0001
    beta: 0.75
  }
}
layer {
  name: "conv3"
  type: "Convolution"
  bottom: "norm2"
  top: "conv3"
  param {
    lr_mult: 1
    decay_mult: 1
  }
  param {
    lr_mult: 2
    decay_mult: 0
  }
  convolution_param {
    num_output: 384
    pad: 1
    kernel_size: 3
    weight_filler {
      type: "gaussian"
      std: 0.01
    }
    bias_filler {
      type: "constant"
      value: 0
    }
  }
}
layer {
  name: "relu3"
  type: "ReLU"
  bottom: "conv3"
  top: "conv3"
}
layer {
  name: "conv4"
  type: "Convolution"
  bottom: "conv3"
  top: "conv4"
  param {
    lr_mult: 1
    decay_mult: 1
  }
  param {
    lr_mult: 2
    decay_mult: 0
  }
  convolution_param {
    num_output: 384
    pad: 1
    kernel_size: 3
    group: 2
    weight_filler {
      type: "gaussian"
      std: 0.01
    }
    bias_filler {
      type: "constant"
      value: 1
    }
  }
}
layer {
  name: "relu4"
  type: "ReLU"
  bottom: "conv4"
  top: "conv4"
}
layer {
  name: "conv5"
  type: "Convolution"
  bottom: "conv4"
  top: "conv5"
  param {
    lr_mult: 1
    decay_mult: 1
  }
  param {
    lr_mult: 2
    decay_mult: 0
  }
  convolution_param {
    num_output: 256
    pad: 1
    kernel_size: 3
    group: 2
    weight_filler {
      type: "gaussian"
      std: 0.01
    }
    bias_filler {
      type: "constant"
      value: 1
    }
  }
}
layer {
  name: "relu5"
  type: "ReLU"
  bottom: "conv5"
  top: "conv5"
}
layer {
  name: "pool5"
  type: "Pooling"
  bottom: "conv5"
  top: "pool5"
  pooling_param {
    pool: MAX
    kernel_size: 3
    stride: 2
  }
}
layer {
  name: "fc6"
  type: "InnerProduct"
  bottom: "pool5"
  top: "fc6"
  param {
    lr_mult: 1
    decay_mult: 1
  }
  param {
    lr_mult: 2
    decay_mult: 0
  }
  inner_product_param {
    num_output: 4096
    weight_filler {
      type: "gaussian"
      std: 0.005
    }
    bias_filler {
      type: "constant"
      value: 1
    }
  }
}
layer {
  name: "relu6"
  type: "ReLU"
  bottom: "fc6"
  top: "fc6"
}
layer {
  name: "drop6"
  type: "Dropout"
  bottom: "fc6"
  top: "fc6"
  dropout_param {
    dropout_ratio: 0.5
  }
}
layer {
  name: "fc7"
  type: "InnerProduct"
  bottom: "fc6"
  top: "fc7"
  param {
    lr_mult: 1
    decay_mult: 1
  }
  param {
    lr_mult: 2
    decay_mult: 0
  }
  inner_product_param {
    num_output: 4096
    weight_filler {
      type: "gaussian"
      std: 0.005
    }
    bias_filler {
      type: "constant"
      value: 1
    }
  }
}
layer {
  name: "relu7"
  type: "ReLU"
  bottom: "fc7"
  top: "fc7"
}
layer {
  name: "drop7"
  type: "Dropout"
  bottom: "fc7"
  top: "fc7"
  dropout_param {
    dropout_ratio: 0.5
  }
}
layer {
  name: "fc8_fp-mini"
  type: "InnerProduct"
  bottom: "fc7"
  top: "fc8_fp-mini"
  param {
    lr_mult: 10
    decay_mult: 1
  }
  param {
    lr_mult: 20
    decay_mult: 0
  }
  inner_product_param {
    num_output: 10
    weight_filler {
      type: "gaussian"
      std: 0.01
    }
    bias_filler {
      type: "constant"
      value: 0
    }
  }
}
I0424 01:06:07.961993  3222 layer_factory.hpp:77] Creating layer data
I0424 01:06:07.962050  3222 net.cpp:100] Creating Layer data
I0424 01:06:07.962074  3222 net.cpp:408] data -> data
I0424 01:06:07.982060  3222 net.cpp:150] Setting up data
I0424 01:06:07.982206  3222 net.cpp:157] Top shape: 10 3 227 227 (1545870)
I0424 01:06:07.982223  3222 net.cpp:165] Memory required for data: 6183480
I0424 01:06:07.982239  3222 layer_factory.hpp:77] Creating layer conv1
I0424 01:06:07.982286  3222 net.cpp:100] Creating Layer conv1
I0424 01:06:07.982311  3222 net.cpp:434] conv1 <- data
I0424 01:06:07.982333  3222 net.cpp:408] conv1 -> conv1
I0424 01:06:08.421610  3222 net.cpp:150] Setting up conv1
I0424 01:06:08.421659  3222 net.cpp:157] Top shape: 10 96 55 55 (2904000)
I0424 01:06:08.421682  3222 net.cpp:165] Memory required for data: 17799480
I0424 01:06:08.421717  3222 layer_factory.hpp:77] Creating layer relu1
I0424 01:06:08.421751  3222 net.cpp:100] Creating Layer relu1
I0424 01:06:08.421766  3222 net.cpp:434] relu1 <- conv1
I0424 01:06:08.421800  3222 net.cpp:395] relu1 -> conv1 (in-place)
I0424 01:06:08.422139  3222 net.cpp:150] Setting up relu1
I0424 01:06:08.422158  3222 net.cpp:157] Top shape: 10 96 55 55 (2904000)
I0424 01:06:08.422170  3222 net.cpp:165] Memory required for data: 29415480
I0424 01:06:08.422181  3222 layer_factory.hpp:77] Creating layer pool1
I0424 01:06:08.422206  3222 net.cpp:100] Creating Layer pool1
I0424 01:06:08.422219  3222 net.cpp:434] pool1 <- conv1
I0424 01:06:08.422235  3222 net.cpp:408] pool1 -> pool1
I0424 01:06:08.422323  3222 net.cpp:150] Setting up pool1
I0424 01:06:08.422340  3222 net.cpp:157] Top shape: 10 96 27 27 (699840)
I0424 01:06:08.422358  3222 net.cpp:165] Memory required for data: 32214840
I0424 01:06:08.422370  3222 layer_factory.hpp:77] Creating layer norm1
I0424 01:06:08.422395  3222 net.cpp:100] Creating Layer norm1
I0424 01:06:08.422413  3222 net.cpp:434] norm1 <- pool1
I0424 01:06:08.422428  3222 net.cpp:408] norm1 -> norm1
I0424 01:06:08.422969  3222 net.cpp:150] Setting up norm1
I0424 01:06:08.422991  3222 net.cpp:157] Top shape: 10 96 27 27 (699840)
I0424 01:06:08.423008  3222 net.cpp:165] Memory required for data: 35014200
I0424 01:06:08.423020  3222 layer_factory.hpp:77] Creating layer conv2
I0424 01:06:08.423049  3222 net.cpp:100] Creating Layer conv2
I0424 01:06:08.423070  3222 net.cpp:434] conv2 <- norm1
I0424 01:06:08.423087  3222 net.cpp:408] conv2 -> conv2
I0424 01:06:08.433955  3222 net.cpp:150] Setting up conv2
I0424 01:06:08.433991  3222 net.cpp:157] Top shape: 10 256 27 27 (1866240)
I0424 01:06:08.434005  3222 net.cpp:165] Memory required for data: 42479160
I0424 01:06:08.434028  3222 layer_factory.hpp:77] Creating layer relu2
I0424 01:06:08.434067  3222 net.cpp:100] Creating Layer relu2
I0424 01:06:08.434079  3222 net.cpp:434] relu2 <- conv2
I0424 01:06:08.434095  3222 net.cpp:395] relu2 -> conv2 (in-place)
I0424 01:06:08.434468  3222 net.cpp:150] Setting up relu2
I0424 01:06:08.434486  3222 net.cpp:157] Top shape: 10 256 27 27 (1866240)
I0424 01:06:08.434499  3222 net.cpp:165] Memory required for data: 49944120
I0424 01:06:08.434509  3222 layer_factory.hpp:77] Creating layer pool2
I0424 01:06:08.434533  3222 net.cpp:100] Creating Layer pool2
I0424 01:06:08.434545  3222 net.cpp:434] pool2 <- conv2
I0424 01:06:08.434563  3222 net.cpp:408] pool2 -> pool2
I0424 01:06:08.434659  3222 net.cpp:150] Setting up pool2
I0424 01:06:08.434675  3222 net.cpp:157] Top shape: 10 256 13 13 (432640)
I0424 01:06:08.434686  3222 net.cpp:165] Memory required for data: 51674680
I0424 01:06:08.434697  3222 layer_factory.hpp:77] Creating layer norm2
I0424 01:06:08.434727  3222 net.cpp:100] Creating Layer norm2
I0424 01:06:08.434739  3222 net.cpp:434] norm2 <- pool2
I0424 01:06:08.434754  3222 net.cpp:408] norm2 -> norm2
I0424 01:06:08.435343  3222 net.cpp:150] Setting up norm2
I0424 01:06:08.435366  3222 net.cpp:157] Top shape: 10 256 13 13 (432640)
I0424 01:06:08.435381  3222 net.cpp:165] Memory required for data: 53405240
I0424 01:06:08.435396  3222 layer_factory.hpp:77] Creating layer conv3
I0424 01:06:08.435425  3222 net.cpp:100] Creating Layer conv3
I0424 01:06:08.435438  3222 net.cpp:434] conv3 <- norm2
I0424 01:06:08.435458  3222 net.cpp:408] conv3 -> conv3
I0424 01:06:08.457109  3222 net.cpp:150] Setting up conv3
I0424 01:06:08.457144  3222 net.cpp:157] Top shape: 10 384 13 13 (648960)
I0424 01:06:08.457165  3222 net.cpp:165] Memory required for data: 56001080
I0424 01:06:08.457190  3222 layer_factory.hpp:77] Creating layer relu3
I0424 01:06:08.457206  3222 net.cpp:100] Creating Layer relu3
I0424 01:06:08.457224  3222 net.cpp:434] relu3 <- conv3
I0424 01:06:08.457242  3222 net.cpp:395] relu3 -> conv3 (in-place)
I0424 01:06:08.457763  3222 net.cpp:150] Setting up relu3
I0424 01:06:08.457784  3222 net.cpp:157] Top shape: 10 384 13 13 (648960)
I0424 01:06:08.457797  3222 net.cpp:165] Memory required for data: 58596920
I0424 01:06:08.457808  3222 layer_factory.hpp:77] Creating layer conv4
I0424 01:06:08.457844  3222 net.cpp:100] Creating Layer conv4
I0424 01:06:08.457857  3222 net.cpp:434] conv4 <- conv3
I0424 01:06:08.457877  3222 net.cpp:408] conv4 -> conv4
I0424 01:06:08.476161  3222 net.cpp:150] Setting up conv4
I0424 01:06:08.476197  3222 net.cpp:157] Top shape: 10 384 13 13 (648960)
I0424 01:06:08.476209  3222 net.cpp:165] Memory required for data: 61192760
I0424 01:06:08.476229  3222 layer_factory.hpp:77] Creating layer relu4
I0424 01:06:08.476250  3222 net.cpp:100] Creating Layer relu4
I0424 01:06:08.476263  3222 net.cpp:434] relu4 <- conv4
I0424 01:06:08.476290  3222 net.cpp:395] relu4 -> conv4 (in-place)
I0424 01:06:08.476627  3222 net.cpp:150] Setting up relu4
I0424 01:06:08.476645  3222 net.cpp:157] Top shape: 10 384 13 13 (648960)
I0424 01:06:08.476657  3222 net.cpp:165] Memory required for data: 63788600
I0424 01:06:08.476668  3222 layer_factory.hpp:77] Creating layer conv5
I0424 01:06:08.476701  3222 net.cpp:100] Creating Layer conv5
I0424 01:06:08.476714  3222 net.cpp:434] conv5 <- conv4
I0424 01:06:08.476733  3222 net.cpp:408] conv5 -> conv5
I0424 01:06:08.490022  3222 net.cpp:150] Setting up conv5
I0424 01:06:08.490052  3222 net.cpp:157] Top shape: 10 256 13 13 (432640)
I0424 01:06:08.490072  3222 net.cpp:165] Memory required for data: 65519160
I0424 01:06:08.490097  3222 layer_factory.hpp:77] Creating layer relu5
I0424 01:06:08.490124  3222 net.cpp:100] Creating Layer relu5
I0424 01:06:08.490136  3222 net.cpp:434] relu5 <- conv5
I0424 01:06:08.490164  3222 net.cpp:395] relu5 -> conv5 (in-place)
I0424 01:06:08.490509  3222 net.cpp:150] Setting up relu5
I0424 01:06:08.490531  3222 net.cpp:157] Top shape: 10 256 13 13 (432640)
I0424 01:06:08.490543  3222 net.cpp:165] Memory required for data: 67249720
I0424 01:06:08.490558  3222 layer_factory.hpp:77] Creating layer pool5
I0424 01:06:08.490574  3222 net.cpp:100] Creating Layer pool5
I0424 01:06:08.490592  3222 net.cpp:434] pool5 <- conv5
I0424 01:06:08.490612  3222 net.cpp:408] pool5 -> pool5
I0424 01:06:08.490687  3222 net.cpp:150] Setting up pool5
I0424 01:06:08.490707  3222 net.cpp:157] Top shape: 10 256 6 6 (92160)
I0424 01:06:08.490720  3222 net.cpp:165] Memory required for data: 67618360
I0424 01:06:08.490739  3222 layer_factory.hpp:77] Creating layer fc6
I0424 01:06:08.490766  3222 net.cpp:100] Creating Layer fc6
I0424 01:06:08.490777  3222 net.cpp:434] fc6 <- pool5
I0424 01:06:08.490797  3222 net.cpp:408] fc6 -> fc6
I0424 01:06:09.313777  3222 net.cpp:150] Setting up fc6
I0424 01:06:09.313824  3222 net.cpp:157] Top shape: 10 4096 (40960)
I0424 01:06:09.313850  3222 net.cpp:165] Memory required for data: 67782200
I0424 01:06:09.313875  3222 layer_factory.hpp:77] Creating layer relu6
I0424 01:06:09.313899  3222 net.cpp:100] Creating Layer relu6
I0424 01:06:09.313920  3222 net.cpp:434] relu6 <- fc6
I0424 01:06:09.313956  3222 net.cpp:395] relu6 -> fc6 (in-place)
I0424 01:06:09.314669  3222 net.cpp:150] Setting up relu6
I0424 01:06:09.314690  3222 net.cpp:157] Top shape: 10 4096 (40960)
I0424 01:06:09.314713  3222 net.cpp:165] Memory required for data: 67946040
I0424 01:06:09.314724  3222 layer_factory.hpp:77] Creating layer drop6
I0424 01:06:09.314749  3222 net.cpp:100] Creating Layer drop6
I0424 01:06:09.314761  3222 net.cpp:434] drop6 <- fc6
I0424 01:06:09.314785  3222 net.cpp:395] drop6 -> fc6 (in-place)
I0424 01:06:09.314833  3222 net.cpp:150] Setting up drop6
I0424 01:06:09.314863  3222 net.cpp:157] Top shape: 10 4096 (40960)
I0424 01:06:09.314875  3222 net.cpp:165] Memory required for data: 68109880
I0424 01:06:09.314888  3222 layer_factory.hpp:77] Creating layer fc7
I0424 01:06:09.314918  3222 net.cpp:100] Creating Layer fc7
I0424 01:06:09.314929  3222 net.cpp:434] fc7 <- fc6
I0424 01:06:09.314947  3222 net.cpp:408] fc7 -> fc7
I0424 01:06:09.680981  3222 net.cpp:150] Setting up fc7
I0424 01:06:09.681030  3222 net.cpp:157] Top shape: 10 4096 (40960)
I0424 01:06:09.681043  3222 net.cpp:165] Memory required for data: 68273720
I0424 01:06:09.681068  3222 layer_factory.hpp:77] Creating layer relu7
I0424 01:06:09.681087  3222 net.cpp:100] Creating Layer relu7
I0424 01:06:09.681107  3222 net.cpp:434] relu7 <- fc7
I0424 01:06:09.681149  3222 net.cpp:395] relu7 -> fc7 (in-place)
I0424 01:06:09.681553  3222 net.cpp:150] Setting up relu7
I0424 01:06:09.681576  3222 net.cpp:157] Top shape: 10 4096 (40960)
I0424 01:06:09.681587  3222 net.cpp:165] Memory required for data: 68437560
I0424 01:06:09.681602  3222 layer_factory.hpp:77] Creating layer drop7
I0424 01:06:09.681624  3222 net.cpp:100] Creating Layer drop7
I0424 01:06:09.681637  3222 net.cpp:434] drop7 <- fc7
I0424 01:06:09.681650  3222 net.cpp:395] drop7 -> fc7 (in-place)
I0424 01:06:09.681709  3222 net.cpp:150] Setting up drop7
I0424 01:06:09.681723  3222 net.cpp:157] Top shape: 10 4096 (40960)
I0424 01:06:09.681735  3222 net.cpp:165] Memory required for data: 68601400
I0424 01:06:09.681752  3222 layer_factory.hpp:77] Creating layer fc8_fp-mini
I0424 01:06:09.681774  3222 net.cpp:100] Creating Layer fc8_fp-mini
I0424 01:06:09.681788  3222 net.cpp:434] fc8_fp-mini <- fc7
I0424 01:06:09.681810  3222 net.cpp:408] fc8_fp-mini -> fc8_fp-mini
I0424 01:06:09.682831  3222 net.cpp:150] Setting up fc8_fp-mini
I0424 01:06:09.682847  3222 net.cpp:157] Top shape: 10 10 (100)
I0424 01:06:09.682878  3222 net.cpp:165] Memory required for data: 68601800
I0424 01:06:09.682896  3222 net.cpp:228] fc8_fp-mini does not need backward computation.
I0424 01:06:09.682910  3222 net.cpp:228] drop7 does not need backward computation.
I0424 01:06:09.682922  3222 net.cpp:228] relu7 does not need backward computation.
I0424 01:06:09.682940  3222 net.cpp:228] fc7 does not need backward computation.
…
