…
W0419 19:51:20.643633  8760 _caffe.cpp:122] DEPRECATION WARNING - deprecated use of Python interface
W0419 19:51:20.643679  8760 _caffe.cpp:123] Use this instead (with the named "weights" parameter):
W0419 19:51:20.643692  8760 _caffe.cpp:125] Net('models/finalproject/deploy.prototxt', 1, weights='models/finalproject/finalproject_iter_90000.caffemodel')
I0419 19:51:20.668496  8760 net.cpp:58] Initializing net from parameters: 
name: "finalprojectCaffeNet"
state {
  phase: TEST
  level: 0
}
layer {
  name: "data"
  type: "Input"
  top: "data"
  input_param {
    shape {
      dim: 10
      dim: 3
      dim: 227
      dim: 227
    }
  }
}
layer {
  name: "conv1"
  type: "Convolution"
  bottom: "data"
  top: "conv1"
  param {
    lr_mult: 1
    decay_mult: 1
  }
  param {
    lr_mult: 2
    decay_mult: 0
  }
  convolution_param {
    num_output: 96
    kernel_size: 11
    stride: 4
    weight_filler {
      type: "gaussian"
      std: 0.01
    }
    bias_filler {
      type: "constant"
      value: 0
    }
  }
}
layer {
  name: "relu1"
  type: "ReLU"
  bottom: "conv1"
  top: "conv1"
}
layer {
  name: "pool1"
  type: "Pooling"
  bottom: "conv1"
  top: "pool1"
  pooling_param {
    pool: MAX
    kernel_size: 3
    stride: 2
  }
}
layer {
  name: "norm1"
  type: "LRN"
  bottom: "pool1"
  top: "norm1"
  lrn_param {
    local_size: 5
    alpha: 0.0001
    beta: 0.75
  }
}
layer {
  name: "conv2"
  type: "Convolution"
  bottom: "norm1"
  top: "conv2"
  param {
    lr_mult: 1
    decay_mult: 1
  }
  param {
    lr_mult: 2
    decay_mult: 0
  }
  convolution_param {
    num_output: 256
    pad: 2
    kernel_size: 5
    group: 2
    weight_filler {
      type: "gaussian"
      std: 0.01
    }
    bias_filler {
      type: "constant"
      value: 1
    }
  }
}
layer {
  name: "relu2"
  type: "ReLU"
  bottom: "conv2"
  top: "conv2"
}
layer {
  name: "pool2"
  type: "Pooling"
  bottom: "conv2"
  top: "pool2"
  pooling_param {
    pool: MAX
    kernel_size: 3
    stride: 2
  }
}
layer {
  name: "norm2"
  type: "LRN"
  bottom: "pool2"
  top: "norm2"
  lrn_param {
    local_size: 5
    alpha: 0.0001
    beta: 0.75
  }
}
layer {
  name: "conv3"
  type: "Convolution"
  bottom: "norm2"
  top: "conv3"
  param {
    lr_mult: 1
    decay_mult: 1
  }
  param {
    lr_mult: 2
    decay_mult: 0
  }
  convolution_param {
    num_output: 384
    pad: 1
    kernel_size: 3
    weight_filler {
      type: "gaussian"
      std: 0.01
    }
    bias_filler {
      type: "constant"
      value: 0
    }
  }
}
layer {
  name: "relu3"
  type: "ReLU"
  bottom: "conv3"
  top: "conv3"
}
layer {
  name: "conv4"
  type: "Convolution"
  bottom: "conv3"
  top: "conv4"
  param {
    lr_mult: 1
    decay_mult: 1
  }
  param {
    lr_mult: 2
    decay_mult: 0
  }
  convolution_param {
    num_output: 384
    pad: 1
    kernel_size: 3
    group: 2
    weight_filler {
      type: "gaussian"
      std: 0.01
    }
    bias_filler {
      type: "constant"
      value: 1
    }
  }
}
layer {
  name: "relu4"
  type: "ReLU"
  bottom: "conv4"
  top: "conv4"
}
layer {
  name: "conv5"
  type: "Convolution"
  bottom: "conv4"
  top: "conv5"
  param {
    lr_mult: 1
    decay_mult: 1
  }
  param {
    lr_mult: 2
    decay_mult: 0
  }
  convolution_param {
    num_output: 256
    pad: 1
    kernel_size: 3
    group: 2
    weight_filler {
      type: "gaussian"
      std: 0.01
    }
    bias_filler {
      type: "constant"
      value: 1
    }
  }
}
layer {
  name: "relu5"
  type: "ReLU"
  bottom: "conv5"
  top: "conv5"
}
layer {
  name: "pool5"
  type: "Pooling"
  bottom: "conv5"
  top: "pool5"
  pooling_param {
    pool: MAX
    kernel_size: 3
    stride: 2
  }
}
layer {
  name: "fc6"
  type: "InnerProduct"
  bottom: "pool5"
  top: "fc6"
  param {
    lr_mult: 1
    decay_mult: 1
  }
  param {
    lr_mult: 2
    decay_mult: 0
  }
  inner_product_param {
    num_output: 4096
    weight_filler {
      type: "gaussian"
      std: 0.005
    }
    bias_filler {
      type: "constant"
      value: 1
    }
  }
}
layer {
  name: "relu6"
  type: "ReLU"
  bottom: "fc6"
  top: "fc6"
}
layer {
  name: "drop6"
  type: "Dropout"
  bottom: "fc6"
  top: "fc6"
  dropout_param {
    dropout_ratio: 0.5
  }
}
layer {
  name: "fc7"
  type: "InnerProduct"
  bottom: "fc6"
  top: "fc7"
  param {
    lr_mult: 1
    decay_mult: 1
  }
  param {
    lr_mult: 2
    decay_mult: 0
  }
  inner_product_param {
    num_output: 4096
    weight_filler {
      type: "gaussian"
      std: 0.005
    }
    bias_filler {
      type: "constant"
      value: 1
    }
  }
}
layer {
  name: "relu7"
  type: "ReLU"
  bottom: "fc7"
  top: "fc7"
}
layer {
  name: "drop7"
  type: "Dropout"
  bottom: "fc7"
  top: "fc7"
  dropout_param {
    dropout_ratio: 0.5
  }
}
layer {
  name: "fc8_finalproject"
  type: "InnerProduct"
  bottom: "fc7"
  top: "fc8_finalproject"
  param {
    lr_mult: 10
    decay_mult: 1
  }
  param {
    lr_mult: 20
    decay_mult: 0
  }
  inner_product_param {
    num_output: 11
    weight_filler {
      type: "gaussian"
      std: 0.01
    }
    bias_filler {
      type: "constant"
      value: 0
    }
  }
}
I0419 19:51:20.668675  8760 layer_factory.hpp:77] Creating layer data
I0419 19:51:20.668731  8760 net.cpp:100] Creating Layer data
I0419 19:51:20.668754  8760 net.cpp:408] data -> data
I0419 19:51:20.688841  8760 net.cpp:150] Setting up data
I0419 19:51:20.688976  8760 net.cpp:157] Top shape: 10 3 227 227 (1545870)
I0419 19:51:20.688990  8760 net.cpp:165] Memory required for data: 6183480
I0419 19:51:20.689007  8760 layer_factory.hpp:77] Creating layer conv1
I0419 19:51:20.689041  8760 net.cpp:100] Creating Layer conv1
I0419 19:51:20.689064  8760 net.cpp:434] conv1 <- data
I0419 19:51:20.689082  8760 net.cpp:408] conv1 -> conv1
I0419 19:51:21.378280  8760 net.cpp:150] Setting up conv1
I0419 19:51:21.378329  8760 net.cpp:157] Top shape: 10 96 55 55 (2904000)
I0419 19:51:21.378352  8760 net.cpp:165] Memory required for data: 17799480
I0419 19:51:21.378387  8760 layer_factory.hpp:77] Creating layer relu1
I0419 19:51:21.378422  8760 net.cpp:100] Creating Layer relu1
I0419 19:51:21.378456  8760 net.cpp:434] relu1 <- conv1
I0419 19:51:21.378473  8760 net.cpp:395] relu1 -> conv1 (in-place)
I0419 19:51:21.378814  8760 net.cpp:150] Setting up relu1
I0419 19:51:21.378834  8760 net.cpp:157] Top shape: 10 96 55 55 (2904000)
I0419 19:51:21.378845  8760 net.cpp:165] Memory required for data: 29415480
I0419 19:51:21.378856  8760 layer_factory.hpp:77] Creating layer pool1
I0419 19:51:21.378881  8760 net.cpp:100] Creating Layer pool1
I0419 19:51:21.378895  8760 net.cpp:434] pool1 <- conv1
I0419 19:51:21.378909  8760 net.cpp:408] pool1 -> pool1
I0419 19:51:21.378998  8760 net.cpp:150] Setting up pool1
I0419 19:51:21.379014  8760 net.cpp:157] Top shape: 10 96 27 27 (699840)
I0419 19:51:21.379030  8760 net.cpp:165] Memory required for data: 32214840
I0419 19:51:21.379041  8760 layer_factory.hpp:77] Creating layer norm1
I0419 19:51:21.379072  8760 net.cpp:100] Creating Layer norm1
I0419 19:51:21.379084  8760 net.cpp:434] norm1 <- pool1
I0419 19:51:21.379098  8760 net.cpp:408] norm1 -> norm1
I0419 19:51:21.379652  8760 net.cpp:150] Setting up norm1
I0419 19:51:21.379673  8760 net.cpp:157] Top shape: 10 96 27 27 (699840)
I0419 19:51:21.379696  8760 net.cpp:165] Memory required for data: 35014200
I0419 19:51:21.379709  8760 layer_factory.hpp:77] Creating layer conv2
I0419 19:51:21.379736  8760 net.cpp:100] Creating Layer conv2
I0419 19:51:21.379756  8760 net.cpp:434] conv2 <- norm1
I0419 19:51:21.379773  8760 net.cpp:408] conv2 -> conv2
I0419 19:51:21.390519  8760 net.cpp:150] Setting up conv2
I0419 19:51:21.390550  8760 net.cpp:157] Top shape: 10 256 27 27 (1866240)
I0419 19:51:21.390569  8760 net.cpp:165] Memory required for data: 42479160
I0419 19:51:21.390597  8760 layer_factory.hpp:77] Creating layer relu2
I0419 19:51:21.390619  8760 net.cpp:100] Creating Layer relu2
I0419 19:51:21.390642  8760 net.cpp:434] relu2 <- conv2
I0419 19:51:21.390658  8760 net.cpp:395] relu2 -> conv2 (in-place)
I0419 19:51:21.391021  8760 net.cpp:150] Setting up relu2
I0419 19:51:21.391039  8760 net.cpp:157] Top shape: 10 256 27 27 (1866240)
I0419 19:51:21.391052  8760 net.cpp:165] Memory required for data: 49944120
I0419 19:51:21.391063  8760 layer_factory.hpp:77] Creating layer pool2
I0419 19:51:21.391088  8760 net.cpp:100] Creating Layer pool2
I0419 19:51:21.391099  8760 net.cpp:434] pool2 <- conv2
I0419 19:51:21.391119  8760 net.cpp:408] pool2 -> pool2
I0419 19:51:21.391208  8760 net.cpp:150] Setting up pool2
I0419 19:51:21.391227  8760 net.cpp:157] Top shape: 10 256 13 13 (432640)
I0419 19:51:21.391238  8760 net.cpp:165] Memory required for data: 51674680
I0419 19:51:21.391252  8760 layer_factory.hpp:77] Creating layer norm2
I0419 19:51:21.391278  8760 net.cpp:100] Creating Layer norm2
I0419 19:51:21.391289  8760 net.cpp:434] norm2 <- pool2
I0419 19:51:21.391306  8760 net.cpp:408] norm2 -> norm2
I0419 19:51:21.391885  8760 net.cpp:150] Setting up norm2
I0419 19:51:21.391906  8760 net.cpp:157] Top shape: 10 256 13 13 (432640)
I0419 19:51:21.391922  8760 net.cpp:165] Memory required for data: 53405240
I0419 19:51:21.391934  8760 layer_factory.hpp:77] Creating layer conv3
I0419 19:51:21.391969  8760 net.cpp:100] Creating Layer conv3
I0419 19:51:21.391983  8760 net.cpp:434] conv3 <- norm2
I0419 19:51:21.392004  8760 net.cpp:408] conv3 -> conv3
I0419 19:51:21.413628  8760 net.cpp:150] Setting up conv3
I0419 19:51:21.413671  8760 net.cpp:157] Top shape: 10 384 13 13 (648960)
I0419 19:51:21.413684  8760 net.cpp:165] Memory required for data: 56001080
I0419 19:51:21.413714  8760 layer_factory.hpp:77] Creating layer relu3
I0419 19:51:21.413731  8760 net.cpp:100] Creating Layer relu3
I0419 19:51:21.413758  8760 net.cpp:434] relu3 <- conv3
I0419 19:51:21.413772  8760 net.cpp:395] relu3 -> conv3 (in-place)
I0419 19:51:21.414294  8760 net.cpp:150] Setting up relu3
I0419 19:51:21.414321  8760 net.cpp:157] Top shape: 10 384 13 13 (648960)
I0419 19:51:21.414332  8760 net.cpp:165] Memory required for data: 58596920
I0419 19:51:21.414347  8760 layer_factory.hpp:77] Creating layer conv4
I0419 19:51:21.414379  8760 net.cpp:100] Creating Layer conv4
I0419 19:51:21.414392  8760 net.cpp:434] conv4 <- conv3
I0419 19:51:21.414415  8760 net.cpp:408] conv4 -> conv4
I0419 19:51:21.432595  8760 net.cpp:150] Setting up conv4
I0419 19:51:21.432627  8760 net.cpp:157] Top shape: 10 384 13 13 (648960)
I0419 19:51:21.432646  8760 net.cpp:165] Memory required for data: 61192760
I0419 19:51:21.432667  8760 layer_factory.hpp:77] Creating layer relu4
I0419 19:51:21.432692  8760 net.cpp:100] Creating Layer relu4
I0419 19:51:21.432703  8760 net.cpp:434] relu4 <- conv4
I0419 19:51:21.432730  8760 net.cpp:395] relu4 -> conv4 (in-place)
I0419 19:51:21.433073  8760 net.cpp:150] Setting up relu4
I0419 19:51:21.433094  8760 net.cpp:157] Top shape: 10 384 13 13 (648960)
I0419 19:51:21.433106  8760 net.cpp:165] Memory required for data: 63788600
I0419 19:51:21.433120  8760 layer_factory.hpp:77] Creating layer conv5
I0419 19:51:21.433151  8760 net.cpp:100] Creating Layer conv5
I0419 19:51:21.433163  8760 net.cpp:434] conv5 <- conv4
I0419 19:51:21.433188  8760 net.cpp:408] conv5 -> conv5
I0419 19:51:21.446429  8760 net.cpp:150] Setting up conv5
I0419 19:51:21.446467  8760 net.cpp:157] Top shape: 10 256 13 13 (432640)
I0419 19:51:21.446480  8760 net.cpp:165] Memory required for data: 65519160
I0419 19:51:21.446516  8760 layer_factory.hpp:77] Creating layer relu5
I0419 19:51:21.446544  8760 net.cpp:100] Creating Layer relu5
I0419 19:51:21.446557  8760 net.cpp:434] relu5 <- conv5
I0419 19:51:21.446583  8760 net.cpp:395] relu5 -> conv5 (in-place)
I0419 19:51:21.446936  8760 net.cpp:150] Setting up relu5
I0419 19:51:21.446955  8760 net.cpp:157] Top shape: 10 256 13 13 (432640)
I0419 19:51:21.446970  8760 net.cpp:165] Memory required for data: 67249720
I0419 19:51:21.446985  8760 layer_factory.hpp:77] Creating layer pool5
I0419 19:51:21.447007  8760 net.cpp:100] Creating Layer pool5
I0419 19:51:21.447019  8760 net.cpp:434] pool5 <- conv5
I0419 19:51:21.447034  8760 net.cpp:408] pool5 -> pool5
I0419 19:51:21.447113  8760 net.cpp:150] Setting up pool5
I0419 19:51:21.447142  8760 net.cpp:157] Top shape: 10 256 6 6 (92160)
I0419 19:51:21.447154  8760 net.cpp:165] Memory required for data: 67618360
I0419 19:51:21.447167  8760 layer_factory.hpp:77] Creating layer fc6
I0419 19:51:21.447193  8760 net.cpp:100] Creating Layer fc6
I0419 19:51:21.447206  8760 net.cpp:434] fc6 <- pool5
I0419 19:51:21.447229  8760 net.cpp:408] fc6 -> fc6
I0419 19:51:22.271845  8760 net.cpp:150] Setting up fc6
I0419 19:51:22.271893  8760 net.cpp:157] Top shape: 10 4096 (40960)
I0419 19:51:22.271916  8760 net.cpp:165] Memory required for data: 67782200
I0419 19:51:22.271941  8760 layer_factory.hpp:77] Creating layer relu6
I0419 19:51:22.271961  8760 net.cpp:100] Creating Layer relu6
I0419 19:51:22.271982  8760 net.cpp:434] relu6 <- fc6
I0419 19:51:22.272023  8760 net.cpp:395] relu6 -> fc6 (in-place)
I0419 19:51:22.272737  8760 net.cpp:150] Setting up relu6
I0419 19:51:22.272758  8760 net.cpp:157] Top shape: 10 4096 (40960)
I0419 19:51:22.272775  8760 net.cpp:165] Memory required for data: 67946040
I0419 19:51:22.272790  8760 layer_factory.hpp:77] Creating layer drop6
I0419 19:51:22.272812  8760 net.cpp:100] Creating Layer drop6
I0419 19:51:22.272827  8760 net.cpp:434] drop6 <- fc6
I0419 19:51:22.272860  8760 net.cpp:395] drop6 -> fc6 (in-place)
I0419 19:51:22.272903  8760 net.cpp:150] Setting up drop6
I0419 19:51:22.272933  8760 net.cpp:157] Top shape: 10 4096 (40960)
I0419 19:51:22.272944  8760 net.cpp:165] Memory required for data: 68109880
I0419 19:51:22.272956  8760 layer_factory.hpp:77] Creating layer fc7
I0419 19:51:22.272974  8760 net.cpp:100] Creating Layer fc7
I0419 19:51:22.272985  8760 net.cpp:434] fc7 <- fc6
I0419 19:51:22.273012  8760 net.cpp:408] fc7 -> fc7
I0419 19:51:22.640161  8760 net.cpp:150] Setting up fc7
I0419 19:51:22.640210  8760 net.cpp:157] Top shape: 10 4096 (40960)
I0419 19:51:22.640224  8760 net.cpp:165] Memory required for data: 68273720
I0419 19:51:22.640249  8760 layer_factory.hpp:77] Creating layer relu7
I0419 19:51:22.640269  8760 net.cpp:100] Creating Layer relu7
I0419 19:51:22.640287  8760 net.cpp:434] relu7 <- fc7
I0419 19:51:22.640327  8760 net.cpp:395] relu7 -> fc7 (in-place)
I0419 19:51:22.640725  8760 net.cpp:150] Setting up relu7
I0419 19:51:22.640744  8760 net.cpp:157] Top shape: 10 4096 (40960)
I0419 19:51:22.640756  8760 net.cpp:165] Memory required for data: 68437560
I0419 19:51:22.640768  8760 layer_factory.hpp:77] Creating layer drop7
I0419 19:51:22.640796  8760 net.cpp:100] Creating Layer drop7
I0419 19:51:22.640807  8760 net.cpp:434] drop7 <- fc7
I0419 19:51:22.640822  8760 net.cpp:395] drop7 -> fc7 (in-place)
I0419 19:51:22.640880  8760 net.cpp:150] Setting up drop7
I0419 19:51:22.640895  8760 net.cpp:157] Top shape: 10 4096 (40960)
I0419 19:51:22.640907  8760 net.cpp:165] Memory required for data: 68601400
I0419 19:51:22.640924  8760 layer_factory.hpp:77] Creating layer fc8_finalproject
I0419 19:51:22.640941  8760 net.cpp:100] Creating Layer fc8_finalproject
I0419 19:51:22.640955  8760 net.cpp:434] fc8_finalproject <- fc7
I0419 19:51:22.640981  8760 net.cpp:408] fc8_finalproject -> fc8_finalproject
I0419 19:51:22.642087  8760 net.cpp:150] Setting up fc8_finalproject
I0419 19:51:22.642103  8760 net.cpp:157] Top shape: 10 11 (110)
I0419 19:51:22.642122  8760 net.cpp:165] Memory required for data: 68601840
I0419 19:51:22.642140  8760 net.cpp:228] fc8_finalproject does not need backward computation.
I0419 19:51:22.642151  8760 net.cpp:228] drop7 does not need backward computation.
I0419 19:51:22.642166  8760 net.cpp:228] relu7 does not need backward computation.
I0419 19:51:22.642177  8760 net.cpp:228] fc7 does not need backward computation.
…
