…
W0423 20:30:22.233606  5472 _caffe.cpp:122] DEPRECATION WARNING - deprecated use of Python interface
W0423 20:30:22.233652  5472 _caffe.cpp:123] Use this instead (with the named "weights" parameter):
W0423 20:30:22.233664  5472 _caffe.cpp:125] Net('models/finalproject/deploy.prototxt', 1, weights='models/finalproject/finalproject_iter_90000.caffemodel')
I0423 20:30:22.269703  5472 net.cpp:58] Initializing net from parameters: 
name: "finalprojectCaffeNet"
state {
  phase: TEST
  level: 0
}
layer {
  name: "data"
  type: "Input"
  top: "data"
  input_param {
    shape {
      dim: 10
      dim: 3
      dim: 227
      dim: 227
    }
  }
}
layer {
  name: "conv1"
  type: "Convolution"
  bottom: "data"
  top: "conv1"
  param {
    lr_mult: 1
    decay_mult: 1
  }
  param {
    lr_mult: 2
    decay_mult: 0
  }
  convolution_param {
    num_output: 96
    kernel_size: 11
    stride: 4
    weight_filler {
      type: "gaussian"
      std: 0.01
    }
    bias_filler {
      type: "constant"
      value: 0
    }
  }
}
layer {
  name: "relu1"
  type: "ReLU"
  bottom: "conv1"
  top: "conv1"
}
layer {
  name: "pool1"
  type: "Pooling"
  bottom: "conv1"
  top: "pool1"
  pooling_param {
    pool: MAX
    kernel_size: 3
    stride: 2
  }
}
layer {
  name: "norm1"
  type: "LRN"
  bottom: "pool1"
  top: "norm1"
  lrn_param {
    local_size: 5
    alpha: 0.0001
    beta: 0.75
  }
}
layer {
  name: "conv2"
  type: "Convolution"
  bottom: "norm1"
  top: "conv2"
  param {
    lr_mult: 1
    decay_mult: 1
  }
  param {
    lr_mult: 2
    decay_mult: 0
  }
  convolution_param {
    num_output: 256
    pad: 2
    kernel_size: 5
    group: 2
    weight_filler {
      type: "gaussian"
      std: 0.01
    }
    bias_filler {
      type: "constant"
      value: 1
    }
  }
}
layer {
  name: "relu2"
  type: "ReLU"
  bottom: "conv2"
  top: "conv2"
}
layer {
  name: "pool2"
  type: "Pooling"
  bottom: "conv2"
  top: "pool2"
  pooling_param {
    pool: MAX
    kernel_size: 3
    stride: 2
  }
}
layer {
  name: "norm2"
  type: "LRN"
  bottom: "pool2"
  top: "norm2"
  lrn_param {
    local_size: 5
    alpha: 0.0001
    beta: 0.75
  }
}
layer {
  name: "conv3"
  type: "Convolution"
  bottom: "norm2"
  top: "conv3"
  param {
    lr_mult: 1
    decay_mult: 1
  }
  param {
    lr_mult: 2
    decay_mult: 0
  }
  convolution_param {
    num_output: 384
    pad: 1
    kernel_size: 3
    weight_filler {
      type: "gaussian"
      std: 0.01
    }
    bias_filler {
      type: "constant"
      value: 0
    }
  }
}
layer {
  name: "relu3"
  type: "ReLU"
  bottom: "conv3"
  top: "conv3"
}
layer {
  name: "conv4"
  type: "Convolution"
  bottom: "conv3"
  top: "conv4"
  param {
    lr_mult: 1
    decay_mult: 1
  }
  param {
    lr_mult: 2
    decay_mult: 0
  }
  convolution_param {
    num_output: 384
    pad: 1
    kernel_size: 3
    group: 2
    weight_filler {
      type: "gaussian"
      std: 0.01
    }
    bias_filler {
      type: "constant"
      value: 1
    }
  }
}
layer {
  name: "relu4"
  type: "ReLU"
  bottom: "conv4"
  top: "conv4"
}
layer {
  name: "conv5"
  type: "Convolution"
  bottom: "conv4"
  top: "conv5"
  param {
    lr_mult: 1
    decay_mult: 1
  }
  param {
    lr_mult: 2
    decay_mult: 0
  }
  convolution_param {
    num_output: 256
    pad: 1
    kernel_size: 3
    group: 2
    weight_filler {
      type: "gaussian"
      std: 0.01
    }
    bias_filler {
      type: "constant"
      value: 1
    }
  }
}
layer {
  name: "relu5"
  type: "ReLU"
  bottom: "conv5"
  top: "conv5"
}
layer {
  name: "pool5"
  type: "Pooling"
  bottom: "conv5"
  top: "pool5"
  pooling_param {
    pool: MAX
    kernel_size: 3
    stride: 2
  }
}
layer {
  name: "fc6"
  type: "InnerProduct"
  bottom: "pool5"
  top: "fc6"
  param {
    lr_mult: 1
    decay_mult: 1
  }
  param {
    lr_mult: 2
    decay_mult: 0
  }
  inner_product_param {
    num_output: 4096
    weight_filler {
      type: "gaussian"
      std: 0.005
    }
    bias_filler {
      type: "constant"
      value: 1
    }
  }
}
layer {
  name: "relu6"
  type: "ReLU"
  bottom: "fc6"
  top: "fc6"
}
layer {
  name: "drop6"
  type: "Dropout"
  bottom: "fc6"
  top: "fc6"
  dropout_param {
    dropout_ratio: 0.5
  }
}
layer {
  name: "fc7"
  type: "InnerProduct"
  bottom: "fc6"
  top: "fc7"
  param {
    lr_mult: 1
    decay_mult: 1
  }
  param {
    lr_mult: 2
    decay_mult: 0
  }
  inner_product_param {
    num_output: 4096
    weight_filler {
      type: "gaussian"
      std: 0.005
    }
    bias_filler {
      type: "constant"
      value: 1
    }
  }
}
layer {
  name: "relu7"
  type: "ReLU"
  bottom: "fc7"
  top: "fc7"
}
layer {
  name: "drop7"
  type: "Dropout"
  bottom: "fc7"
  top: "fc7"
  dropout_param {
    dropout_ratio: 0.5
  }
}
layer {
  name: "fc8_finalproject"
  type: "InnerProduct"
  bottom: "fc7"
  top: "fc8_finalproject"
  param {
    lr_mult: 10
    decay_mult: 1
  }
  param {
    lr_mult: 20
    decay_mult: 0
  }
  inner_product_param {
    num_output: 11
    weight_filler {
      type: "gaussian"
      std: 0.01
    }
    bias_filler {
      type: "constant"
      value: 0
    }
  }
}
I0423 20:30:22.269883  5472 layer_factory.hpp:77] Creating layer data
I0423 20:30:22.269940  5472 net.cpp:100] Creating Layer data
I0423 20:30:22.269963  5472 net.cpp:408] data -> data
I0423 20:30:22.289935  5472 net.cpp:150] Setting up data
I0423 20:30:22.290086  5472 net.cpp:157] Top shape: 10 3 227 227 (1545870)
I0423 20:30:22.290102  5472 net.cpp:165] Memory required for data: 6183480
I0423 20:30:22.290117  5472 layer_factory.hpp:77] Creating layer conv1
I0423 20:30:22.290163  5472 net.cpp:100] Creating Layer conv1
I0423 20:30:22.290176  5472 net.cpp:434] conv1 <- data
I0423 20:30:22.290200  5472 net.cpp:408] conv1 -> conv1
I0423 20:30:22.769757  5472 net.cpp:150] Setting up conv1
I0423 20:30:22.769806  5472 net.cpp:157] Top shape: 10 96 55 55 (2904000)
I0423 20:30:22.769830  5472 net.cpp:165] Memory required for data: 17799480
I0423 20:30:22.769866  5472 layer_factory.hpp:77] Creating layer relu1
I0423 20:30:22.769901  5472 net.cpp:100] Creating Layer relu1
I0423 20:30:22.769934  5472 net.cpp:434] relu1 <- conv1
I0423 20:30:22.769950  5472 net.cpp:395] relu1 -> conv1 (in-place)
I0423 20:30:22.770287  5472 net.cpp:150] Setting up relu1
I0423 20:30:22.770308  5472 net.cpp:157] Top shape: 10 96 55 55 (2904000)
I0423 20:30:22.770319  5472 net.cpp:165] Memory required for data: 29415480
I0423 20:30:22.770330  5472 layer_factory.hpp:77] Creating layer pool1
I0423 20:30:22.770355  5472 net.cpp:100] Creating Layer pool1
I0423 20:30:22.770368  5472 net.cpp:434] pool1 <- conv1
I0423 20:30:22.770383  5472 net.cpp:408] pool1 -> pool1
I0423 20:30:22.770473  5472 net.cpp:150] Setting up pool1
I0423 20:30:22.770489  5472 net.cpp:157] Top shape: 10 96 27 27 (699840)
I0423 20:30:22.770509  5472 net.cpp:165] Memory required for data: 32214840
I0423 20:30:22.770520  5472 layer_factory.hpp:77] Creating layer norm1
I0423 20:30:22.770545  5472 net.cpp:100] Creating Layer norm1
I0423 20:30:22.770563  5472 net.cpp:434] norm1 <- pool1
I0423 20:30:22.770581  5472 net.cpp:408] norm1 -> norm1
I0423 20:30:22.771106  5472 net.cpp:150] Setting up norm1
I0423 20:30:22.771128  5472 net.cpp:157] Top shape: 10 96 27 27 (699840)
I0423 20:30:22.771142  5472 net.cpp:165] Memory required for data: 35014200
I0423 20:30:22.771153  5472 layer_factory.hpp:77] Creating layer conv2
I0423 20:30:22.771188  5472 net.cpp:100] Creating Layer conv2
I0423 20:30:22.771201  5472 net.cpp:434] conv2 <- norm1
I0423 20:30:22.771219  5472 net.cpp:408] conv2 -> conv2
I0423 20:30:22.781991  5472 net.cpp:150] Setting up conv2
I0423 20:30:22.782023  5472 net.cpp:157] Top shape: 10 256 27 27 (1866240)
I0423 20:30:22.782037  5472 net.cpp:165] Memory required for data: 42479160
I0423 20:30:22.782068  5472 layer_factory.hpp:77] Creating layer relu2
I0423 20:30:22.782096  5472 net.cpp:100] Creating Layer relu2
I0423 20:30:22.782109  5472 net.cpp:434] relu2 <- conv2
I0423 20:30:22.782124  5472 net.cpp:395] relu2 -> conv2 (in-place)
I0423 20:30:22.782496  5472 net.cpp:150] Setting up relu2
I0423 20:30:22.782516  5472 net.cpp:157] Top shape: 10 256 27 27 (1866240)
I0423 20:30:22.782527  5472 net.cpp:165] Memory required for data: 49944120
I0423 20:30:22.782538  5472 layer_factory.hpp:77] Creating layer pool2
I0423 20:30:22.782565  5472 net.cpp:100] Creating Layer pool2
I0423 20:30:22.782578  5472 net.cpp:434] pool2 <- conv2
I0423 20:30:22.782593  5472 net.cpp:408] pool2 -> pool2
I0423 20:30:22.782691  5472 net.cpp:150] Setting up pool2
I0423 20:30:22.782706  5472 net.cpp:157] Top shape: 10 256 13 13 (432640)
I0423 20:30:22.782717  5472 net.cpp:165] Memory required for data: 51674680
I0423 20:30:22.782730  5472 layer_factory.hpp:77] Creating layer norm2
I0423 20:30:22.782757  5472 net.cpp:100] Creating Layer norm2
I0423 20:30:22.782769  5472 net.cpp:434] norm2 <- pool2
I0423 20:30:22.782783  5472 net.cpp:408] norm2 -> norm2
I0423 20:30:22.783368  5472 net.cpp:150] Setting up norm2
I0423 20:30:22.783393  5472 net.cpp:157] Top shape: 10 256 13 13 (432640)
I0423 20:30:22.783411  5472 net.cpp:165] Memory required for data: 53405240
I0423 20:30:22.783423  5472 layer_factory.hpp:77] Creating layer conv3
I0423 20:30:22.783447  5472 net.cpp:100] Creating Layer conv3
I0423 20:30:22.783458  5472 net.cpp:434] conv3 <- norm2
I0423 20:30:22.783488  5472 net.cpp:408] conv3 -> conv3
I0423 20:30:22.805145  5472 net.cpp:150] Setting up conv3
I0423 20:30:22.805177  5472 net.cpp:157] Top shape: 10 384 13 13 (648960)
I0423 20:30:22.805198  5472 net.cpp:165] Memory required for data: 56001080
I0423 20:30:22.805223  5472 layer_factory.hpp:77] Creating layer relu3
I0423 20:30:22.805240  5472 net.cpp:100] Creating Layer relu3
I0423 20:30:22.805258  5472 net.cpp:434] relu3 <- conv3
I0423 20:30:22.805289  5472 net.cpp:395] relu3 -> conv3 (in-place)
I0423 20:30:22.805806  5472 net.cpp:150] Setting up relu3
I0423 20:30:22.805827  5472 net.cpp:157] Top shape: 10 384 13 13 (648960)
I0423 20:30:22.805840  5472 net.cpp:165] Memory required for data: 58596920
I0423 20:30:22.805850  5472 layer_factory.hpp:77] Creating layer conv4
I0423 20:30:22.805886  5472 net.cpp:100] Creating Layer conv4
I0423 20:30:22.805899  5472 net.cpp:434] conv4 <- conv3
I0423 20:30:22.805918  5472 net.cpp:408] conv4 -> conv4
I0423 20:30:22.824225  5472 net.cpp:150] Setting up conv4
I0423 20:30:22.824264  5472 net.cpp:157] Top shape: 10 384 13 13 (648960)
I0423 20:30:22.824276  5472 net.cpp:165] Memory required for data: 61192760
I0423 20:30:22.824295  5472 layer_factory.hpp:77] Creating layer relu4
I0423 20:30:22.824317  5472 net.cpp:100] Creating Layer relu4
I0423 20:30:22.824329  5472 net.cpp:434] relu4 <- conv4
I0423 20:30:22.824357  5472 net.cpp:395] relu4 -> conv4 (in-place)
I0423 20:30:22.824697  5472 net.cpp:150] Setting up relu4
I0423 20:30:22.824717  5472 net.cpp:157] Top shape: 10 384 13 13 (648960)
I0423 20:30:22.824728  5472 net.cpp:165] Memory required for data: 63788600
I0423 20:30:22.824739  5472 layer_factory.hpp:77] Creating layer conv5
I0423 20:30:22.824774  5472 net.cpp:100] Creating Layer conv5
I0423 20:30:22.824786  5472 net.cpp:434] conv5 <- conv4
I0423 20:30:22.824806  5472 net.cpp:408] conv5 -> conv5
I0423 20:30:22.838043  5472 net.cpp:150] Setting up conv5
I0423 20:30:22.838073  5472 net.cpp:157] Top shape: 10 256 13 13 (432640)
I0423 20:30:22.838086  5472 net.cpp:165] Memory required for data: 65519160
I0423 20:30:22.838116  5472 layer_factory.hpp:77] Creating layer relu5
I0423 20:30:22.838136  5472 net.cpp:100] Creating Layer relu5
I0423 20:30:22.838162  5472 net.cpp:434] relu5 <- conv5
I0423 20:30:22.838177  5472 net.cpp:395] relu5 -> conv5 (in-place)
I0423 20:30:22.838531  5472 net.cpp:150] Setting up relu5
I0423 20:30:22.838552  5472 net.cpp:157] Top shape: 10 256 13 13 (432640)
I0423 20:30:22.838564  5472 net.cpp:165] Memory required for data: 67249720
I0423 20:30:22.838578  5472 layer_factory.hpp:77] Creating layer pool5
I0423 20:30:22.838600  5472 net.cpp:100] Creating Layer pool5
I0423 20:30:22.838613  5472 net.cpp:434] pool5 <- conv5
I0423 20:30:22.838631  5472 net.cpp:408] pool5 -> pool5
I0423 20:30:22.838707  5472 net.cpp:150] Setting up pool5
I0423 20:30:22.838742  5472 net.cpp:157] Top shape: 10 256 6 6 (92160)
I0423 20:30:22.838754  5472 net.cpp:165] Memory required for data: 67618360
I0423 20:30:22.838768  5472 layer_factory.hpp:77] Creating layer fc6
I0423 20:30:22.838789  5472 net.cpp:100] Creating Layer fc6
I0423 20:30:22.838802  5472 net.cpp:434] fc6 <- pool5
I0423 20:30:22.838824  5472 net.cpp:408] fc6 -> fc6
I0423 20:30:23.667230  5472 net.cpp:150] Setting up fc6
I0423 20:30:23.667284  5472 net.cpp:157] Top shape: 10 4096 (40960)
I0423 20:30:23.667307  5472 net.cpp:165] Memory required for data: 67782200
I0423 20:30:23.667331  5472 layer_factory.hpp:77] Creating layer relu6
I0423 20:30:23.667351  5472 net.cpp:100] Creating Layer relu6
I0423 20:30:23.667364  5472 net.cpp:434] relu6 <- fc6
I0423 20:30:23.667407  5472 net.cpp:395] relu6 -> fc6 (in-place)
I0423 20:30:23.668107  5472 net.cpp:150] Setting up relu6
I0423 20:30:23.668136  5472 net.cpp:157] Top shape: 10 4096 (40960)
I0423 20:30:23.668148  5472 net.cpp:165] Memory required for data: 67946040
I0423 20:30:23.668160  5472 layer_factory.hpp:77] Creating layer drop6
I0423 20:30:23.668184  5472 net.cpp:100] Creating Layer drop6
I0423 20:30:23.668205  5472 net.cpp:434] drop6 <- fc6
I0423 20:30:23.668220  5472 net.cpp:395] drop6 -> fc6 (in-place)
I0423 20:30:23.668268  5472 net.cpp:150] Setting up drop6
I0423 20:30:23.668293  5472 net.cpp:157] Top shape: 10 4096 (40960)
I0423 20:30:23.668305  5472 net.cpp:165] Memory required for data: 68109880
I0423 20:30:23.668318  5472 layer_factory.hpp:77] Creating layer fc7
I0423 20:30:23.668339  5472 net.cpp:100] Creating Layer fc7
I0423 20:30:23.668351  5472 net.cpp:434] fc7 <- fc6
I0423 20:30:23.668368  5472 net.cpp:408] fc7 -> fc7
I0423 20:30:24.036857  5472 net.cpp:150] Setting up fc7
I0423 20:30:24.036901  5472 net.cpp:157] Top shape: 10 4096 (40960)
I0423 20:30:24.036927  5472 net.cpp:165] Memory required for data: 68273720
I0423 20:30:24.036950  5472 layer_factory.hpp:77] Creating layer relu7
I0423 20:30:24.036970  5472 net.cpp:100] Creating Layer relu7
I0423 20:30:24.036983  5472 net.cpp:434] relu7 <- fc7
I0423 20:30:24.037029  5472 net.cpp:395] relu7 -> fc7 (in-place)
I0423 20:30:24.037431  5472 net.cpp:150] Setting up relu7
I0423 20:30:24.037453  5472 net.cpp:157] Top shape: 10 4096 (40960)
I0423 20:30:24.037466  5472 net.cpp:165] Memory required for data: 68437560
I0423 20:30:24.037477  5472 layer_factory.hpp:77] Creating layer drop7
I0423 20:30:24.037502  5472 net.cpp:100] Creating Layer drop7
I0423 20:30:24.037514  5472 net.cpp:434] drop7 <- fc7
I0423 20:30:24.037529  5472 net.cpp:395] drop7 -> fc7 (in-place)
I0423 20:30:24.037591  5472 net.cpp:150] Setting up drop7
I0423 20:30:24.037616  5472 net.cpp:157] Top shape: 10 4096 (40960)
I0423 20:30:24.037628  5472 net.cpp:165] Memory required for data: 68601400
I0423 20:30:24.037641  5472 layer_factory.hpp:77] Creating layer fc8_finalproject
I0423 20:30:24.037662  5472 net.cpp:100] Creating Layer fc8_finalproject
I0423 20:30:24.037674  5472 net.cpp:434] fc8_finalproject <- fc7
I0423 20:30:24.037698  5472 net.cpp:408] fc8_finalproject -> fc8_finalproject
I0423 20:30:24.038805  5472 net.cpp:150] Setting up fc8_finalproject
I0423 20:30:24.038822  5472 net.cpp:157] Top shape: 10 11 (110)
I0423 20:30:24.038842  5472 net.cpp:165] Memory required for data: 68601840
I0423 20:30:24.038861  5472 net.cpp:228] fc8_finalproject does not need backward computation.
I0423 20:30:24.038873  5472 net.cpp:228] drop7 does not need backward computation.
I0423 20:30:24.038888  5472 net.cpp:228] relu7 does not need backward computation.
I0423 20:30:24.038907  5472 net.cpp:228] fc7 does not need backward computation.
…
