…
W0424 02:35:00.479521 32537 _caffe.cpp:122] DEPRECATION WARNING - deprecated use of Python interface
W0424 02:35:00.479568 32537 _caffe.cpp:123] Use this instead (with the named "weights" parameter):
W0424 02:35:00.479578 32537 _caffe.cpp:125] Net('models/finalproject/deploy.prototxt', 1, weights='models/finalproject/finalproject_iter_90000.caffemodel')
I0424 02:35:00.496479 32537 net.cpp:58] Initializing net from parameters: 
name: "finalprojectCaffeNet"
state {
  phase: TEST
  level: 0
}
layer {
  name: "data"
  type: "Input"
  top: "data"
  input_param {
    shape {
      dim: 10
      dim: 3
      dim: 227
      dim: 227
    }
  }
}
layer {
  name: "conv1"
  type: "Convolution"
  bottom: "data"
  top: "conv1"
  param {
    lr_mult: 1
    decay_mult: 1
  }
  param {
    lr_mult: 2
    decay_mult: 0
  }
  convolution_param {
    num_output: 96
    kernel_size: 11
    stride: 4
    weight_filler {
      type: "gaussian"
      std: 0.01
    }
    bias_filler {
      type: "constant"
      value: 0
    }
  }
}
layer {
  name: "relu1"
  type: "ReLU"
  bottom: "conv1"
  top: "conv1"
}
layer {
  name: "pool1"
  type: "Pooling"
  bottom: "conv1"
  top: "pool1"
  pooling_param {
    pool: MAX
    kernel_size: 3
    stride: 2
  }
}
layer {
  name: "norm1"
  type: "LRN"
  bottom: "pool1"
  top: "norm1"
  lrn_param {
    local_size: 5
    alpha: 0.0001
    beta: 0.75
  }
}
layer {
  name: "conv2"
  type: "Convolution"
  bottom: "norm1"
  top: "conv2"
  param {
    lr_mult: 1
    decay_mult: 1
  }
  param {
    lr_mult: 2
    decay_mult: 0
  }
  convolution_param {
    num_output: 256
    pad: 2
    kernel_size: 5
    group: 2
    weight_filler {
      type: "gaussian"
      std: 0.01
    }
    bias_filler {
      type: "constant"
      value: 1
    }
  }
}
layer {
  name: "relu2"
  type: "ReLU"
  bottom: "conv2"
  top: "conv2"
}
layer {
  name: "pool2"
  type: "Pooling"
  bottom: "conv2"
  top: "pool2"
  pooling_param {
    pool: MAX
    kernel_size: 3
    stride: 2
  }
}
layer {
  name: "norm2"
  type: "LRN"
  bottom: "pool2"
  top: "norm2"
  lrn_param {
    local_size: 5
    alpha: 0.0001
    beta: 0.75
  }
}
layer {
  name: "conv3"
  type: "Convolution"
  bottom: "norm2"
  top: "conv3"
  param {
    lr_mult: 1
    decay_mult: 1
  }
  param {
    lr_mult: 2
    decay_mult: 0
  }
  convolution_param {
    num_output: 384
    pad: 1
    kernel_size: 3
    weight_filler {
      type: "gaussian"
      std: 0.01
    }
    bias_filler {
      type: "constant"
      value: 0
    }
  }
}
layer {
  name: "relu3"
  type: "ReLU"
  bottom: "conv3"
  top: "conv3"
}
layer {
  name: "conv4"
  type: "Convolution"
  bottom: "conv3"
  top: "conv4"
  param {
    lr_mult: 1
    decay_mult: 1
  }
  param {
    lr_mult: 2
    decay_mult: 0
  }
  convolution_param {
    num_output: 384
    pad: 1
    kernel_size: 3
    group: 2
    weight_filler {
      type: "gaussian"
      std: 0.01
    }
    bias_filler {
      type: "constant"
      value: 1
    }
  }
}
layer {
  name: "relu4"
  type: "ReLU"
  bottom: "conv4"
  top: "conv4"
}
layer {
  name: "conv5"
  type: "Convolution"
  bottom: "conv4"
  top: "conv5"
  param {
    lr_mult: 1
    decay_mult: 1
  }
  param {
    lr_mult: 2
    decay_mult: 0
  }
  convolution_param {
    num_output: 256
    pad: 1
    kernel_size: 3
    group: 2
    weight_filler {
      type: "gaussian"
      std: 0.01
    }
    bias_filler {
      type: "constant"
      value: 1
    }
  }
}
layer {
  name: "relu5"
  type: "ReLU"
  bottom: "conv5"
  top: "conv5"
}
layer {
  name: "pool5"
  type: "Pooling"
  bottom: "conv5"
  top: "pool5"
  pooling_param {
    pool: MAX
    kernel_size: 3
    stride: 2
  }
}
layer {
  name: "fc6"
  type: "InnerProduct"
  bottom: "pool5"
  top: "fc6"
  param {
    lr_mult: 1
    decay_mult: 1
  }
  param {
    lr_mult: 2
    decay_mult: 0
  }
  inner_product_param {
    num_output: 4096
    weight_filler {
      type: "gaussian"
      std: 0.005
    }
    bias_filler {
      type: "constant"
      value: 1
    }
  }
}
layer {
  name: "relu6"
  type: "ReLU"
  bottom: "fc6"
  top: "fc6"
}
layer {
  name: "drop6"
  type: "Dropout"
  bottom: "fc6"
  top: "fc6"
  dropout_param {
    dropout_ratio: 0.5
  }
}
layer {
  name: "fc7"
  type: "InnerProduct"
  bottom: "fc6"
  top: "fc7"
  param {
    lr_mult: 1
    decay_mult: 1
  }
  param {
    lr_mult: 2
    decay_mult: 0
  }
  inner_product_param {
    num_output: 4096
    weight_filler {
      type: "gaussian"
      std: 0.005
    }
    bias_filler {
      type: "constant"
      value: 1
    }
  }
}
layer {
  name: "relu7"
  type: "ReLU"
  bottom: "fc7"
  top: "fc7"
}
layer {
  name: "drop7"
  type: "Dropout"
  bottom: "fc7"
  top: "fc7"
  dropout_param {
    dropout_ratio: 0.5
  }
}
layer {
  name: "fc8_finalproject"
  type: "InnerProduct"
  bottom: "fc7"
  top: "fc8_finalproject"
  param {
    lr_mult: 10
    decay_mult: 1
  }
  param {
    lr_mult: 20
    decay_mult: 0
  }
  inner_product_param {
    num_output: 11
    weight_filler {
      type: "gaussian"
      std: 0.01
    }
    bias_filler {
      type: "constant"
      value: 0
    }
  }
}
I0424 02:35:00.496657 32537 layer_factory.hpp:77] Creating layer data
I0424 02:35:00.496714 32537 net.cpp:100] Creating Layer data
I0424 02:35:00.496736 32537 net.cpp:408] data -> data
I0424 02:35:00.516788 32537 net.cpp:150] Setting up data
I0424 02:35:00.516912 32537 net.cpp:157] Top shape: 10 3 227 227 (1545870)
I0424 02:35:00.516927 32537 net.cpp:165] Memory required for data: 6183480
I0424 02:35:00.516943 32537 layer_factory.hpp:77] Creating layer conv1
I0424 02:35:00.516978 32537 net.cpp:100] Creating Layer conv1
I0424 02:35:00.516993 32537 net.cpp:434] conv1 <- data
I0424 02:35:00.517015 32537 net.cpp:408] conv1 -> conv1
I0424 02:35:00.986872 32537 net.cpp:150] Setting up conv1
I0424 02:35:00.986920 32537 net.cpp:157] Top shape: 10 96 55 55 (2904000)
I0424 02:35:00.986943 32537 net.cpp:165] Memory required for data: 17799480
I0424 02:35:00.986979 32537 layer_factory.hpp:77] Creating layer relu1
I0424 02:35:00.987005 32537 net.cpp:100] Creating Layer relu1
I0424 02:35:00.987025 32537 net.cpp:434] relu1 <- conv1
I0424 02:35:00.987061 32537 net.cpp:395] relu1 -> conv1 (in-place)
I0424 02:35:00.987452 32537 net.cpp:150] Setting up relu1
I0424 02:35:00.987473 32537 net.cpp:157] Top shape: 10 96 55 55 (2904000)
I0424 02:35:00.987484 32537 net.cpp:165] Memory required for data: 29415480
I0424 02:35:00.987495 32537 layer_factory.hpp:77] Creating layer pool1
I0424 02:35:00.987521 32537 net.cpp:100] Creating Layer pool1
I0424 02:35:00.987534 32537 net.cpp:434] pool1 <- conv1
I0424 02:35:00.987548 32537 net.cpp:408] pool1 -> pool1
I0424 02:35:00.987639 32537 net.cpp:150] Setting up pool1
I0424 02:35:00.987658 32537 net.cpp:157] Top shape: 10 96 27 27 (699840)
I0424 02:35:00.987669 32537 net.cpp:165] Memory required for data: 32214840
I0424 02:35:00.987689 32537 layer_factory.hpp:77] Creating layer norm1
I0424 02:35:00.987712 32537 net.cpp:100] Creating Layer norm1
I0424 02:35:00.987726 32537 net.cpp:434] norm1 <- pool1
I0424 02:35:00.987746 32537 net.cpp:408] norm1 -> norm1
I0424 02:35:00.988271 32537 net.cpp:150] Setting up norm1
I0424 02:35:00.988293 32537 net.cpp:157] Top shape: 10 96 27 27 (699840)
I0424 02:35:00.988307 32537 net.cpp:165] Memory required for data: 35014200
I0424 02:35:00.988319 32537 layer_factory.hpp:77] Creating layer conv2
I0424 02:35:00.988354 32537 net.cpp:100] Creating Layer conv2
I0424 02:35:00.988368 32537 net.cpp:434] conv2 <- norm1
I0424 02:35:00.988384 32537 net.cpp:408] conv2 -> conv2
I0424 02:35:00.999181 32537 net.cpp:150] Setting up conv2
I0424 02:35:00.999212 32537 net.cpp:157] Top shape: 10 256 27 27 (1866240)
I0424 02:35:00.999233 32537 net.cpp:165] Memory required for data: 42479160
I0424 02:35:00.999260 32537 layer_factory.hpp:77] Creating layer relu2
I0424 02:35:00.999282 32537 net.cpp:100] Creating Layer relu2
I0424 02:35:00.999305 32537 net.cpp:434] relu2 <- conv2
I0424 02:35:00.999321 32537 net.cpp:395] relu2 -> conv2 (in-place)
I0424 02:35:00.999677 32537 net.cpp:150] Setting up relu2
I0424 02:35:00.999696 32537 net.cpp:157] Top shape: 10 256 27 27 (1866240)
I0424 02:35:00.999708 32537 net.cpp:165] Memory required for data: 49944120
I0424 02:35:00.999719 32537 layer_factory.hpp:77] Creating layer pool2
I0424 02:35:00.999747 32537 net.cpp:100] Creating Layer pool2
I0424 02:35:00.999759 32537 net.cpp:434] pool2 <- conv2
I0424 02:35:00.999775 32537 net.cpp:408] pool2 -> pool2
I0424 02:35:00.999871 32537 net.cpp:150] Setting up pool2
I0424 02:35:00.999886 32537 net.cpp:157] Top shape: 10 256 13 13 (432640)
I0424 02:35:00.999899 32537 net.cpp:165] Memory required for data: 51674680
I0424 02:35:00.999910 32537 layer_factory.hpp:77] Creating layer norm2
I0424 02:35:00.999940 32537 net.cpp:100] Creating Layer norm2
I0424 02:35:00.999953 32537 net.cpp:434] norm2 <- pool2
I0424 02:35:00.999969 32537 net.cpp:408] norm2 -> norm2
I0424 02:35:01.000542 32537 net.cpp:150] Setting up norm2
I0424 02:35:01.000566 32537 net.cpp:157] Top shape: 10 256 13 13 (432640)
I0424 02:35:01.000586 32537 net.cpp:165] Memory required for data: 53405240
I0424 02:35:01.000597 32537 layer_factory.hpp:77] Creating layer conv3
I0424 02:35:01.000618 32537 net.cpp:100] Creating Layer conv3
I0424 02:35:01.000643 32537 net.cpp:434] conv3 <- norm2
I0424 02:35:01.000666 32537 net.cpp:408] conv3 -> conv3
I0424 02:35:01.022308 32537 net.cpp:150] Setting up conv3
I0424 02:35:01.022341 32537 net.cpp:157] Top shape: 10 384 13 13 (648960)
I0424 02:35:01.022353 32537 net.cpp:165] Memory required for data: 56001080
I0424 02:35:01.022377 32537 layer_factory.hpp:77] Creating layer relu3
I0424 02:35:01.022398 32537 net.cpp:100] Creating Layer relu3
I0424 02:35:01.022424 32537 net.cpp:434] relu3 <- conv3
I0424 02:35:01.022444 32537 net.cpp:395] relu3 -> conv3 (in-place)
I0424 02:35:01.022953 32537 net.cpp:150] Setting up relu3
I0424 02:35:01.022974 32537 net.cpp:157] Top shape: 10 384 13 13 (648960)
I0424 02:35:01.022987 32537 net.cpp:165] Memory required for data: 58596920
I0424 02:35:01.023000 32537 layer_factory.hpp:77] Creating layer conv4
I0424 02:35:01.023036 32537 net.cpp:100] Creating Layer conv4
I0424 02:35:01.023048 32537 net.cpp:434] conv4 <- conv3
I0424 02:35:01.023068 32537 net.cpp:408] conv4 -> conv4
I0424 02:35:01.041365 32537 net.cpp:150] Setting up conv4
I0424 02:35:01.041400 32537 net.cpp:157] Top shape: 10 384 13 13 (648960)
I0424 02:35:01.041414 32537 net.cpp:165] Memory required for data: 61192760
I0424 02:35:01.041432 32537 layer_factory.hpp:77] Creating layer relu4
I0424 02:35:01.041455 32537 net.cpp:100] Creating Layer relu4
I0424 02:35:01.041466 32537 net.cpp:434] relu4 <- conv4
I0424 02:35:01.041496 32537 net.cpp:395] relu4 -> conv4 (in-place)
I0424 02:35:01.041834 32537 net.cpp:150] Setting up relu4
I0424 02:35:01.041853 32537 net.cpp:157] Top shape: 10 384 13 13 (648960)
I0424 02:35:01.041865 32537 net.cpp:165] Memory required for data: 63788600
I0424 02:35:01.041877 32537 layer_factory.hpp:77] Creating layer conv5
I0424 02:35:01.041909 32537 net.cpp:100] Creating Layer conv5
I0424 02:35:01.041923 32537 net.cpp:434] conv5 <- conv4
I0424 02:35:01.041960 32537 net.cpp:408] conv5 -> conv5
I0424 02:35:01.055215 32537 net.cpp:150] Setting up conv5
I0424 02:35:01.055244 32537 net.cpp:157] Top shape: 10 256 13 13 (432640)
I0424 02:35:01.055265 32537 net.cpp:165] Memory required for data: 65519160
I0424 02:35:01.055290 32537 layer_factory.hpp:77] Creating layer relu5
I0424 02:35:01.055315 32537 net.cpp:100] Creating Layer relu5
I0424 02:35:01.055327 32537 net.cpp:434] relu5 <- conv5
I0424 02:35:01.055354 32537 net.cpp:395] relu5 -> conv5 (in-place)
I0424 02:35:01.055694 32537 net.cpp:150] Setting up relu5
I0424 02:35:01.055716 32537 net.cpp:157] Top shape: 10 256 13 13 (432640)
I0424 02:35:01.055728 32537 net.cpp:165] Memory required for data: 67249720
I0424 02:35:01.055742 32537 layer_factory.hpp:77] Creating layer pool5
I0424 02:35:01.055764 32537 net.cpp:100] Creating Layer pool5
I0424 02:35:01.055778 32537 net.cpp:434] pool5 <- conv5
I0424 02:35:01.055795 32537 net.cpp:408] pool5 -> pool5
I0424 02:35:01.055871 32537 net.cpp:150] Setting up pool5
I0424 02:35:01.055903 32537 net.cpp:157] Top shape: 10 256 6 6 (92160)
I0424 02:35:01.055917 32537 net.cpp:165] Memory required for data: 67618360
I0424 02:35:01.055930 32537 layer_factory.hpp:77] Creating layer fc6
I0424 02:35:01.055953 32537 net.cpp:100] Creating Layer fc6
I0424 02:35:01.055965 32537 net.cpp:434] fc6 <- pool5
I0424 02:35:01.055984 32537 net.cpp:408] fc6 -> fc6
I0424 02:35:01.882702 32537 net.cpp:150] Setting up fc6
I0424 02:35:01.882753 32537 net.cpp:157] Top shape: 10 4096 (40960)
I0424 02:35:01.882767 32537 net.cpp:165] Memory required for data: 67782200
I0424 02:35:01.882791 32537 layer_factory.hpp:77] Creating layer relu6
I0424 02:35:01.882812 32537 net.cpp:100] Creating Layer relu6
I0424 02:35:01.882830 32537 net.cpp:434] relu6 <- fc6
I0424 02:35:01.882868 32537 net.cpp:395] relu6 -> fc6 (in-place)
I0424 02:35:01.883566 32537 net.cpp:150] Setting up relu6
I0424 02:35:01.883590 32537 net.cpp:157] Top shape: 10 4096 (40960)
I0424 02:35:01.883610 32537 net.cpp:165] Memory required for data: 67946040
I0424 02:35:01.883621 32537 layer_factory.hpp:77] Creating layer drop6
I0424 02:35:01.883647 32537 net.cpp:100] Creating Layer drop6
I0424 02:35:01.883659 32537 net.cpp:434] drop6 <- fc6
I0424 02:35:01.883682 32537 net.cpp:395] drop6 -> fc6 (in-place)
I0424 02:35:01.883730 32537 net.cpp:150] Setting up drop6
I0424 02:35:01.883749 32537 net.cpp:157] Top shape: 10 4096 (40960)
I0424 02:35:01.883766 32537 net.cpp:165] Memory required for data: 68109880
I0424 02:35:01.883779 32537 layer_factory.hpp:77] Creating layer fc7
I0424 02:35:01.883800 32537 net.cpp:100] Creating Layer fc7
I0424 02:35:01.883817 32537 net.cpp:434] fc7 <- fc6
I0424 02:35:01.883832 32537 net.cpp:408] fc7 -> fc7
I0424 02:35:02.251896 32537 net.cpp:150] Setting up fc7
I0424 02:35:02.251940 32537 net.cpp:157] Top shape: 10 4096 (40960)
I0424 02:35:02.251966 32537 net.cpp:165] Memory required for data: 68273720
I0424 02:35:02.251991 32537 layer_factory.hpp:77] Creating layer relu7
I0424 02:35:02.252010 32537 net.cpp:100] Creating Layer relu7
I0424 02:35:02.252024 32537 net.cpp:434] relu7 <- fc7
I0424 02:35:02.252069 32537 net.cpp:395] relu7 -> fc7 (in-place)
I0424 02:35:02.252472 32537 net.cpp:150] Setting up relu7
I0424 02:35:02.252495 32537 net.cpp:157] Top shape: 10 4096 (40960)
I0424 02:35:02.252506 32537 net.cpp:165] Memory required for data: 68437560
I0424 02:35:02.252517 32537 layer_factory.hpp:77] Creating layer drop7
I0424 02:35:02.252542 32537 net.cpp:100] Creating Layer drop7
I0424 02:35:02.252555 32537 net.cpp:434] drop7 <- fc7
I0424 02:35:02.252569 32537 net.cpp:395] drop7 -> fc7 (in-place)
I0424 02:35:02.252624 32537 net.cpp:150] Setting up drop7
I0424 02:35:02.252637 32537 net.cpp:157] Top shape: 10 4096 (40960)
I0424 02:35:02.252657 32537 net.cpp:165] Memory required for data: 68601400
I0424 02:35:02.252671 32537 layer_factory.hpp:77] Creating layer fc8_finalproject
I0424 02:35:02.252692 32537 net.cpp:100] Creating Layer fc8_finalproject
I0424 02:35:02.252710 32537 net.cpp:434] fc8_finalproject <- fc7
I0424 02:35:02.252725 32537 net.cpp:408] fc8_finalproject -> fc8_finalproject
I0424 02:35:02.253824 32537 net.cpp:150] Setting up fc8_finalproject
I0424 02:35:02.253841 32537 net.cpp:157] Top shape: 10 11 (110)
I0424 02:35:02.253859 32537 net.cpp:165] Memory required for data: 68601840
I0424 02:35:02.253876 32537 net.cpp:228] fc8_finalproject does not need backward computation.
I0424 02:35:02.253890 32537 net.cpp:228] drop7 does not need backward computation.
I0424 02:35:02.253903 32537 net.cpp:228] relu7 does not need backward computation.
I0424 02:35:02.253916 32537 net.cpp:228] fc7 does not need backward computation.
…
