…
W0430 18:13:01.839216 13956 _caffe.cpp:123] Use this instead (with the named "weights" parameter):
W0430 18:13:01.839236 13956 _caffe.cpp:125] Net('/N/dc2/scratch/snehvish/caffe/models/finalproject/deploy.prototxt', 1, weights='/N/dc2/scratch/snehvish/caffe/models/finalproject/finalproject_iter_90000.caffemodel')
I0430 18:13:02.364497 13956 net.cpp:58] Initializing net from parameters: 
name: "finalprojectCaffeNet"
state {
  phase: TEST
  level: 0
}
layer {
  name: "data"
  type: "Input"
  top: "data"
  input_param {
    shape {
      dim: 10
      dim: 3
      dim: 227
      dim: 227
    }
  }
}
layer {
  name: "conv1"
  type: "Convolution"
  bottom: "data"
  top: "conv1"
  param {
    lr_mult: 1
    decay_mult: 1
  }
  param {
    lr_mult: 2
    decay_mult: 0
  }
  convolution_param {
    num_output: 96
    kernel_size: 11
    stride: 4
    weight_filler {
      type: "gaussian"
      std: 0.01
    }
    bias_filler {
      type: "constant"
      value: 0
    }
  }
}
layer {
  name: "relu1"
  type: "ReLU"
  bottom: "conv1"
  top: "conv1"
}
layer {
  name: "pool1"
  type: "Pooling"
  bottom: "conv1"
  top: "pool1"
  pooling_param {
    pool: MAX
    kernel_size: 3
    stride: 2
  }
}
layer {
  name: "norm1"
  type: "LRN"
  bottom: "pool1"
  top: "norm1"
  lrn_param {
    local_size: 5
    alpha: 0.0001
    beta: 0.75
  }
}
layer {
  name: "conv2"
  type: "Convolution"
  bottom: "norm1"
  top: "conv2"
  param {
    lr_mult: 1
    decay_mult: 1
  }
  param {
    lr_mult: 2
    decay_mult: 0
  }
  convolution_param {
    num_output: 256
    pad: 2
    kernel_size: 5
    group: 2
    weight_filler {
      type: "gaussian"
      std: 0.01
    }
    bias_filler {
      type: "constant"
      value: 1
    }
  }
}
layer {
  name: "relu2"
  type: "ReLU"
  bottom: "conv2"
  top: "conv2"
}
layer {
  name: "pool2"
  type: "Pooling"
  bottom: "conv2"
  top: "pool2"
  pooling_param {
    pool: MAX
    kernel_size: 3
    stride: 2
  }
}
layer {
  name: "norm2"
  type: "LRN"
  bottom: "pool2"
  top: "norm2"
  lrn_param {
    local_size: 5
    alpha: 0.0001
    beta: 0.75
  }
}
layer {
  name: "conv3"
  type: "Convolution"
  bottom: "norm2"
  top: "conv3"
  param {
    lr_mult: 1
    decay_mult: 1
  }
  param {
    lr_mult: 2
    decay_mult: 0
  }
  convolution_param {
    num_output: 384
    pad: 1
    kernel_size: 3
    weight_filler {
      type: "gaussian"
      std: 0.01
    }
    bias_filler {
      type: "constant"
      value: 0
    }
  }
}
layer {
  name: "relu3"
  type: "ReLU"
  bottom: "conv3"
  top: "conv3"
}
layer {
  name: "conv4"
  type: "Convolution"
  bottom: "conv3"
  top: "conv4"
  param {
    lr_mult: 1
    decay_mult: 1
  }
  param {
    lr_mult: 2
    decay_mult: 0
  }
  convolution_param {
    num_output: 384
    pad: 1
    kernel_size: 3
    group: 2
    weight_filler {
      type: "gaussian"
      std: 0.01
    }
    bias_filler {
      type: "constant"
      value: 1
    }
  }
}
layer {
  name: "relu4"
  type: "ReLU"
  bottom: "conv4"
  top: "conv4"
}
layer {
  name: "conv5"
  type: "Convolution"
  bottom: "conv4"
  top: "conv5"
  param {
    lr_mult: 1
    decay_mult: 1
  }
  param {
    lr_mult: 2
    decay_mult: 0
  }
  convolution_param {
    num_output: 256
    pad: 1
    kernel_size: 3
    group: 2
    weight_filler {
      type: "gaussian"
      std: 0.01
    }
    bias_filler {
      type: "constant"
      value: 1
    }
  }
}
layer {
  name: "relu5"
  type: "ReLU"
  bottom: "conv5"
  top: "conv5"
}
layer {
  name: "pool5"
  type: "Pooling"
  bottom: "conv5"
  top: "pool5"
  pooling_param {
    pool: MAX
    kernel_size: 3
    stride: 2
  }
}
layer {
  name: "fc6"
  type: "InnerProduct"
  bottom: "pool5"
  top: "fc6"
  param {
    lr_mult: 1
    decay_mult: 1
  }
  param {
    lr_mult: 2
    decay_mult: 0
  }
  inner_product_param {
    num_output: 4096
    weight_filler {
      type: "gaussian"
      std: 0.005
    }
    bias_filler {
      type: "constant"
      value: 1
    }
  }
}
layer {
  name: "relu6"
  type: "ReLU"
  bottom: "fc6"
  top: "fc6"
}
layer {
  name: "drop6"
  type: "Dropout"
  bottom: "fc6"
  top: "fc6"
  dropout_param {
    dropout_ratio: 0.5
  }
}
layer {
  name: "fc7"
  type: "InnerProduct"
  bottom: "fc6"
  top: "fc7"
  param {
    lr_mult: 1
    decay_mult: 1
  }
  param {
    lr_mult: 2
    decay_mult: 0
  }
  inner_product_param {
    num_output: 4096
    weight_filler {
      type: "gaussian"
      std: 0.005
    }
    bias_filler {
      type: "constant"
      value: 1
    }
  }
}
layer {
  name: "relu7"
  type: "ReLU"
  bottom: "fc7"
  top: "fc7"
}
layer {
  name: "drop7"
  type: "Dropout"
  bottom: "fc7"
  top: "fc7"
  dropout_param {
    dropout_ratio: 0.5
  }
}
layer {
  name: "fc8_finalproject"
  type: "InnerProduct"
  bottom: "fc7"
  top: "fc8_finalproject"
  param {
    lr_mult: 10
    decay_mult: 1
  }
  param {
    lr_mult: 20
    decay_mult: 0
  }
  inner_product_param {
    num_output: 11
    weight_filler {
      type: "gaussian"
      std: 0.01
    }
    bias_filler {
      type: "constant"
      value: 0
    }
  }
}
I0430 18:13:02.364701 13956 layer_factory.hpp:77] Creating layer data
I0430 18:13:02.364842 13956 net.cpp:100] Creating Layer data
I0430 18:13:02.364872 13956 net.cpp:408] data -> data
I0430 18:13:02.364970 13956 net.cpp:150] Setting up data
I0430 18:13:02.365000 13956 net.cpp:157] Top shape: 10 3 227 227 (1545870)
I0430 18:13:02.365010 13956 net.cpp:165] Memory required for data: 6183480
I0430 18:13:02.365025 13956 layer_factory.hpp:77] Creating layer conv1
I0430 18:13:02.365049 13956 net.cpp:100] Creating Layer conv1
I0430 18:13:02.365063 13956 net.cpp:434] conv1 <- data
I0430 18:13:02.365087 13956 net.cpp:408] conv1 -> conv1
I0430 18:13:02.902858 13956 net.cpp:150] Setting up conv1
I0430 18:13:02.902904 13956 net.cpp:157] Top shape: 10 96 55 55 (2904000)
I0430 18:13:02.902925 13956 net.cpp:165] Memory required for data: 17799480
I0430 18:13:02.902956 13956 layer_factory.hpp:77] Creating layer relu1
I0430 18:13:02.902987 13956 net.cpp:100] Creating Layer relu1
I0430 18:13:02.903026 13956 net.cpp:434] relu1 <- conv1
I0430 18:13:02.903043 13956 net.cpp:395] relu1 -> conv1 (in-place)
I0430 18:13:02.903395 13956 net.cpp:150] Setting up relu1
I0430 18:13:02.903414 13956 net.cpp:157] Top shape: 10 96 55 55 (2904000)
I0430 18:13:02.903426 13956 net.cpp:165] Memory required for data: 29415480
I0430 18:13:02.903437 13956 layer_factory.hpp:77] Creating layer pool1
I0430 18:13:02.903462 13956 net.cpp:100] Creating Layer pool1
I0430 18:13:02.903475 13956 net.cpp:434] pool1 <- conv1
I0430 18:13:02.903492 13956 net.cpp:408] pool1 -> pool1
I0430 18:13:02.903522 13956 net.cpp:150] Setting up pool1
I0430 18:13:02.903537 13956 net.cpp:157] Top shape: 10 96 27 27 (699840)
I0430 18:13:02.903548 13956 net.cpp:165] Memory required for data: 32214840
I0430 18:13:02.903568 13956 layer_factory.hpp:77] Creating layer norm1
I0430 18:13:02.903595 13956 net.cpp:100] Creating Layer norm1
I0430 18:13:02.903607 13956 net.cpp:434] norm1 <- pool1
I0430 18:13:02.903621 13956 net.cpp:408] norm1 -> norm1
I0430 18:13:02.904140 13956 net.cpp:150] Setting up norm1
I0430 18:13:02.904162 13956 net.cpp:157] Top shape: 10 96 27 27 (699840)
I0430 18:13:02.904175 13956 net.cpp:165] Memory required for data: 35014200
I0430 18:13:02.904186 13956 layer_factory.hpp:77] Creating layer conv2
I0430 18:13:02.904224 13956 net.cpp:100] Creating Layer conv2
I0430 18:13:02.904237 13956 net.cpp:434] conv2 <- norm1
I0430 18:13:02.904263 13956 net.cpp:408] conv2 -> conv2
I0430 18:13:02.913633 13956 net.cpp:150] Setting up conv2
I0430 18:13:02.913666 13956 net.cpp:157] Top shape: 10 256 27 27 (1866240)
I0430 18:13:02.913679 13956 net.cpp:165] Memory required for data: 42479160
I0430 18:13:02.913700 13956 layer_factory.hpp:77] Creating layer relu2
I0430 18:13:02.913733 13956 net.cpp:100] Creating Layer relu2
I0430 18:13:02.913745 13956 net.cpp:434] relu2 <- conv2
I0430 18:13:02.913760 13956 net.cpp:395] relu2 -> conv2 (in-place)
I0430 18:13:02.914119 13956 net.cpp:150] Setting up relu2
I0430 18:13:02.914141 13956 net.cpp:157] Top shape: 10 256 27 27 (1866240)
I0430 18:13:02.914153 13956 net.cpp:165] Memory required for data: 49944120
I0430 18:13:02.914167 13956 layer_factory.hpp:77] Creating layer pool2
I0430 18:13:02.914199 13956 net.cpp:100] Creating Layer pool2
I0430 18:13:02.914211 13956 net.cpp:434] pool2 <- conv2
I0430 18:13:02.914225 13956 net.cpp:408] pool2 -> pool2
I0430 18:13:02.914244 13956 net.cpp:150] Setting up pool2
I0430 18:13:02.914260 13956 net.cpp:157] Top shape: 10 256 13 13 (432640)
I0430 18:13:02.914278 13956 net.cpp:165] Memory required for data: 51674680
I0430 18:13:02.914290 13956 layer_factory.hpp:77] Creating layer norm2
I0430 18:13:02.914311 13956 net.cpp:100] Creating Layer norm2
I0430 18:13:02.914322 13956 net.cpp:434] norm2 <- pool2
I0430 18:13:02.914341 13956 net.cpp:408] norm2 -> norm2
I0430 18:13:02.914854 13956 net.cpp:150] Setting up norm2
I0430 18:13:02.914878 13956 net.cpp:157] Top shape: 10 256 13 13 (432640)
I0430 18:13:02.914891 13956 net.cpp:165] Memory required for data: 53405240
I0430 18:13:02.914906 13956 layer_factory.hpp:77] Creating layer conv3
I0430 18:13:02.914938 13956 net.cpp:100] Creating Layer conv3
I0430 18:13:02.914952 13956 net.cpp:434] conv3 <- norm2
I0430 18:13:02.914973 13956 net.cpp:408] conv3 -> conv3
I0430 18:13:02.939343 13956 net.cpp:150] Setting up conv3
I0430 18:13:02.939374 13956 net.cpp:157] Top shape: 10 384 13 13 (648960)
I0430 18:13:02.939398 13956 net.cpp:165] Memory required for data: 56001080
I0430 18:13:02.939419 13956 layer_factory.hpp:77] Creating layer relu3
I0430 18:13:02.939436 13956 net.cpp:100] Creating Layer relu3
I0430 18:13:02.939452 13956 net.cpp:434] relu3 <- conv3
I0430 18:13:02.939482 13956 net.cpp:395] relu3 -> conv3 (in-place)
I0430 18:13:02.939977 13956 net.cpp:150] Setting up relu3
I0430 18:13:02.939997 13956 net.cpp:157] Top shape: 10 384 13 13 (648960)
I0430 18:13:02.940009 13956 net.cpp:165] Memory required for data: 58596920
I0430 18:13:02.940021 13956 layer_factory.hpp:77] Creating layer conv4
I0430 18:13:02.940054 13956 net.cpp:100] Creating Layer conv4
I0430 18:13:02.940066 13956 net.cpp:434] conv4 <- conv3
I0430 18:13:02.940085 13956 net.cpp:408] conv4 -> conv4
I0430 18:13:02.960165 13956 net.cpp:150] Setting up conv4
I0430 18:13:02.960196 13956 net.cpp:157] Top shape: 10 384 13 13 (648960)
I0430 18:13:02.960214 13956 net.cpp:165] Memory required for data: 61192760
I0430 18:13:02.960234 13956 layer_factory.hpp:77] Creating layer relu4
I0430 18:13:02.960250 13956 net.cpp:100] Creating Layer relu4
I0430 18:13:02.960270 13956 net.cpp:434] relu4 <- conv4
I0430 18:13:02.960295 13956 net.cpp:395] relu4 -> conv4 (in-place)
I0430 18:13:02.960628 13956 net.cpp:150] Setting up relu4
I0430 18:13:02.960646 13956 net.cpp:157] Top shape: 10 384 13 13 (648960)
I0430 18:13:02.960659 13956 net.cpp:165] Memory required for data: 63788600
I0430 18:13:02.960669 13956 layer_factory.hpp:77] Creating layer conv5
I0430 18:13:02.960707 13956 net.cpp:100] Creating Layer conv5
I0430 18:13:02.960721 13956 net.cpp:434] conv5 <- conv4
I0430 18:13:02.960737 13956 net.cpp:408] conv5 -> conv5
I0430 18:13:02.973253 13956 net.cpp:150] Setting up conv5
I0430 18:13:02.973281 13956 net.cpp:157] Top shape: 10 256 13 13 (432640)
I0430 18:13:02.973299 13956 net.cpp:165] Memory required for data: 65519160
I0430 18:13:02.973325 13956 layer_factory.hpp:77] Creating layer relu5
I0430 18:13:02.973350 13956 net.cpp:100] Creating Layer relu5
I0430 18:13:02.973361 13956 net.cpp:434] relu5 <- conv5
I0430 18:13:02.973387 13956 net.cpp:395] relu5 -> conv5 (in-place)
I0430 18:13:02.973724 13956 net.cpp:150] Setting up relu5
I0430 18:13:02.973743 13956 net.cpp:157] Top shape: 10 256 13 13 (432640)
I0430 18:13:02.973754 13956 net.cpp:165] Memory required for data: 67249720
I0430 18:13:02.973765 13956 layer_factory.hpp:77] Creating layer pool5
I0430 18:13:02.973783 13956 net.cpp:100] Creating Layer pool5
I0430 18:13:02.973801 13956 net.cpp:434] pool5 <- conv5
I0430 18:13:02.973820 13956 net.cpp:408] pool5 -> pool5
I0430 18:13:02.973845 13956 net.cpp:150] Setting up pool5
I0430 18:13:02.973860 13956 net.cpp:157] Top shape: 10 256 6 6 (92160)
I0430 18:13:02.973872 13956 net.cpp:165] Memory required for data: 67618360
I0430 18:13:02.973882 13956 layer_factory.hpp:77] Creating layer fc6
I0430 18:13:02.973908 13956 net.cpp:100] Creating Layer fc6
I0430 18:13:02.973920 13956 net.cpp:434] fc6 <- pool5
I0430 18:13:02.973944 13956 net.cpp:408] fc6 -> fc6
I0430 18:13:03.956717 13956 net.cpp:150] Setting up fc6
I0430 18:13:03.956761 13956 net.cpp:157] Top shape: 10 4096 (40960)
I0430 18:13:03.956787 13956 net.cpp:165] Memory required for data: 67782200
I0430 18:13:03.956814 13956 layer_factory.hpp:77] Creating layer relu6
I0430 18:13:03.956832 13956 net.cpp:100] Creating Layer relu6
I0430 18:13:03.956845 13956 net.cpp:434] relu6 <- fc6
I0430 18:13:03.956863 13956 net.cpp:395] relu6 -> fc6 (in-place)
I0430 18:13:03.957640 13956 net.cpp:150] Setting up relu6
I0430 18:13:03.957660 13956 net.cpp:157] Top shape: 10 4096 (40960)
I0430 18:13:03.957679 13956 net.cpp:165] Memory required for data: 67946040
I0430 18:13:03.957692 13956 layer_factory.hpp:77] Creating layer drop6
I0430 18:13:03.957721 13956 net.cpp:100] Creating Layer drop6
I0430 18:13:03.957733 13956 net.cpp:434] drop6 <- fc6
I0430 18:13:03.957754 13956 net.cpp:395] drop6 -> fc6 (in-place)
I0430 18:13:03.957772 13956 net.cpp:150] Setting up drop6
I0430 18:13:03.957785 13956 net.cpp:157] Top shape: 10 4096 (40960)
I0430 18:13:03.957798 13956 net.cpp:165] Memory required for data: 68109880
I0430 18:13:03.957808 13956 layer_factory.hpp:77] Creating layer fc7
I0430 18:13:03.957837 13956 net.cpp:100] Creating Layer fc7
I0430 18:13:03.957849 13956 net.cpp:434] fc7 <- fc6
I0430 18:13:03.957864 13956 net.cpp:408] fc7 -> fc7
I0430 18:13:04.394767 13956 net.cpp:150] Setting up fc7
I0430 18:13:04.394810 13956 net.cpp:157] Top shape: 10 4096 (40960)
I0430 18:13:04.394824 13956 net.cpp:165] Memory required for data: 68273720
I0430 18:13:04.394848 13956 layer_factory.hpp:77] Creating layer relu7
I0430 18:13:04.394867 13956 net.cpp:100] Creating Layer relu7
I0430 18:13:04.394879 13956 net.cpp:434] relu7 <- fc7
I0430 18:13:04.394924 13956 net.cpp:395] relu7 -> fc7 (in-place)
I0430 18:13:04.395349 13956 net.cpp:150] Setting up relu7
I0430 18:13:04.395367 13956 net.cpp:157] Top shape: 10 4096 (40960)
I0430 18:13:04.395383 13956 net.cpp:165] Memory required for data: 68437560
I0430 18:13:04.395393 13956 layer_factory.hpp:77] Creating layer drop7
I0430 18:13:04.395419 13956 net.cpp:100] Creating Layer drop7
I0430 18:13:04.395431 13956 net.cpp:434] drop7 <- fc7
I0430 18:13:04.395447 13956 net.cpp:395] drop7 -> fc7 (in-place)
I0430 18:13:04.395472 13956 net.cpp:150] Setting up drop7
I0430 18:13:04.395484 13956 net.cpp:157] Top shape: 10 4096 (40960)
I0430 18:13:04.395495 13956 net.cpp:165] Memory required for data: 68601400
I0430 18:13:04.395515 13956 layer_factory.hpp:77] Creating layer fc8_finalproject
I0430 18:13:04.395536 13956 net.cpp:100] Creating Layer fc8_finalproject
I0430 18:13:04.395548 13956 net.cpp:434] fc8_finalproject <- fc7
I0430 18:13:04.395570 13956 net.cpp:408] fc8_finalproject -> fc8_finalproject
I0430 18:13:04.396589 13956 net.cpp:150] Setting up fc8_finalproject
I0430 18:13:04.396605 13956 net.cpp:157] Top shape: 10 11 (110)
I0430 18:13:04.396623 13956 net.cpp:165] Memory required for data: 68601840
I0430 18:13:04.396642 13956 net.cpp:228] fc8_finalproject does not need backward computation.
I0430 18:13:04.396653 13956 net.cpp:228] drop7 does not need backward computation.
I0430 18:13:04.396667 13956 net.cpp:228] relu7 does not need backward computation.
I0430 18:13:04.396683 13956 net.cpp:228] fc7 does not need backward computation.
…
