…
W0430 20:44:16.390774 24855 _caffe.cpp:123] Use this instead (with the named "weights" parameter):
W0430 20:44:16.390792 24855 _caffe.cpp:125] Net('/N/dc2/scratch/snehvish/caffe/models/finalproject/deploy.prototxt', 1, weights='/N/dc2/scratch/snehvish/caffe/models/finalproject/finalproject_iter_10000.caffemodel')
I0430 20:44:17.034394 24855 net.cpp:58] Initializing net from parameters: 
name: "finalprojectCaffeNet"
state {
  phase: TEST
  level: 0
}
layer {
  name: "data"
  type: "Input"
  top: "data"
  input_param {
    shape {
      dim: 10
      dim: 3
      dim: 227
      dim: 227
    }
  }
}
layer {
  name: "conv1"
  type: "Convolution"
  bottom: "data"
  top: "conv1"
  param {
    lr_mult: 1
    decay_mult: 1
  }
  param {
    lr_mult: 2
    decay_mult: 0
  }
  convolution_param {
    num_output: 96
    kernel_size: 11
    stride: 4
    weight_filler {
      type: "gaussian"
      std: 0.01
    }
    bias_filler {
      type: "constant"
      value: 0
    }
  }
}
layer {
  name: "relu1"
  type: "ReLU"
  bottom: "conv1"
  top: "conv1"
}
layer {
  name: "pool1"
  type: "Pooling"
  bottom: "conv1"
  top: "pool1"
  pooling_param {
    pool: MAX
    kernel_size: 3
    stride: 2
  }
}
layer {
  name: "norm1"
  type: "LRN"
  bottom: "pool1"
  top: "norm1"
  lrn_param {
    local_size: 5
    alpha: 0.0001
    beta: 0.75
  }
}
layer {
  name: "conv2"
  type: "Convolution"
  bottom: "norm1"
  top: "conv2"
  param {
    lr_mult: 1
    decay_mult: 1
  }
  param {
    lr_mult: 2
    decay_mult: 0
  }
  convolution_param {
    num_output: 256
    pad: 2
    kernel_size: 5
    group: 2
    weight_filler {
      type: "gaussian"
      std: 0.01
    }
    bias_filler {
      type: "constant"
      value: 1
    }
  }
}
layer {
  name: "relu2"
  type: "ReLU"
  bottom: "conv2"
  top: "conv2"
}
layer {
  name: "pool2"
  type: "Pooling"
  bottom: "conv2"
  top: "pool2"
  pooling_param {
    pool: MAX
    kernel_size: 3
    stride: 2
  }
}
layer {
  name: "norm2"
  type: "LRN"
  bottom: "pool2"
  top: "norm2"
  lrn_param {
    local_size: 5
    alpha: 0.0001
    beta: 0.75
  }
}
layer {
  name: "conv3"
  type: "Convolution"
  bottom: "norm2"
  top: "conv3"
  param {
    lr_mult: 1
    decay_mult: 1
  }
  param {
    lr_mult: 2
    decay_mult: 0
  }
  convolution_param {
    num_output: 384
    pad: 1
    kernel_size: 3
    weight_filler {
      type: "gaussian"
      std: 0.01
    }
    bias_filler {
      type: "constant"
      value: 0
    }
  }
}
layer {
  name: "relu3"
  type: "ReLU"
  bottom: "conv3"
  top: "conv3"
}
layer {
  name: "conv4"
  type: "Convolution"
  bottom: "conv3"
  top: "conv4"
  param {
    lr_mult: 1
    decay_mult: 1
  }
  param {
    lr_mult: 2
    decay_mult: 0
  }
  convolution_param {
    num_output: 384
    pad: 1
    kernel_size: 3
    group: 2
    weight_filler {
      type: "gaussian"
      std: 0.01
    }
    bias_filler {
      type: "constant"
      value: 1
    }
  }
}
layer {
  name: "relu4"
  type: "ReLU"
  bottom: "conv4"
  top: "conv4"
}
layer {
  name: "conv5"
  type: "Convolution"
  bottom: "conv4"
  top: "conv5"
  param {
    lr_mult: 1
    decay_mult: 1
  }
  param {
    lr_mult: 2
    decay_mult: 0
  }
  convolution_param {
    num_output: 256
    pad: 1
    kernel_size: 3
    group: 2
    weight_filler {
      type: "gaussian"
      std: 0.01
    }
    bias_filler {
      type: "constant"
      value: 1
    }
  }
}
layer {
  name: "relu5"
  type: "ReLU"
  bottom: "conv5"
  top: "conv5"
}
layer {
  name: "pool5"
  type: "Pooling"
  bottom: "conv5"
  top: "pool5"
  pooling_param {
    pool: MAX
    kernel_size: 3
    stride: 2
  }
}
layer {
  name: "fc6"
  type: "InnerProduct"
  bottom: "pool5"
  top: "fc6"
  param {
    lr_mult: 1
    decay_mult: 1
  }
  param {
    lr_mult: 2
    decay_mult: 0
  }
  inner_product_param {
    num_output: 4096
    weight_filler {
      type: "gaussian"
      std: 0.005
    }
    bias_filler {
      type: "constant"
      value: 1
    }
  }
}
layer {
  name: "relu6"
  type: "ReLU"
  bottom: "fc6"
  top: "fc6"
}
layer {
  name: "drop6"
  type: "Dropout"
  bottom: "fc6"
  top: "fc6"
  dropout_param {
    dropout_ratio: 0.5
  }
}
layer {
  name: "fc7"
  type: "InnerProduct"
  bottom: "fc6"
  top: "fc7"
  param {
    lr_mult: 1
    decay_mult: 1
  }
  param {
    lr_mult: 2
    decay_mult: 0
  }
  inner_product_param {
    num_output: 4096
    weight_filler {
      type: "gaussian"
      std: 0.005
    }
    bias_filler {
      type: "constant"
      value: 1
    }
  }
}
layer {
  name: "relu7"
  type: "ReLU"
  bottom: "fc7"
  top: "fc7"
}
layer {
  name: "drop7"
  type: "Dropout"
  bottom: "fc7"
  top: "fc7"
  dropout_param {
    dropout_ratio: 0.5
  }
}
layer {
  name: "fc8_finalproject"
  type: "InnerProduct"
  bottom: "fc7"
  top: "fc8_finalproject"
  param {
    lr_mult: 10
    decay_mult: 1
  }
  param {
    lr_mult: 20
    decay_mult: 0
  }
  inner_product_param {
    num_output: 11
    weight_filler {
      type: "gaussian"
      std: 0.01
    }
    bias_filler {
      type: "constant"
      value: 0
    }
  }
}
I0430 20:44:17.034615 24855 layer_factory.hpp:77] Creating layer data
I0430 20:44:17.034741 24855 net.cpp:100] Creating Layer data
I0430 20:44:17.034770 24855 net.cpp:408] data -> data
I0430 20:44:17.034864 24855 net.cpp:150] Setting up data
I0430 20:44:17.034893 24855 net.cpp:157] Top shape: 10 3 227 227 (1545870)
I0430 20:44:17.034906 24855 net.cpp:165] Memory required for data: 6183480
I0430 20:44:17.034919 24855 layer_factory.hpp:77] Creating layer conv1
I0430 20:44:17.034952 24855 net.cpp:100] Creating Layer conv1
I0430 20:44:17.034966 24855 net.cpp:434] conv1 <- data
I0430 20:44:17.034982 24855 net.cpp:408] conv1 -> conv1
I0430 20:44:17.600656 24855 net.cpp:150] Setting up conv1
I0430 20:44:17.600708 24855 net.cpp:157] Top shape: 10 96 55 55 (2904000)
I0430 20:44:17.600733 24855 net.cpp:165] Memory required for data: 17799480
I0430 20:44:17.600765 24855 layer_factory.hpp:77] Creating layer relu1
I0430 20:44:17.600792 24855 net.cpp:100] Creating Layer relu1
I0430 20:44:17.600833 24855 net.cpp:434] relu1 <- conv1
I0430 20:44:17.600848 24855 net.cpp:395] relu1 -> conv1 (in-place)
I0430 20:44:17.601177 24855 net.cpp:150] Setting up relu1
I0430 20:44:17.601197 24855 net.cpp:157] Top shape: 10 96 55 55 (2904000)
I0430 20:44:17.601208 24855 net.cpp:165] Memory required for data: 29415480
I0430 20:44:17.601219 24855 layer_factory.hpp:77] Creating layer pool1
I0430 20:44:17.601245 24855 net.cpp:100] Creating Layer pool1
I0430 20:44:17.601258 24855 net.cpp:434] pool1 <- conv1
I0430 20:44:17.601271 24855 net.cpp:408] pool1 -> pool1
I0430 20:44:17.601305 24855 net.cpp:150] Setting up pool1
I0430 20:44:17.601320 24855 net.cpp:157] Top shape: 10 96 27 27 (699840)
I0430 20:44:17.601332 24855 net.cpp:165] Memory required for data: 32214840
I0430 20:44:17.601351 24855 layer_factory.hpp:77] Creating layer norm1
I0430 20:44:17.601373 24855 net.cpp:100] Creating Layer norm1
I0430 20:44:17.601385 24855 net.cpp:434] norm1 <- pool1
I0430 20:44:17.601399 24855 net.cpp:408] norm1 -> norm1
I0430 20:44:17.601903 24855 net.cpp:150] Setting up norm1
I0430 20:44:17.601925 24855 net.cpp:157] Top shape: 10 96 27 27 (699840)
I0430 20:44:17.601938 24855 net.cpp:165] Memory required for data: 35014200
I0430 20:44:17.601953 24855 layer_factory.hpp:77] Creating layer conv2
I0430 20:44:17.601985 24855 net.cpp:100] Creating Layer conv2
I0430 20:44:17.601999 24855 net.cpp:434] conv2 <- norm1
I0430 20:44:17.602023 24855 net.cpp:408] conv2 -> conv2
I0430 20:44:17.611310 24855 net.cpp:150] Setting up conv2
I0430 20:44:17.611340 24855 net.cpp:157] Top shape: 10 256 27 27 (1866240)
I0430 20:44:17.611358 24855 net.cpp:165] Memory required for data: 42479160
I0430 20:44:17.611380 24855 layer_factory.hpp:77] Creating layer relu2
I0430 20:44:17.611404 24855 net.cpp:100] Creating Layer relu2
I0430 20:44:17.611428 24855 net.cpp:434] relu2 <- conv2
I0430 20:44:17.611443 24855 net.cpp:395] relu2 -> conv2 (in-place)
I0430 20:44:17.611785 24855 net.cpp:150] Setting up relu2
I0430 20:44:17.611804 24855 net.cpp:157] Top shape: 10 256 27 27 (1866240)
I0430 20:44:17.611814 24855 net.cpp:165] Memory required for data: 49944120
I0430 20:44:17.611825 24855 layer_factory.hpp:77] Creating layer pool2
I0430 20:44:17.611842 24855 net.cpp:100] Creating Layer pool2
I0430 20:44:17.611860 24855 net.cpp:434] pool2 <- conv2
I0430 20:44:17.611878 24855 net.cpp:408] pool2 -> pool2
I0430 20:44:17.611897 24855 net.cpp:150] Setting up pool2
I0430 20:44:17.611910 24855 net.cpp:157] Top shape: 10 256 13 13 (432640)
I0430 20:44:17.611922 24855 net.cpp:165] Memory required for data: 51674680
I0430 20:44:17.611941 24855 layer_factory.hpp:77] Creating layer norm2
I0430 20:44:17.611963 24855 net.cpp:100] Creating Layer norm2
I0430 20:44:17.611974 24855 net.cpp:434] norm2 <- pool2
I0430 20:44:17.611994 24855 net.cpp:408] norm2 -> norm2
I0430 20:44:17.612510 24855 net.cpp:150] Setting up norm2
I0430 20:44:17.612531 24855 net.cpp:157] Top shape: 10 256 13 13 (432640)
I0430 20:44:17.612543 24855 net.cpp:165] Memory required for data: 53405240
I0430 20:44:17.612555 24855 layer_factory.hpp:77] Creating layer conv3
I0430 20:44:17.612589 24855 net.cpp:100] Creating Layer conv3
I0430 20:44:17.612606 24855 net.cpp:434] conv3 <- norm2
I0430 20:44:17.612629 24855 net.cpp:408] conv3 -> conv3
I0430 20:44:17.637022 24855 net.cpp:150] Setting up conv3
I0430 20:44:17.637058 24855 net.cpp:157] Top shape: 10 384 13 13 (648960)
I0430 20:44:17.637078 24855 net.cpp:165] Memory required for data: 56001080
I0430 20:44:17.637100 24855 layer_factory.hpp:77] Creating layer relu3
I0430 20:44:17.637117 24855 net.cpp:100] Creating Layer relu3
I0430 20:44:17.637135 24855 net.cpp:434] relu3 <- conv3
I0430 20:44:17.637161 24855 net.cpp:395] relu3 -> conv3 (in-place)
I0430 20:44:17.637676 24855 net.cpp:150] Setting up relu3
I0430 20:44:17.637697 24855 net.cpp:157] Top shape: 10 384 13 13 (648960)
I0430 20:44:17.637709 24855 net.cpp:165] Memory required for data: 58596920
I0430 20:44:17.637720 24855 layer_factory.hpp:77] Creating layer conv4
I0430 20:44:17.637754 24855 net.cpp:100] Creating Layer conv4
I0430 20:44:17.637768 24855 net.cpp:434] conv4 <- conv3
I0430 20:44:17.637787 24855 net.cpp:408] conv4 -> conv4
I0430 20:44:17.657901 24855 net.cpp:150] Setting up conv4
I0430 20:44:17.657934 24855 net.cpp:157] Top shape: 10 384 13 13 (648960)
I0430 20:44:17.657948 24855 net.cpp:165] Memory required for data: 61192760
I0430 20:44:17.657965 24855 layer_factory.hpp:77] Creating layer relu4
I0430 20:44:17.657986 24855 net.cpp:100] Creating Layer relu4
I0430 20:44:17.657999 24855 net.cpp:434] relu4 <- conv4
I0430 20:44:17.658015 24855 net.cpp:395] relu4 -> conv4 (in-place)
I0430 20:44:17.658360 24855 net.cpp:150] Setting up relu4
I0430 20:44:17.658377 24855 net.cpp:157] Top shape: 10 384 13 13 (648960)
I0430 20:44:17.658390 24855 net.cpp:165] Memory required for data: 63788600
I0430 20:44:17.658401 24855 layer_factory.hpp:77] Creating layer conv5
I0430 20:44:17.658426 24855 net.cpp:100] Creating Layer conv5
I0430 20:44:17.658437 24855 net.cpp:434] conv5 <- conv4
I0430 20:44:17.658459 24855 net.cpp:408] conv5 -> conv5
I0430 20:44:17.670951 24855 net.cpp:150] Setting up conv5
I0430 20:44:17.670980 24855 net.cpp:157] Top shape: 10 256 13 13 (432640)
I0430 20:44:17.671000 24855 net.cpp:165] Memory required for data: 65519160
I0430 20:44:17.671025 24855 layer_factory.hpp:77] Creating layer relu5
I0430 20:44:17.671048 24855 net.cpp:100] Creating Layer relu5
I0430 20:44:17.671061 24855 net.cpp:434] relu5 <- conv5
I0430 20:44:17.671087 24855 net.cpp:395] relu5 -> conv5 (in-place)
I0430 20:44:17.671416 24855 net.cpp:150] Setting up relu5
I0430 20:44:17.671437 24855 net.cpp:157] Top shape: 10 256 13 13 (432640)
I0430 20:44:17.671449 24855 net.cpp:165] Memory required for data: 67249720
I0430 20:44:17.671463 24855 layer_factory.hpp:77] Creating layer pool5
I0430 20:44:17.671478 24855 net.cpp:100] Creating Layer pool5
I0430 20:44:17.671496 24855 net.cpp:434] pool5 <- conv5
I0430 20:44:17.671514 24855 net.cpp:408] pool5 -> pool5
I0430 20:44:17.671535 24855 net.cpp:150] Setting up pool5
I0430 20:44:17.671551 24855 net.cpp:157] Top shape: 10 256 6 6 (92160)
I0430 20:44:17.671561 24855 net.cpp:165] Memory required for data: 67618360
I0430 20:44:17.671573 24855 layer_factory.hpp:77] Creating layer fc6
I0430 20:44:17.671602 24855 net.cpp:100] Creating Layer fc6
I0430 20:44:17.671613 24855 net.cpp:434] fc6 <- pool5
I0430 20:44:17.671627 24855 net.cpp:408] fc6 -> fc6
I0430 20:44:18.655434 24855 net.cpp:150] Setting up fc6
I0430 20:44:18.655478 24855 net.cpp:157] Top shape: 10 4096 (40960)
I0430 20:44:18.655491 24855 net.cpp:165] Memory required for data: 67782200
I0430 20:44:18.655514 24855 layer_factory.hpp:77] Creating layer relu6
I0430 20:44:18.655532 24855 net.cpp:100] Creating Layer relu6
I0430 20:44:18.655545 24855 net.cpp:434] relu6 <- fc6
I0430 20:44:18.655568 24855 net.cpp:395] relu6 -> fc6 (in-place)
I0430 20:44:18.656321 24855 net.cpp:150] Setting up relu6
I0430 20:44:18.656340 24855 net.cpp:157] Top shape: 10 4096 (40960)
I0430 20:44:18.656360 24855 net.cpp:165] Memory required for data: 67946040
I0430 20:44:18.656375 24855 layer_factory.hpp:77] Creating layer drop6
I0430 20:44:18.656396 24855 net.cpp:100] Creating Layer drop6
I0430 20:44:18.656419 24855 net.cpp:434] drop6 <- fc6
I0430 20:44:18.656438 24855 net.cpp:395] drop6 -> fc6 (in-place)
I0430 20:44:18.656456 24855 net.cpp:150] Setting up drop6
I0430 20:44:18.656478 24855 net.cpp:157] Top shape: 10 4096 (40960)
I0430 20:44:18.656489 24855 net.cpp:165] Memory required for data: 68109880
I0430 20:44:18.656500 24855 layer_factory.hpp:77] Creating layer fc7
I0430 20:44:18.656517 24855 net.cpp:100] Creating Layer fc7
I0430 20:44:18.656532 24855 net.cpp:434] fc7 <- fc6
I0430 20:44:18.656556 24855 net.cpp:408] fc7 -> fc7
I0430 20:44:19.093935 24855 net.cpp:150] Setting up fc7
I0430 20:44:19.093981 24855 net.cpp:157] Top shape: 10 4096 (40960)
I0430 20:44:19.093993 24855 net.cpp:165] Memory required for data: 68273720
I0430 20:44:19.094017 24855 layer_factory.hpp:77] Creating layer relu7
I0430 20:44:19.094041 24855 net.cpp:100] Creating Layer relu7
I0430 20:44:19.094060 24855 net.cpp:434] relu7 <- fc7
I0430 20:44:19.094095 24855 net.cpp:395] relu7 -> fc7 (in-place)
I0430 20:44:19.094517 24855 net.cpp:150] Setting up relu7
I0430 20:44:19.094535 24855 net.cpp:157] Top shape: 10 4096 (40960)
I0430 20:44:19.094547 24855 net.cpp:165] Memory required for data: 68437560
I0430 20:44:19.094558 24855 layer_factory.hpp:77] Creating layer drop7
I0430 20:44:19.094583 24855 net.cpp:100] Creating Layer drop7
I0430 20:44:19.094595 24855 net.cpp:434] drop7 <- fc7
I0430 20:44:19.094612 24855 net.cpp:395] drop7 -> fc7 (in-place)
I0430 20:44:19.094637 24855 net.cpp:150] Setting up drop7
I0430 20:44:19.094651 24855 net.cpp:157] Top shape: 10 4096 (40960)
I0430 20:44:19.094661 24855 net.cpp:165] Memory required for data: 68601400
I0430 20:44:19.094672 24855 layer_factory.hpp:77] Creating layer fc8_finalproject
I0430 20:44:19.094699 24855 net.cpp:100] Creating Layer fc8_finalproject
I0430 20:44:19.094715 24855 net.cpp:434] fc8_finalproject <- fc7
I0430 20:44:19.094730 24855 net.cpp:408] fc8_finalproject -> fc8_finalproject
I0430 20:44:19.095734 24855 net.cpp:150] Setting up fc8_finalproject
I0430 20:44:19.095749 24855 net.cpp:157] Top shape: 10 11 (110)
I0430 20:44:19.095767 24855 net.cpp:165] Memory required for data: 68601840
I0430 20:44:19.095787 24855 net.cpp:228] fc8_finalproject does not need backward computation.
I0430 20:44:19.095798 24855 net.cpp:228] drop7 does not need backward computation.
I0430 20:44:19.095809 24855 net.cpp:228] relu7 does not need backward computation.
I0430 20:44:19.095829 24855 net.cpp:228] fc7 does not need backward computation.
…
